graph torch_jit (
  %input_ids[INT32, batch_sizexsequence]
  %attention_mask[INT32, batch_sizexsequence]
) initializers (
  %embed_tokens.weight[FLOAT, 96104x1024]
  %embed_positions.weight[FLOAT, 1024x1024]
  %layers.0.self_attn.k_proj.bias[FLOAT, 1024]
  %layers.0.self_attn.v_proj.bias[FLOAT, 1024]
  %layers.0.self_attn.q_proj.bias[FLOAT, 1024]
  %layers.0.self_attn.out_proj.bias[FLOAT, 1024]
  %layers.0.self_attn_layer_norm.weight[FLOAT, 1024]
  %layers.0.self_attn_layer_norm.bias[FLOAT, 1024]
  %layers.0.fc1.bias[FLOAT, 4096]
  %layers.0.fc2.bias[FLOAT, 1024]
  %layers.0.final_layer_norm.weight[FLOAT, 1024]
  %layers.0.final_layer_norm.bias[FLOAT, 1024]
  %layers.1.self_attn.k_proj.bias[FLOAT, 1024]
  %layers.1.self_attn.v_proj.bias[FLOAT, 1024]
  %layers.1.self_attn.q_proj.bias[FLOAT, 1024]
  %layers.1.self_attn.out_proj.bias[FLOAT, 1024]
  %layers.1.self_attn_layer_norm.weight[FLOAT, 1024]
  %layers.1.self_attn_layer_norm.bias[FLOAT, 1024]
  %layers.1.fc1.bias[FLOAT, 4096]
  %layers.1.fc2.bias[FLOAT, 1024]
  %layers.1.final_layer_norm.weight[FLOAT, 1024]
  %layers.1.final_layer_norm.bias[FLOAT, 1024]
  %layers.2.self_attn.k_proj.bias[FLOAT, 1024]
  %layers.2.self_attn.v_proj.bias[FLOAT, 1024]
  %layers.2.self_attn.q_proj.bias[FLOAT, 1024]
  %layers.2.self_attn.out_proj.bias[FLOAT, 1024]
  %layers.2.self_attn_layer_norm.weight[FLOAT, 1024]
  %layers.2.self_attn_layer_norm.bias[FLOAT, 1024]
  %layers.2.fc1.bias[FLOAT, 4096]
  %layers.2.fc2.bias[FLOAT, 1024]
  %layers.2.final_layer_norm.weight[FLOAT, 1024]
  %layers.2.final_layer_norm.bias[FLOAT, 1024]
  %layers.3.self_attn.k_proj.bias[FLOAT, 1024]
  %layers.3.self_attn.v_proj.bias[FLOAT, 1024]
  %layers.3.self_attn.q_proj.bias[FLOAT, 1024]
  %layers.3.self_attn.out_proj.bias[FLOAT, 1024]
  %layers.3.self_attn_layer_norm.weight[FLOAT, 1024]
  %layers.3.self_attn_layer_norm.bias[FLOAT, 1024]
  %layers.3.fc1.bias[FLOAT, 4096]
  %layers.3.fc2.bias[FLOAT, 1024]
  %layers.3.final_layer_norm.weight[FLOAT, 1024]
  %layers.3.final_layer_norm.bias[FLOAT, 1024]
  %layers.4.self_attn.k_proj.bias[FLOAT, 1024]
  %layers.4.self_attn.v_proj.bias[FLOAT, 1024]
  %layers.4.self_attn.q_proj.bias[FLOAT, 1024]
  %layers.4.self_attn.out_proj.bias[FLOAT, 1024]
  %layers.4.self_attn_layer_norm.weight[FLOAT, 1024]
  %layers.4.self_attn_layer_norm.bias[FLOAT, 1024]
  %layers.4.fc1.bias[FLOAT, 4096]
  %layers.4.fc2.bias[FLOAT, 1024]
  %layers.4.final_layer_norm.weight[FLOAT, 1024]
  %layers.4.final_layer_norm.bias[FLOAT, 1024]
  %layers.5.self_attn.k_proj.bias[FLOAT, 1024]
  %layers.5.self_attn.v_proj.bias[FLOAT, 1024]
  %layers.5.self_attn.q_proj.bias[FLOAT, 1024]
  %layers.5.self_attn.out_proj.bias[FLOAT, 1024]
  %layers.5.self_attn_layer_norm.weight[FLOAT, 1024]
  %layers.5.self_attn_layer_norm.bias[FLOAT, 1024]
  %layers.5.fc1.bias[FLOAT, 4096]
  %layers.5.fc2.bias[FLOAT, 1024]
  %layers.5.final_layer_norm.weight[FLOAT, 1024]
  %layers.5.final_layer_norm.bias[FLOAT, 1024]
  %layers.6.self_attn.k_proj.bias[FLOAT, 1024]
  %layers.6.self_attn.v_proj.bias[FLOAT, 1024]
  %layers.6.self_attn.q_proj.bias[FLOAT, 1024]
  %layers.6.self_attn.out_proj.bias[FLOAT, 1024]
  %layers.6.self_attn_layer_norm.weight[FLOAT, 1024]
  %layers.6.self_attn_layer_norm.bias[FLOAT, 1024]
  %layers.6.fc1.bias[FLOAT, 4096]
  %layers.6.fc2.bias[FLOAT, 1024]
  %layers.6.final_layer_norm.weight[FLOAT, 1024]
  %layers.6.final_layer_norm.bias[FLOAT, 1024]
  %layers.7.self_attn.k_proj.bias[FLOAT, 1024]
  %layers.7.self_attn.v_proj.bias[FLOAT, 1024]
  %layers.7.self_attn.q_proj.bias[FLOAT, 1024]
  %layers.7.self_attn.out_proj.bias[FLOAT, 1024]
  %layers.7.self_attn_layer_norm.weight[FLOAT, 1024]
  %layers.7.self_attn_layer_norm.bias[FLOAT, 1024]
  %layers.7.fc1.bias[FLOAT, 4096]
  %layers.7.fc2.bias[FLOAT, 1024]
  %layers.7.final_layer_norm.weight[FLOAT, 1024]
  %layers.7.final_layer_norm.bias[FLOAT, 1024]
  %layers.8.self_attn.k_proj.bias[FLOAT, 1024]
  %layers.8.self_attn.v_proj.bias[FLOAT, 1024]
  %layers.8.self_attn.q_proj.bias[FLOAT, 1024]
  %layers.8.self_attn.out_proj.bias[FLOAT, 1024]
  %layers.8.self_attn_layer_norm.weight[FLOAT, 1024]
  %layers.8.self_attn_layer_norm.bias[FLOAT, 1024]
  %layers.8.fc1.bias[FLOAT, 4096]
  %layers.8.fc2.bias[FLOAT, 1024]
  %layers.8.final_layer_norm.weight[FLOAT, 1024]
  %layers.8.final_layer_norm.bias[FLOAT, 1024]
  %layers.9.self_attn.k_proj.bias[FLOAT, 1024]
  %layers.9.self_attn.v_proj.bias[FLOAT, 1024]
  %layers.9.self_attn.q_proj.bias[FLOAT, 1024]
  %layers.9.self_attn.out_proj.bias[FLOAT, 1024]
  %layers.9.self_attn_layer_norm.weight[FLOAT, 1024]
  %layers.9.self_attn_layer_norm.bias[FLOAT, 1024]
  %layers.9.fc1.bias[FLOAT, 4096]
  %layers.9.fc2.bias[FLOAT, 1024]
  %layers.9.final_layer_norm.weight[FLOAT, 1024]
  %layers.9.final_layer_norm.bias[FLOAT, 1024]
  %layers.10.self_attn.k_proj.bias[FLOAT, 1024]
  %layers.10.self_attn.v_proj.bias[FLOAT, 1024]
  %layers.10.self_attn.q_proj.bias[FLOAT, 1024]
  %layers.10.self_attn.out_proj.bias[FLOAT, 1024]
  %layers.10.self_attn_layer_norm.weight[FLOAT, 1024]
  %layers.10.self_attn_layer_norm.bias[FLOAT, 1024]
  %layers.10.fc1.bias[FLOAT, 4096]
  %layers.10.fc2.bias[FLOAT, 1024]
  %layers.10.final_layer_norm.weight[FLOAT, 1024]
  %layers.10.final_layer_norm.bias[FLOAT, 1024]
  %layers.11.self_attn.k_proj.bias[FLOAT, 1024]
  %layers.11.self_attn.v_proj.bias[FLOAT, 1024]
  %layers.11.self_attn.q_proj.bias[FLOAT, 1024]
  %layers.11.self_attn.out_proj.bias[FLOAT, 1024]
  %layers.11.self_attn_layer_norm.weight[FLOAT, 1024]
  %layers.11.self_attn_layer_norm.bias[FLOAT, 1024]
  %layers.11.fc1.bias[FLOAT, 4096]
  %layers.11.fc2.bias[FLOAT, 1024]
  %layers.11.final_layer_norm.weight[FLOAT, 1024]
  %layers.11.final_layer_norm.bias[FLOAT, 1024]
  %layers.12.self_attn.k_proj.bias[FLOAT, 1024]
  %layers.12.self_attn.v_proj.bias[FLOAT, 1024]
  %layers.12.self_attn.q_proj.bias[FLOAT, 1024]
  %layers.12.self_attn.out_proj.bias[FLOAT, 1024]
  %layers.12.self_attn_layer_norm.weight[FLOAT, 1024]
  %layers.12.self_attn_layer_norm.bias[FLOAT, 1024]
  %layers.12.fc1.bias[FLOAT, 4096]
  %layers.12.fc2.bias[FLOAT, 1024]
  %layers.12.final_layer_norm.weight[FLOAT, 1024]
  %layers.12.final_layer_norm.bias[FLOAT, 1024]
  %layers.13.self_attn.k_proj.bias[FLOAT, 1024]
  %layers.13.self_attn.v_proj.bias[FLOAT, 1024]
  %layers.13.self_attn.q_proj.bias[FLOAT, 1024]
  %layers.13.self_attn.out_proj.bias[FLOAT, 1024]
  %layers.13.self_attn_layer_norm.weight[FLOAT, 1024]
  %layers.13.self_attn_layer_norm.bias[FLOAT, 1024]
  %layers.13.fc1.bias[FLOAT, 4096]
  %layers.13.fc2.bias[FLOAT, 1024]
  %layers.13.final_layer_norm.weight[FLOAT, 1024]
  %layers.13.final_layer_norm.bias[FLOAT, 1024]
  %layers.14.self_attn.k_proj.bias[FLOAT, 1024]
  %layers.14.self_attn.v_proj.bias[FLOAT, 1024]
  %layers.14.self_attn.q_proj.bias[FLOAT, 1024]
  %layers.14.self_attn.out_proj.bias[FLOAT, 1024]
  %layers.14.self_attn_layer_norm.weight[FLOAT, 1024]
  %layers.14.self_attn_layer_norm.bias[FLOAT, 1024]
  %layers.14.fc1.bias[FLOAT, 4096]
  %layers.14.fc2.bias[FLOAT, 1024]
  %layers.14.final_layer_norm.weight[FLOAT, 1024]
  %layers.14.final_layer_norm.bias[FLOAT, 1024]
  %layers.15.self_attn.k_proj.bias[FLOAT, 1024]
  %layers.15.self_attn.v_proj.bias[FLOAT, 1024]
  %layers.15.self_attn.q_proj.bias[FLOAT, 1024]
  %layers.15.self_attn.out_proj.bias[FLOAT, 1024]
  %layers.15.self_attn_layer_norm.weight[FLOAT, 1024]
  %layers.15.self_attn_layer_norm.bias[FLOAT, 1024]
  %layers.15.fc1.bias[FLOAT, 4096]
  %layers.15.fc2.bias[FLOAT, 1024]
  %layers.15.final_layer_norm.weight[FLOAT, 1024]
  %layers.15.final_layer_norm.bias[FLOAT, 1024]
  %layer_norm.weight[FLOAT, 1024]
  %layer_norm.bias[FLOAT, 1024]
  %onnx::Concat_3130[INT64, 1]
  %onnx::Range_3131[INT64, scalar]
  %onnx::Range_3132[INT64, scalar]
  %onnx::Concat_3133[INT64, 1]
  %onnx::MatMul_3134[FLOAT, 1024x1024]
  %onnx::MatMul_3135[FLOAT, 1024x1024]
  %onnx::Concat_3137[INT64, 1]
  %onnx::Concat_3138[INT64, 1]
  %onnx::MatMul_3139[FLOAT, 1024x1024]
  %onnx::Concat_3154[INT64, 1]
  %onnx::MatMul_3155[FLOAT, 1024x1024]
  %onnx::MatMul_3156[FLOAT, 1024x4096]
  %onnx::MatMul_3157[FLOAT, 4096x1024]
  %onnx::MatMul_3158[FLOAT, 1024x1024]
  %onnx::MatMul_3159[FLOAT, 1024x1024]
  %onnx::MatMul_3163[FLOAT, 1024x1024]
  %onnx::MatMul_3179[FLOAT, 1024x1024]
  %onnx::MatMul_3180[FLOAT, 1024x4096]
  %onnx::MatMul_3181[FLOAT, 4096x1024]
  %onnx::MatMul_3182[FLOAT, 1024x1024]
  %onnx::MatMul_3183[FLOAT, 1024x1024]
  %onnx::MatMul_3187[FLOAT, 1024x1024]
  %onnx::MatMul_3203[FLOAT, 1024x1024]
  %onnx::MatMul_3204[FLOAT, 1024x4096]
  %onnx::MatMul_3205[FLOAT, 4096x1024]
  %onnx::MatMul_3206[FLOAT, 1024x1024]
  %onnx::MatMul_3207[FLOAT, 1024x1024]
  %onnx::MatMul_3211[FLOAT, 1024x1024]
  %onnx::MatMul_3227[FLOAT, 1024x1024]
  %onnx::MatMul_3228[FLOAT, 1024x4096]
  %onnx::MatMul_3229[FLOAT, 4096x1024]
  %onnx::MatMul_3230[FLOAT, 1024x1024]
  %onnx::MatMul_3231[FLOAT, 1024x1024]
  %onnx::MatMul_3235[FLOAT, 1024x1024]
  %onnx::MatMul_3251[FLOAT, 1024x1024]
  %onnx::MatMul_3252[FLOAT, 1024x4096]
  %onnx::MatMul_3253[FLOAT, 4096x1024]
  %onnx::MatMul_3254[FLOAT, 1024x1024]
  %onnx::MatMul_3255[FLOAT, 1024x1024]
  %onnx::MatMul_3259[FLOAT, 1024x1024]
  %onnx::MatMul_3275[FLOAT, 1024x1024]
  %onnx::MatMul_3276[FLOAT, 1024x4096]
  %onnx::MatMul_3277[FLOAT, 4096x1024]
  %onnx::MatMul_3278[FLOAT, 1024x1024]
  %onnx::MatMul_3279[FLOAT, 1024x1024]
  %onnx::MatMul_3283[FLOAT, 1024x1024]
  %onnx::MatMul_3299[FLOAT, 1024x1024]
  %onnx::MatMul_3300[FLOAT, 1024x4096]
  %onnx::MatMul_3301[FLOAT, 4096x1024]
  %onnx::MatMul_3302[FLOAT, 1024x1024]
  %onnx::MatMul_3303[FLOAT, 1024x1024]
  %onnx::MatMul_3307[FLOAT, 1024x1024]
  %onnx::MatMul_3323[FLOAT, 1024x1024]
  %onnx::MatMul_3324[FLOAT, 1024x4096]
  %onnx::MatMul_3325[FLOAT, 4096x1024]
  %onnx::MatMul_3326[FLOAT, 1024x1024]
  %onnx::MatMul_3327[FLOAT, 1024x1024]
  %onnx::MatMul_3331[FLOAT, 1024x1024]
  %onnx::MatMul_3347[FLOAT, 1024x1024]
  %onnx::MatMul_3348[FLOAT, 1024x4096]
  %onnx::MatMul_3349[FLOAT, 4096x1024]
  %onnx::MatMul_3350[FLOAT, 1024x1024]
  %onnx::MatMul_3351[FLOAT, 1024x1024]
  %onnx::MatMul_3355[FLOAT, 1024x1024]
  %onnx::MatMul_3371[FLOAT, 1024x1024]
  %onnx::MatMul_3372[FLOAT, 1024x4096]
  %onnx::MatMul_3373[FLOAT, 4096x1024]
  %onnx::MatMul_3374[FLOAT, 1024x1024]
  %onnx::MatMul_3375[FLOAT, 1024x1024]
  %onnx::MatMul_3379[FLOAT, 1024x1024]
  %onnx::MatMul_3395[FLOAT, 1024x1024]
  %onnx::MatMul_3396[FLOAT, 1024x4096]
  %onnx::MatMul_3397[FLOAT, 4096x1024]
  %onnx::MatMul_3398[FLOAT, 1024x1024]
  %onnx::MatMul_3399[FLOAT, 1024x1024]
  %onnx::MatMul_3403[FLOAT, 1024x1024]
  %onnx::MatMul_3419[FLOAT, 1024x1024]
  %onnx::MatMul_3420[FLOAT, 1024x4096]
  %onnx::MatMul_3421[FLOAT, 4096x1024]
  %onnx::MatMul_3422[FLOAT, 1024x1024]
  %onnx::MatMul_3423[FLOAT, 1024x1024]
  %onnx::MatMul_3427[FLOAT, 1024x1024]
  %onnx::MatMul_3443[FLOAT, 1024x1024]
  %onnx::MatMul_3444[FLOAT, 1024x4096]
  %onnx::MatMul_3445[FLOAT, 4096x1024]
  %onnx::MatMul_3446[FLOAT, 1024x1024]
  %onnx::MatMul_3447[FLOAT, 1024x1024]
  %onnx::MatMul_3451[FLOAT, 1024x1024]
  %onnx::MatMul_3467[FLOAT, 1024x1024]
  %onnx::MatMul_3468[FLOAT, 1024x4096]
  %onnx::MatMul_3469[FLOAT, 4096x1024]
  %onnx::MatMul_3470[FLOAT, 1024x1024]
  %onnx::MatMul_3471[FLOAT, 1024x1024]
  %onnx::MatMul_3475[FLOAT, 1024x1024]
  %onnx::MatMul_3491[FLOAT, 1024x1024]
  %onnx::MatMul_3492[FLOAT, 1024x4096]
  %onnx::MatMul_3493[FLOAT, 4096x1024]
  %onnx::MatMul_3494[FLOAT, 1024x1024]
  %onnx::MatMul_3495[FLOAT, 1024x1024]
  %onnx::MatMul_3499[FLOAT, 1024x1024]
  %onnx::MatMul_3515[FLOAT, 1024x1024]
  %onnx::MatMul_3516[FLOAT, 1024x4096]
  %onnx::MatMul_3517[FLOAT, 4096x1024]
  %onnx::Unsqueeze_268[INT64, 1]
  %onnx::Mul_273[FLOAT, scalar]
  %onnx::Sub_313[FLOAT, scalar]
  %onnx::Where_317[FLOAT, scalar]
  %onnx::Pow_321[FLOAT, scalar]
  %onnx::Add_324[FLOAT, scalar]
  %onnx::Mul_339[FLOAT, scalar]
  %onnx::Mul_375[INT64, scalar]
  %2454[INT64, 2]
  %onnx::Mul_306[INT64, 4]
  %onnx::Equal_308[INT64, 4]
) {
  %onnx::Gather_262 = Shape(%input_ids)
  %onnx::Unsqueeze_264 = Gather[axis = 0](%onnx::Gather_262, %onnx::Range_3132)
  %onnx::Concat_269 = Unsqueeze(%onnx::Unsqueeze_264, %onnx::Unsqueeze_268)
  %onnx::Reshape_270 = Concat[axis = 0](%onnx::Concat_3130, %onnx::Concat_269)
  %input = Reshape(%input_ids, %onnx::Reshape_270)
  %onnx::Mul_272 = Gather(%embed_tokens.weight, %input)
  %onnx::Add_274 = Mul(%onnx::Mul_272, %onnx::Mul_273)
  %input.3 = Range(%onnx::Range_3131, %onnx::Unsqueeze_264, %onnx::Range_3132)
  %onnx::Add_281 = Gather(%embed_positions.weight, %input.3)
  %hidden_states = Add(%onnx::Add_274, %onnx::Add_281)
  %onnx::Gather_283 = Shape(%attention_mask)
  %onnx::Unsqueeze_285 = Gather[axis = 0](%onnx::Gather_283, %onnx::Range_3131)
  %onnx::Unsqueeze_288 = Gather[axis = 0](%onnx::Gather_283, %onnx::Range_3132)
  %onnx::Expand_292 = Unsqueeze(%attention_mask, %2454)
  %onnx::Concat_295 = Unsqueeze(%onnx::Unsqueeze_285, %onnx::Unsqueeze_268)
  %onnx::Concat_299 = Unsqueeze(%onnx::Unsqueeze_288, %onnx::Unsqueeze_268)
  %onnx::Reshape_302 = Concat[axis = 0](%onnx::Concat_295, %onnx::Concat_3133, %onnx::Concat_299, %onnx::Concat_299)
  %onnx::Where_309 = Equal(%onnx::Reshape_302, %onnx::Equal_308)
  %onnx::Expand_310 = Where(%onnx::Where_309, %onnx::Mul_306, %onnx::Reshape_302)
  %onnx::Cast_311 = Expand(%onnx::Expand_292, %onnx::Expand_310)
  %onnx::Sub_312 = Cast[to = 1](%onnx::Cast_311)
  %onnx::Cast_314 = Sub(%onnx::Sub_313, %onnx::Sub_312)
  %onnx::Cast_315 = Cast[to = 9](%onnx::Cast_314)
  %onnx::Add_318 = Where(%onnx::Cast_315, %onnx::Where_317, %onnx::Cast_314)
  %onnx::Sub_319 = ReduceMean[axes = [-1]](%hidden_states)
  %onnx::Pow_320 = Sub(%hidden_states, %onnx::Sub_319)
  %onnx::ReduceMean_322 = Pow(%onnx::Pow_320, %onnx::Pow_321)
  %onnx::Add_323 = ReduceMean[axes = [-1]](%onnx::ReduceMean_322)
  %onnx::Sqrt_325 = Add(%onnx::Add_323, %onnx::Add_324)
  %onnx::Div_326 = Sqrt(%onnx::Sqrt_325)
  %onnx::Mul_327 = Div(%onnx::Pow_320, %onnx::Div_326)
  %onnx::Add_328 = Mul(%onnx::Mul_327, %layers.0.self_attn_layer_norm.weight)
  %onnx::Shape_329 = Add(%onnx::Add_328, %layers.0.self_attn_layer_norm.bias)
  %onnx::Gather_330 = Shape(%onnx::Shape_329)
  %onnx::Unsqueeze_332 = Gather[axis = 0](%onnx::Gather_330, %onnx::Range_3131)
  %onnx::Unsqueeze_335 = Gather[axis = 0](%onnx::Gather_330, %onnx::Range_3132)
  %onnx::Add_337 = MatMul(%onnx::Shape_329, %onnx::MatMul_3134)
  %onnx::Mul_338 = Add(%layers.0.self_attn.q_proj.bias, %onnx::Add_337)
  %query_states = Mul(%onnx::Mul_338, %onnx::Mul_339)
  %onnx::Add_342 = MatMul(%onnx::Shape_329, %onnx::MatMul_3135)
  %onnx::Reshape_343 = Add(%layers.0.self_attn.k_proj.bias, %onnx::Add_342)
  %onnx::Concat_348 = Unsqueeze(%onnx::Unsqueeze_332, %onnx::Unsqueeze_268)
  %onnx::Reshape_355 = Concat[axis = 0](%onnx::Concat_348, %onnx::Concat_3130, %onnx::Concat_3137, %onnx::Concat_3138)
  %onnx::Transpose_356 = Reshape(%onnx::Reshape_343, %onnx::Reshape_355)
  %onnx::Reshape_357 = Transpose[perm = [0, 2, 1, 3]](%onnx::Transpose_356)
  %onnx::Add_359 = MatMul(%onnx::Shape_329, %onnx::MatMul_3139)
  %onnx::Reshape_360 = Add(%layers.0.self_attn.v_proj.bias, %onnx::Add_359)
  %onnx::Transpose_373 = Reshape(%onnx::Reshape_360, %onnx::Reshape_355)
  %onnx::Reshape_374 = Transpose[perm = [0, 2, 1, 3]](%onnx::Transpose_373)
  %onnx::Unsqueeze_376 = Mul(%onnx::Unsqueeze_332, %onnx::Mul_375)
  %onnx::Concat_382 = Unsqueeze(%onnx::Unsqueeze_335, %onnx::Unsqueeze_268)
  %onnx::Reshape_387 = Concat[axis = 0](%onnx::Concat_348, %onnx::Concat_382, %onnx::Concat_3137, %onnx::Concat_3138)
  %onnx::Transpose_388 = Reshape(%query_states, %onnx::Reshape_387)
  %onnx::Reshape_389 = Transpose[perm = [0, 2, 1, 3]](%onnx::Transpose_388)
  %onnx::Concat_393 = Unsqueeze(%onnx::Unsqueeze_376, %onnx::Unsqueeze_268)
  %onnx::Reshape_398 = Concat[axis = 0](%onnx::Concat_393, %onnx::Concat_3130, %onnx::Concat_3138)
  %onnx::MatMul_399 = Reshape(%onnx::Reshape_389, %onnx::Reshape_398)
  %onnx::Shape_409 = Reshape(%onnx::Reshape_357, %onnx::Reshape_398)
  %onnx::MatMul_419 = Reshape(%onnx::Reshape_374, %onnx::Reshape_398)
  %onnx::Gather_420 = Shape(%onnx::Shape_409)
  %onnx::Unsqueeze_422 = Gather[axis = 0](%onnx::Gather_420, %onnx::Range_3132)
  %onnx::MatMul_423 = Transpose[perm = [0, 2, 1]](%onnx::Shape_409)
  %onnx::Reshape_424 = MatMul(%onnx::MatMul_399, %onnx::MatMul_423)
  %onnx::Concat_433 = Unsqueeze(%onnx::Unsqueeze_422, %onnx::Unsqueeze_268)
  %onnx::Reshape_434 = Concat[axis = 0](%onnx::Concat_348, %onnx::Concat_3137, %onnx::Concat_382, %onnx::Concat_433)
  %onnx::Add_435 = Reshape(%onnx::Reshape_424, %onnx::Reshape_434)
  %onnx::Reshape_436 = Add(%onnx::Add_435, %onnx::Add_318)
  %onnx::Reshape_445 = Concat[axis = 0](%onnx::Concat_393, %onnx::Concat_382, %onnx::Concat_433)
  %attn_weights = Reshape(%onnx::Reshape_436, %onnx::Reshape_445)
  %attn_weights.3 = Softmax[axis = -1](%attn_weights)
  %onnx::Reshape_448 = MatMul(%attn_weights.3, %onnx::MatMul_419)
  %onnx::Reshape_459 = Concat[axis = 0](%onnx::Concat_348, %onnx::Concat_3137, %onnx::Concat_382, %onnx::Concat_3138)
  %onnx::Transpose_460 = Reshape(%onnx::Reshape_448, %onnx::Reshape_459)
  %onnx::Reshape_461 = Transpose[perm = [0, 2, 1, 3]](%onnx::Transpose_460)
  %onnx::Reshape_469 = Concat[axis = 0](%onnx::Concat_348, %onnx::Concat_382, %onnx::Concat_3154)
  %onnx::MatMul_470 = Reshape(%onnx::Reshape_461, %onnx::Reshape_469)
  %onnx::Add_472 = MatMul(%onnx::MatMul_470, %onnx::MatMul_3155)
  %hidden_states.3 = Add(%layers.0.self_attn.out_proj.bias, %onnx::Add_472)
  %input.7 = Add(%hidden_states, %hidden_states.3)
  %onnx::Sub_475 = ReduceMean[axes = [-1]](%input.7)
  %onnx::Pow_476 = Sub(%input.7, %onnx::Sub_475)
  %onnx::ReduceMean_478 = Pow(%onnx::Pow_476, %onnx::Pow_321)
  %onnx::Add_479 = ReduceMean[axes = [-1]](%onnx::ReduceMean_478)
  %onnx::Sqrt_481 = Add(%onnx::Add_479, %onnx::Add_324)
  %onnx::Div_482 = Sqrt(%onnx::Sqrt_481)
  %onnx::Mul_483 = Div(%onnx::Pow_476, %onnx::Div_482)
  %onnx::Add_484 = Mul(%onnx::Mul_483, %layers.0.final_layer_norm.weight)
  %onnx::MatMul_485 = Add(%onnx::Add_484, %layers.0.final_layer_norm.bias)
  %onnx::Add_487 = MatMul(%onnx::MatMul_485, %onnx::MatMul_3156)
  %input.11 = Add(%layers.0.fc1.bias, %onnx::Add_487)
  %hidden_states.7 = Relu(%input.11)
  %onnx::Add_491 = MatMul(%hidden_states.7, %onnx::MatMul_3157)
  %hidden_states.11 = Add(%layers.0.fc2.bias, %onnx::Add_491)
  %input.15 = Add(%input.7, %hidden_states.11)
  %onnx::Sub_494 = ReduceMean[axes = [-1]](%input.15)
  %onnx::Pow_495 = Sub(%input.15, %onnx::Sub_494)
  %onnx::ReduceMean_497 = Pow(%onnx::Pow_495, %onnx::Pow_321)
  %onnx::Add_498 = ReduceMean[axes = [-1]](%onnx::ReduceMean_497)
  %onnx::Sqrt_500 = Add(%onnx::Add_498, %onnx::Add_324)
  %onnx::Div_501 = Sqrt(%onnx::Sqrt_500)
  %onnx::Mul_502 = Div(%onnx::Pow_495, %onnx::Div_501)
  %onnx::Add_503 = Mul(%onnx::Mul_502, %layers.1.self_attn_layer_norm.weight)
  %onnx::Shape_504 = Add(%onnx::Add_503, %layers.1.self_attn_layer_norm.bias)
  %onnx::Gather_505 = Shape(%onnx::Shape_504)
  %onnx::Unsqueeze_507 = Gather[axis = 0](%onnx::Gather_505, %onnx::Range_3131)
  %onnx::Unsqueeze_510 = Gather[axis = 0](%onnx::Gather_505, %onnx::Range_3132)
  %onnx::Add_512 = MatMul(%onnx::Shape_504, %onnx::MatMul_3158)
  %onnx::Mul_513 = Add(%layers.1.self_attn.q_proj.bias, %onnx::Add_512)
  %query_states.3 = Mul(%onnx::Mul_513, %onnx::Mul_339)
  %onnx::Add_517 = MatMul(%onnx::Shape_504, %onnx::MatMul_3159)
  %onnx::Reshape_518 = Add(%layers.1.self_attn.k_proj.bias, %onnx::Add_517)
  %onnx::Concat_523 = Unsqueeze(%onnx::Unsqueeze_507, %onnx::Unsqueeze_268)
  %onnx::Reshape_530 = Concat[axis = 0](%onnx::Concat_523, %onnx::Concat_3130, %onnx::Concat_3137, %onnx::Concat_3138)
  %onnx::Transpose_531 = Reshape(%onnx::Reshape_518, %onnx::Reshape_530)
  %onnx::Reshape_532 = Transpose[perm = [0, 2, 1, 3]](%onnx::Transpose_531)
  %onnx::Add_534 = MatMul(%onnx::Shape_504, %onnx::MatMul_3163)
  %onnx::Reshape_535 = Add(%layers.1.self_attn.v_proj.bias, %onnx::Add_534)
  %onnx::Transpose_548 = Reshape(%onnx::Reshape_535, %onnx::Reshape_530)
  %onnx::Reshape_549 = Transpose[perm = [0, 2, 1, 3]](%onnx::Transpose_548)
  %onnx::Unsqueeze_551 = Mul(%onnx::Unsqueeze_507, %onnx::Mul_375)
  %onnx::Concat_557 = Unsqueeze(%onnx::Unsqueeze_510, %onnx::Unsqueeze_268)
  %onnx::Reshape_562 = Concat[axis = 0](%onnx::Concat_523, %onnx::Concat_557, %onnx::Concat_3137, %onnx::Concat_3138)
  %onnx::Transpose_563 = Reshape(%query_states.3, %onnx::Reshape_562)
  %onnx::Reshape_564 = Transpose[perm = [0, 2, 1, 3]](%onnx::Transpose_563)
  %onnx::Concat_568 = Unsqueeze(%onnx::Unsqueeze_551, %onnx::Unsqueeze_268)
  %onnx::Reshape_573 = Concat[axis = 0](%onnx::Concat_568, %onnx::Concat_3130, %onnx::Concat_3138)
  %onnx::MatMul_574 = Reshape(%onnx::Reshape_564, %onnx::Reshape_573)
  %onnx::Shape_584 = Reshape(%onnx::Reshape_532, %onnx::Reshape_573)
  %onnx::MatMul_594 = Reshape(%onnx::Reshape_549, %onnx::Reshape_573)
  %onnx::Gather_595 = Shape(%onnx::Shape_584)
  %onnx::Unsqueeze_597 = Gather[axis = 0](%onnx::Gather_595, %onnx::Range_3132)
  %onnx::MatMul_598 = Transpose[perm = [0, 2, 1]](%onnx::Shape_584)
  %onnx::Reshape_599 = MatMul(%onnx::MatMul_574, %onnx::MatMul_598)
  %onnx::Concat_608 = Unsqueeze(%onnx::Unsqueeze_597, %onnx::Unsqueeze_268)
  %onnx::Reshape_609 = Concat[axis = 0](%onnx::Concat_523, %onnx::Concat_3137, %onnx::Concat_557, %onnx::Concat_608)
  %onnx::Add_610 = Reshape(%onnx::Reshape_599, %onnx::Reshape_609)
  %onnx::Reshape_611 = Add(%onnx::Add_610, %onnx::Add_318)
  %onnx::Reshape_620 = Concat[axis = 0](%onnx::Concat_568, %onnx::Concat_557, %onnx::Concat_608)
  %attn_weights.7 = Reshape(%onnx::Reshape_611, %onnx::Reshape_620)
  %attn_weights.11 = Softmax[axis = -1](%attn_weights.7)
  %onnx::Reshape_623 = MatMul(%attn_weights.11, %onnx::MatMul_594)
  %onnx::Reshape_634 = Concat[axis = 0](%onnx::Concat_523, %onnx::Concat_3137, %onnx::Concat_557, %onnx::Concat_3138)
  %onnx::Transpose_635 = Reshape(%onnx::Reshape_623, %onnx::Reshape_634)
  %onnx::Reshape_636 = Transpose[perm = [0, 2, 1, 3]](%onnx::Transpose_635)
  %onnx::Reshape_644 = Concat[axis = 0](%onnx::Concat_523, %onnx::Concat_557, %onnx::Concat_3154)
  %onnx::MatMul_645 = Reshape(%onnx::Reshape_636, %onnx::Reshape_644)
  %onnx::Add_647 = MatMul(%onnx::MatMul_645, %onnx::MatMul_3179)
  %hidden_states.15 = Add(%layers.1.self_attn.out_proj.bias, %onnx::Add_647)
  %input.19 = Add(%input.15, %hidden_states.15)
  %onnx::Sub_650 = ReduceMean[axes = [-1]](%input.19)
  %onnx::Pow_651 = Sub(%input.19, %onnx::Sub_650)
  %onnx::ReduceMean_653 = Pow(%onnx::Pow_651, %onnx::Pow_321)
  %onnx::Add_654 = ReduceMean[axes = [-1]](%onnx::ReduceMean_653)
  %onnx::Sqrt_656 = Add(%onnx::Add_654, %onnx::Add_324)
  %onnx::Div_657 = Sqrt(%onnx::Sqrt_656)
  %onnx::Mul_658 = Div(%onnx::Pow_651, %onnx::Div_657)
  %onnx::Add_659 = Mul(%onnx::Mul_658, %layers.1.final_layer_norm.weight)
  %onnx::MatMul_660 = Add(%onnx::Add_659, %layers.1.final_layer_norm.bias)
  %onnx::Add_662 = MatMul(%onnx::MatMul_660, %onnx::MatMul_3180)
  %input.23 = Add(%layers.1.fc1.bias, %onnx::Add_662)
  %hidden_states.19 = Relu(%input.23)
  %onnx::Add_666 = MatMul(%hidden_states.19, %onnx::MatMul_3181)
  %hidden_states.23 = Add(%layers.1.fc2.bias, %onnx::Add_666)
  %input.27 = Add(%input.19, %hidden_states.23)
  %onnx::Sub_669 = ReduceMean[axes = [-1]](%input.27)
  %onnx::Pow_670 = Sub(%input.27, %onnx::Sub_669)
  %onnx::ReduceMean_672 = Pow(%onnx::Pow_670, %onnx::Pow_321)
  %onnx::Add_673 = ReduceMean[axes = [-1]](%onnx::ReduceMean_672)
  %onnx::Sqrt_675 = Add(%onnx::Add_673, %onnx::Add_324)
  %onnx::Div_676 = Sqrt(%onnx::Sqrt_675)
  %onnx::Mul_677 = Div(%onnx::Pow_670, %onnx::Div_676)
  %onnx::Add_678 = Mul(%onnx::Mul_677, %layers.2.self_attn_layer_norm.weight)
  %onnx::Shape_679 = Add(%onnx::Add_678, %layers.2.self_attn_layer_norm.bias)
  %onnx::Gather_680 = Shape(%onnx::Shape_679)
  %onnx::Unsqueeze_682 = Gather[axis = 0](%onnx::Gather_680, %onnx::Range_3131)
  %onnx::Unsqueeze_685 = Gather[axis = 0](%onnx::Gather_680, %onnx::Range_3132)
  %onnx::Add_687 = MatMul(%onnx::Shape_679, %onnx::MatMul_3182)
  %onnx::Mul_688 = Add(%layers.2.self_attn.q_proj.bias, %onnx::Add_687)
  %query_states.7 = Mul(%onnx::Mul_688, %onnx::Mul_339)
  %onnx::Add_692 = MatMul(%onnx::Shape_679, %onnx::MatMul_3183)
  %onnx::Reshape_693 = Add(%layers.2.self_attn.k_proj.bias, %onnx::Add_692)
  %onnx::Concat_698 = Unsqueeze(%onnx::Unsqueeze_682, %onnx::Unsqueeze_268)
  %onnx::Reshape_705 = Concat[axis = 0](%onnx::Concat_698, %onnx::Concat_3130, %onnx::Concat_3137, %onnx::Concat_3138)
  %onnx::Transpose_706 = Reshape(%onnx::Reshape_693, %onnx::Reshape_705)
  %onnx::Reshape_707 = Transpose[perm = [0, 2, 1, 3]](%onnx::Transpose_706)
  %onnx::Add_709 = MatMul(%onnx::Shape_679, %onnx::MatMul_3187)
  %onnx::Reshape_710 = Add(%layers.2.self_attn.v_proj.bias, %onnx::Add_709)
  %onnx::Transpose_723 = Reshape(%onnx::Reshape_710, %onnx::Reshape_705)
  %onnx::Reshape_724 = Transpose[perm = [0, 2, 1, 3]](%onnx::Transpose_723)
  %onnx::Unsqueeze_726 = Mul(%onnx::Unsqueeze_682, %onnx::Mul_375)
  %onnx::Concat_732 = Unsqueeze(%onnx::Unsqueeze_685, %onnx::Unsqueeze_268)
  %onnx::Reshape_737 = Concat[axis = 0](%onnx::Concat_698, %onnx::Concat_732, %onnx::Concat_3137, %onnx::Concat_3138)
  %onnx::Transpose_738 = Reshape(%query_states.7, %onnx::Reshape_737)
  %onnx::Reshape_739 = Transpose[perm = [0, 2, 1, 3]](%onnx::Transpose_738)
  %onnx::Concat_743 = Unsqueeze(%onnx::Unsqueeze_726, %onnx::Unsqueeze_268)
  %onnx::Reshape_748 = Concat[axis = 0](%onnx::Concat_743, %onnx::Concat_3130, %onnx::Concat_3138)
  %onnx::MatMul_749 = Reshape(%onnx::Reshape_739, %onnx::Reshape_748)
  %onnx::Shape_759 = Reshape(%onnx::Reshape_707, %onnx::Reshape_748)
  %onnx::MatMul_769 = Reshape(%onnx::Reshape_724, %onnx::Reshape_748)
  %onnx::Gather_770 = Shape(%onnx::Shape_759)
  %onnx::Unsqueeze_772 = Gather[axis = 0](%onnx::Gather_770, %onnx::Range_3132)
  %onnx::MatMul_773 = Transpose[perm = [0, 2, 1]](%onnx::Shape_759)
  %onnx::Reshape_774 = MatMul(%onnx::MatMul_749, %onnx::MatMul_773)
  %onnx::Concat_783 = Unsqueeze(%onnx::Unsqueeze_772, %onnx::Unsqueeze_268)
  %onnx::Reshape_784 = Concat[axis = 0](%onnx::Concat_698, %onnx::Concat_3137, %onnx::Concat_732, %onnx::Concat_783)
  %onnx::Add_785 = Reshape(%onnx::Reshape_774, %onnx::Reshape_784)
  %onnx::Reshape_786 = Add(%onnx::Add_785, %onnx::Add_318)
  %onnx::Reshape_795 = Concat[axis = 0](%onnx::Concat_743, %onnx::Concat_732, %onnx::Concat_783)
  %attn_weights.15 = Reshape(%onnx::Reshape_786, %onnx::Reshape_795)
  %attn_weights.19 = Softmax[axis = -1](%attn_weights.15)
  %onnx::Reshape_798 = MatMul(%attn_weights.19, %onnx::MatMul_769)
  %onnx::Reshape_809 = Concat[axis = 0](%onnx::Concat_698, %onnx::Concat_3137, %onnx::Concat_732, %onnx::Concat_3138)
  %onnx::Transpose_810 = Reshape(%onnx::Reshape_798, %onnx::Reshape_809)
  %onnx::Reshape_811 = Transpose[perm = [0, 2, 1, 3]](%onnx::Transpose_810)
  %onnx::Reshape_819 = Concat[axis = 0](%onnx::Concat_698, %onnx::Concat_732, %onnx::Concat_3154)
  %onnx::MatMul_820 = Reshape(%onnx::Reshape_811, %onnx::Reshape_819)
  %onnx::Add_822 = MatMul(%onnx::MatMul_820, %onnx::MatMul_3203)
  %hidden_states.27 = Add(%layers.2.self_attn.out_proj.bias, %onnx::Add_822)
  %input.31 = Add(%input.27, %hidden_states.27)
  %onnx::Sub_825 = ReduceMean[axes = [-1]](%input.31)
  %onnx::Pow_826 = Sub(%input.31, %onnx::Sub_825)
  %onnx::ReduceMean_828 = Pow(%onnx::Pow_826, %onnx::Pow_321)
  %onnx::Add_829 = ReduceMean[axes = [-1]](%onnx::ReduceMean_828)
  %onnx::Sqrt_831 = Add(%onnx::Add_829, %onnx::Add_324)
  %onnx::Div_832 = Sqrt(%onnx::Sqrt_831)
  %onnx::Mul_833 = Div(%onnx::Pow_826, %onnx::Div_832)
  %onnx::Add_834 = Mul(%onnx::Mul_833, %layers.2.final_layer_norm.weight)
  %onnx::MatMul_835 = Add(%onnx::Add_834, %layers.2.final_layer_norm.bias)
  %onnx::Add_837 = MatMul(%onnx::MatMul_835, %onnx::MatMul_3204)
  %input.35 = Add(%layers.2.fc1.bias, %onnx::Add_837)
  %hidden_states.31 = Relu(%input.35)
  %onnx::Add_841 = MatMul(%hidden_states.31, %onnx::MatMul_3205)
  %hidden_states.35 = Add(%layers.2.fc2.bias, %onnx::Add_841)
  %input.39 = Add(%input.31, %hidden_states.35)
  %onnx::Sub_844 = ReduceMean[axes = [-1]](%input.39)
  %onnx::Pow_845 = Sub(%input.39, %onnx::Sub_844)
  %onnx::ReduceMean_847 = Pow(%onnx::Pow_845, %onnx::Pow_321)
  %onnx::Add_848 = ReduceMean[axes = [-1]](%onnx::ReduceMean_847)
  %onnx::Sqrt_850 = Add(%onnx::Add_848, %onnx::Add_324)
  %onnx::Div_851 = Sqrt(%onnx::Sqrt_850)
  %onnx::Mul_852 = Div(%onnx::Pow_845, %onnx::Div_851)
  %onnx::Add_853 = Mul(%onnx::Mul_852, %layers.3.self_attn_layer_norm.weight)
  %onnx::Shape_854 = Add(%onnx::Add_853, %layers.3.self_attn_layer_norm.bias)
  %onnx::Gather_855 = Shape(%onnx::Shape_854)
  %onnx::Unsqueeze_857 = Gather[axis = 0](%onnx::Gather_855, %onnx::Range_3131)
  %onnx::Unsqueeze_860 = Gather[axis = 0](%onnx::Gather_855, %onnx::Range_3132)
  %onnx::Add_862 = MatMul(%onnx::Shape_854, %onnx::MatMul_3206)
  %onnx::Mul_863 = Add(%layers.3.self_attn.q_proj.bias, %onnx::Add_862)
  %query_states.11 = Mul(%onnx::Mul_863, %onnx::Mul_339)
  %onnx::Add_867 = MatMul(%onnx::Shape_854, %onnx::MatMul_3207)
  %onnx::Reshape_868 = Add(%layers.3.self_attn.k_proj.bias, %onnx::Add_867)
  %onnx::Concat_873 = Unsqueeze(%onnx::Unsqueeze_857, %onnx::Unsqueeze_268)
  %onnx::Reshape_880 = Concat[axis = 0](%onnx::Concat_873, %onnx::Concat_3130, %onnx::Concat_3137, %onnx::Concat_3138)
  %onnx::Transpose_881 = Reshape(%onnx::Reshape_868, %onnx::Reshape_880)
  %onnx::Reshape_882 = Transpose[perm = [0, 2, 1, 3]](%onnx::Transpose_881)
  %onnx::Add_884 = MatMul(%onnx::Shape_854, %onnx::MatMul_3211)
  %onnx::Reshape_885 = Add(%layers.3.self_attn.v_proj.bias, %onnx::Add_884)
  %onnx::Transpose_898 = Reshape(%onnx::Reshape_885, %onnx::Reshape_880)
  %onnx::Reshape_899 = Transpose[perm = [0, 2, 1, 3]](%onnx::Transpose_898)
  %onnx::Unsqueeze_901 = Mul(%onnx::Unsqueeze_857, %onnx::Mul_375)
  %onnx::Concat_907 = Unsqueeze(%onnx::Unsqueeze_860, %onnx::Unsqueeze_268)
  %onnx::Reshape_912 = Concat[axis = 0](%onnx::Concat_873, %onnx::Concat_907, %onnx::Concat_3137, %onnx::Concat_3138)
  %onnx::Transpose_913 = Reshape(%query_states.11, %onnx::Reshape_912)
  %onnx::Reshape_914 = Transpose[perm = [0, 2, 1, 3]](%onnx::Transpose_913)
  %onnx::Concat_918 = Unsqueeze(%onnx::Unsqueeze_901, %onnx::Unsqueeze_268)
  %onnx::Reshape_923 = Concat[axis = 0](%onnx::Concat_918, %onnx::Concat_3130, %onnx::Concat_3138)
  %onnx::MatMul_924 = Reshape(%onnx::Reshape_914, %onnx::Reshape_923)
  %onnx::Shape_934 = Reshape(%onnx::Reshape_882, %onnx::Reshape_923)
  %onnx::MatMul_944 = Reshape(%onnx::Reshape_899, %onnx::Reshape_923)
  %onnx::Gather_945 = Shape(%onnx::Shape_934)
  %onnx::Unsqueeze_947 = Gather[axis = 0](%onnx::Gather_945, %onnx::Range_3132)
  %onnx::MatMul_948 = Transpose[perm = [0, 2, 1]](%onnx::Shape_934)
  %onnx::Reshape_949 = MatMul(%onnx::MatMul_924, %onnx::MatMul_948)
  %onnx::Concat_958 = Unsqueeze(%onnx::Unsqueeze_947, %onnx::Unsqueeze_268)
  %onnx::Reshape_959 = Concat[axis = 0](%onnx::Concat_873, %onnx::Concat_3137, %onnx::Concat_907, %onnx::Concat_958)
  %onnx::Add_960 = Reshape(%onnx::Reshape_949, %onnx::Reshape_959)
  %onnx::Reshape_961 = Add(%onnx::Add_960, %onnx::Add_318)
  %onnx::Reshape_970 = Concat[axis = 0](%onnx::Concat_918, %onnx::Concat_907, %onnx::Concat_958)
  %attn_weights.23 = Reshape(%onnx::Reshape_961, %onnx::Reshape_970)
  %attn_weights.27 = Softmax[axis = -1](%attn_weights.23)
  %onnx::Reshape_973 = MatMul(%attn_weights.27, %onnx::MatMul_944)
  %onnx::Reshape_984 = Concat[axis = 0](%onnx::Concat_873, %onnx::Concat_3137, %onnx::Concat_907, %onnx::Concat_3138)
  %onnx::Transpose_985 = Reshape(%onnx::Reshape_973, %onnx::Reshape_984)
  %onnx::Reshape_986 = Transpose[perm = [0, 2, 1, 3]](%onnx::Transpose_985)
  %onnx::Reshape_994 = Concat[axis = 0](%onnx::Concat_873, %onnx::Concat_907, %onnx::Concat_3154)
  %onnx::MatMul_995 = Reshape(%onnx::Reshape_986, %onnx::Reshape_994)
  %onnx::Add_997 = MatMul(%onnx::MatMul_995, %onnx::MatMul_3227)
  %hidden_states.39 = Add(%layers.3.self_attn.out_proj.bias, %onnx::Add_997)
  %input.43 = Add(%input.39, %hidden_states.39)
  %onnx::Sub_1000 = ReduceMean[axes = [-1]](%input.43)
  %onnx::Pow_1001 = Sub(%input.43, %onnx::Sub_1000)
  %onnx::ReduceMean_1003 = Pow(%onnx::Pow_1001, %onnx::Pow_321)
  %onnx::Add_1004 = ReduceMean[axes = [-1]](%onnx::ReduceMean_1003)
  %onnx::Sqrt_1006 = Add(%onnx::Add_1004, %onnx::Add_324)
  %onnx::Div_1007 = Sqrt(%onnx::Sqrt_1006)
  %onnx::Mul_1008 = Div(%onnx::Pow_1001, %onnx::Div_1007)
  %onnx::Add_1009 = Mul(%onnx::Mul_1008, %layers.3.final_layer_norm.weight)
  %onnx::MatMul_1010 = Add(%onnx::Add_1009, %layers.3.final_layer_norm.bias)
  %onnx::Add_1012 = MatMul(%onnx::MatMul_1010, %onnx::MatMul_3228)
  %input.47 = Add(%layers.3.fc1.bias, %onnx::Add_1012)
  %hidden_states.43 = Relu(%input.47)
  %onnx::Add_1016 = MatMul(%hidden_states.43, %onnx::MatMul_3229)
  %hidden_states.47 = Add(%layers.3.fc2.bias, %onnx::Add_1016)
  %input.51 = Add(%input.43, %hidden_states.47)
  %onnx::Sub_1019 = ReduceMean[axes = [-1]](%input.51)
  %onnx::Pow_1020 = Sub(%input.51, %onnx::Sub_1019)
  %onnx::ReduceMean_1022 = Pow(%onnx::Pow_1020, %onnx::Pow_321)
  %onnx::Add_1023 = ReduceMean[axes = [-1]](%onnx::ReduceMean_1022)
  %onnx::Sqrt_1025 = Add(%onnx::Add_1023, %onnx::Add_324)
  %onnx::Div_1026 = Sqrt(%onnx::Sqrt_1025)
  %onnx::Mul_1027 = Div(%onnx::Pow_1020, %onnx::Div_1026)
  %onnx::Add_1028 = Mul(%onnx::Mul_1027, %layers.4.self_attn_layer_norm.weight)
  %onnx::Shape_1029 = Add(%onnx::Add_1028, %layers.4.self_attn_layer_norm.bias)
  %onnx::Gather_1030 = Shape(%onnx::Shape_1029)
  %onnx::Unsqueeze_1032 = Gather[axis = 0](%onnx::Gather_1030, %onnx::Range_3131)
  %onnx::Unsqueeze_1035 = Gather[axis = 0](%onnx::Gather_1030, %onnx::Range_3132)
  %onnx::Add_1037 = MatMul(%onnx::Shape_1029, %onnx::MatMul_3230)
  %onnx::Mul_1038 = Add(%layers.4.self_attn.q_proj.bias, %onnx::Add_1037)
  %query_states.15 = Mul(%onnx::Mul_1038, %onnx::Mul_339)
  %onnx::Add_1042 = MatMul(%onnx::Shape_1029, %onnx::MatMul_3231)
  %onnx::Reshape_1043 = Add(%layers.4.self_attn.k_proj.bias, %onnx::Add_1042)
  %onnx::Concat_1048 = Unsqueeze(%onnx::Unsqueeze_1032, %onnx::Unsqueeze_268)
  %onnx::Reshape_1055 = Concat[axis = 0](%onnx::Concat_1048, %onnx::Concat_3130, %onnx::Concat_3137, %onnx::Concat_3138)
  %onnx::Transpose_1056 = Reshape(%onnx::Reshape_1043, %onnx::Reshape_1055)
  %onnx::Reshape_1057 = Transpose[perm = [0, 2, 1, 3]](%onnx::Transpose_1056)
  %onnx::Add_1059 = MatMul(%onnx::Shape_1029, %onnx::MatMul_3235)
  %onnx::Reshape_1060 = Add(%layers.4.self_attn.v_proj.bias, %onnx::Add_1059)
  %onnx::Transpose_1073 = Reshape(%onnx::Reshape_1060, %onnx::Reshape_1055)
  %onnx::Reshape_1074 = Transpose[perm = [0, 2, 1, 3]](%onnx::Transpose_1073)
  %onnx::Unsqueeze_1076 = Mul(%onnx::Unsqueeze_1032, %onnx::Mul_375)
  %onnx::Concat_1082 = Unsqueeze(%onnx::Unsqueeze_1035, %onnx::Unsqueeze_268)
  %onnx::Reshape_1087 = Concat[axis = 0](%onnx::Concat_1048, %onnx::Concat_1082, %onnx::Concat_3137, %onnx::Concat_3138)
  %onnx::Transpose_1088 = Reshape(%query_states.15, %onnx::Reshape_1087)
  %onnx::Reshape_1089 = Transpose[perm = [0, 2, 1, 3]](%onnx::Transpose_1088)
  %onnx::Concat_1093 = Unsqueeze(%onnx::Unsqueeze_1076, %onnx::Unsqueeze_268)
  %onnx::Reshape_1098 = Concat[axis = 0](%onnx::Concat_1093, %onnx::Concat_3130, %onnx::Concat_3138)
  %onnx::MatMul_1099 = Reshape(%onnx::Reshape_1089, %onnx::Reshape_1098)
  %onnx::Shape_1109 = Reshape(%onnx::Reshape_1057, %onnx::Reshape_1098)
  %onnx::MatMul_1119 = Reshape(%onnx::Reshape_1074, %onnx::Reshape_1098)
  %onnx::Gather_1120 = Shape(%onnx::Shape_1109)
  %onnx::Unsqueeze_1122 = Gather[axis = 0](%onnx::Gather_1120, %onnx::Range_3132)
  %onnx::MatMul_1123 = Transpose[perm = [0, 2, 1]](%onnx::Shape_1109)
  %onnx::Reshape_1124 = MatMul(%onnx::MatMul_1099, %onnx::MatMul_1123)
  %onnx::Concat_1133 = Unsqueeze(%onnx::Unsqueeze_1122, %onnx::Unsqueeze_268)
  %onnx::Reshape_1134 = Concat[axis = 0](%onnx::Concat_1048, %onnx::Concat_3137, %onnx::Concat_1082, %onnx::Concat_1133)
  %onnx::Add_1135 = Reshape(%onnx::Reshape_1124, %onnx::Reshape_1134)
  %onnx::Reshape_1136 = Add(%onnx::Add_1135, %onnx::Add_318)
  %onnx::Reshape_1145 = Concat[axis = 0](%onnx::Concat_1093, %onnx::Concat_1082, %onnx::Concat_1133)
  %attn_weights.31 = Reshape(%onnx::Reshape_1136, %onnx::Reshape_1145)
  %attn_weights.35 = Softmax[axis = -1](%attn_weights.31)
  %onnx::Reshape_1148 = MatMul(%attn_weights.35, %onnx::MatMul_1119)
  %onnx::Reshape_1159 = Concat[axis = 0](%onnx::Concat_1048, %onnx::Concat_3137, %onnx::Concat_1082, %onnx::Concat_3138)
  %onnx::Transpose_1160 = Reshape(%onnx::Reshape_1148, %onnx::Reshape_1159)
  %onnx::Reshape_1161 = Transpose[perm = [0, 2, 1, 3]](%onnx::Transpose_1160)
  %onnx::Reshape_1169 = Concat[axis = 0](%onnx::Concat_1048, %onnx::Concat_1082, %onnx::Concat_3154)
  %onnx::MatMul_1170 = Reshape(%onnx::Reshape_1161, %onnx::Reshape_1169)
  %onnx::Add_1172 = MatMul(%onnx::MatMul_1170, %onnx::MatMul_3251)
  %hidden_states.51 = Add(%layers.4.self_attn.out_proj.bias, %onnx::Add_1172)
  %input.55 = Add(%input.51, %hidden_states.51)
  %onnx::Sub_1175 = ReduceMean[axes = [-1]](%input.55)
  %onnx::Pow_1176 = Sub(%input.55, %onnx::Sub_1175)
  %onnx::ReduceMean_1178 = Pow(%onnx::Pow_1176, %onnx::Pow_321)
  %onnx::Add_1179 = ReduceMean[axes = [-1]](%onnx::ReduceMean_1178)
  %onnx::Sqrt_1181 = Add(%onnx::Add_1179, %onnx::Add_324)
  %onnx::Div_1182 = Sqrt(%onnx::Sqrt_1181)
  %onnx::Mul_1183 = Div(%onnx::Pow_1176, %onnx::Div_1182)
  %onnx::Add_1184 = Mul(%onnx::Mul_1183, %layers.4.final_layer_norm.weight)
  %onnx::MatMul_1185 = Add(%onnx::Add_1184, %layers.4.final_layer_norm.bias)
  %onnx::Add_1187 = MatMul(%onnx::MatMul_1185, %onnx::MatMul_3252)
  %input.59 = Add(%layers.4.fc1.bias, %onnx::Add_1187)
  %hidden_states.55 = Relu(%input.59)
  %onnx::Add_1191 = MatMul(%hidden_states.55, %onnx::MatMul_3253)
  %hidden_states.59 = Add(%layers.4.fc2.bias, %onnx::Add_1191)
  %input.63 = Add(%input.55, %hidden_states.59)
  %onnx::Sub_1194 = ReduceMean[axes = [-1]](%input.63)
  %onnx::Pow_1195 = Sub(%input.63, %onnx::Sub_1194)
  %onnx::ReduceMean_1197 = Pow(%onnx::Pow_1195, %onnx::Pow_321)
  %onnx::Add_1198 = ReduceMean[axes = [-1]](%onnx::ReduceMean_1197)
  %onnx::Sqrt_1200 = Add(%onnx::Add_1198, %onnx::Add_324)
  %onnx::Div_1201 = Sqrt(%onnx::Sqrt_1200)
  %onnx::Mul_1202 = Div(%onnx::Pow_1195, %onnx::Div_1201)
  %onnx::Add_1203 = Mul(%onnx::Mul_1202, %layers.5.self_attn_layer_norm.weight)
  %onnx::Shape_1204 = Add(%onnx::Add_1203, %layers.5.self_attn_layer_norm.bias)
  %onnx::Gather_1205 = Shape(%onnx::Shape_1204)
  %onnx::Unsqueeze_1207 = Gather[axis = 0](%onnx::Gather_1205, %onnx::Range_3131)
  %onnx::Unsqueeze_1210 = Gather[axis = 0](%onnx::Gather_1205, %onnx::Range_3132)
  %onnx::Add_1212 = MatMul(%onnx::Shape_1204, %onnx::MatMul_3254)
  %onnx::Mul_1213 = Add(%layers.5.self_attn.q_proj.bias, %onnx::Add_1212)
  %query_states.19 = Mul(%onnx::Mul_1213, %onnx::Mul_339)
  %onnx::Add_1217 = MatMul(%onnx::Shape_1204, %onnx::MatMul_3255)
  %onnx::Reshape_1218 = Add(%layers.5.self_attn.k_proj.bias, %onnx::Add_1217)
  %onnx::Concat_1223 = Unsqueeze(%onnx::Unsqueeze_1207, %onnx::Unsqueeze_268)
  %onnx::Reshape_1230 = Concat[axis = 0](%onnx::Concat_1223, %onnx::Concat_3130, %onnx::Concat_3137, %onnx::Concat_3138)
  %onnx::Transpose_1231 = Reshape(%onnx::Reshape_1218, %onnx::Reshape_1230)
  %onnx::Reshape_1232 = Transpose[perm = [0, 2, 1, 3]](%onnx::Transpose_1231)
  %onnx::Add_1234 = MatMul(%onnx::Shape_1204, %onnx::MatMul_3259)
  %onnx::Reshape_1235 = Add(%layers.5.self_attn.v_proj.bias, %onnx::Add_1234)
  %onnx::Transpose_1248 = Reshape(%onnx::Reshape_1235, %onnx::Reshape_1230)
  %onnx::Reshape_1249 = Transpose[perm = [0, 2, 1, 3]](%onnx::Transpose_1248)
  %onnx::Unsqueeze_1251 = Mul(%onnx::Unsqueeze_1207, %onnx::Mul_375)
  %onnx::Concat_1257 = Unsqueeze(%onnx::Unsqueeze_1210, %onnx::Unsqueeze_268)
  %onnx::Reshape_1262 = Concat[axis = 0](%onnx::Concat_1223, %onnx::Concat_1257, %onnx::Concat_3137, %onnx::Concat_3138)
  %onnx::Transpose_1263 = Reshape(%query_states.19, %onnx::Reshape_1262)
  %onnx::Reshape_1264 = Transpose[perm = [0, 2, 1, 3]](%onnx::Transpose_1263)
  %onnx::Concat_1268 = Unsqueeze(%onnx::Unsqueeze_1251, %onnx::Unsqueeze_268)
  %onnx::Reshape_1273 = Concat[axis = 0](%onnx::Concat_1268, %onnx::Concat_3130, %onnx::Concat_3138)
  %onnx::MatMul_1274 = Reshape(%onnx::Reshape_1264, %onnx::Reshape_1273)
  %onnx::Shape_1284 = Reshape(%onnx::Reshape_1232, %onnx::Reshape_1273)
  %onnx::MatMul_1294 = Reshape(%onnx::Reshape_1249, %onnx::Reshape_1273)
  %onnx::Gather_1295 = Shape(%onnx::Shape_1284)
  %onnx::Unsqueeze_1297 = Gather[axis = 0](%onnx::Gather_1295, %onnx::Range_3132)
  %onnx::MatMul_1298 = Transpose[perm = [0, 2, 1]](%onnx::Shape_1284)
  %onnx::Reshape_1299 = MatMul(%onnx::MatMul_1274, %onnx::MatMul_1298)
  %onnx::Concat_1308 = Unsqueeze(%onnx::Unsqueeze_1297, %onnx::Unsqueeze_268)
  %onnx::Reshape_1309 = Concat[axis = 0](%onnx::Concat_1223, %onnx::Concat_3137, %onnx::Concat_1257, %onnx::Concat_1308)
  %onnx::Add_1310 = Reshape(%onnx::Reshape_1299, %onnx::Reshape_1309)
  %onnx::Reshape_1311 = Add(%onnx::Add_1310, %onnx::Add_318)
  %onnx::Reshape_1320 = Concat[axis = 0](%onnx::Concat_1268, %onnx::Concat_1257, %onnx::Concat_1308)
  %attn_weights.39 = Reshape(%onnx::Reshape_1311, %onnx::Reshape_1320)
  %attn_weights.43 = Softmax[axis = -1](%attn_weights.39)
  %onnx::Reshape_1323 = MatMul(%attn_weights.43, %onnx::MatMul_1294)
  %onnx::Reshape_1334 = Concat[axis = 0](%onnx::Concat_1223, %onnx::Concat_3137, %onnx::Concat_1257, %onnx::Concat_3138)
  %onnx::Transpose_1335 = Reshape(%onnx::Reshape_1323, %onnx::Reshape_1334)
  %onnx::Reshape_1336 = Transpose[perm = [0, 2, 1, 3]](%onnx::Transpose_1335)
  %onnx::Reshape_1344 = Concat[axis = 0](%onnx::Concat_1223, %onnx::Concat_1257, %onnx::Concat_3154)
  %onnx::MatMul_1345 = Reshape(%onnx::Reshape_1336, %onnx::Reshape_1344)
  %onnx::Add_1347 = MatMul(%onnx::MatMul_1345, %onnx::MatMul_3275)
  %hidden_states.63 = Add(%layers.5.self_attn.out_proj.bias, %onnx::Add_1347)
  %input.67 = Add(%input.63, %hidden_states.63)
  %onnx::Sub_1350 = ReduceMean[axes = [-1]](%input.67)
  %onnx::Pow_1351 = Sub(%input.67, %onnx::Sub_1350)
  %onnx::ReduceMean_1353 = Pow(%onnx::Pow_1351, %onnx::Pow_321)
  %onnx::Add_1354 = ReduceMean[axes = [-1]](%onnx::ReduceMean_1353)
  %onnx::Sqrt_1356 = Add(%onnx::Add_1354, %onnx::Add_324)
  %onnx::Div_1357 = Sqrt(%onnx::Sqrt_1356)
  %onnx::Mul_1358 = Div(%onnx::Pow_1351, %onnx::Div_1357)
  %onnx::Add_1359 = Mul(%onnx::Mul_1358, %layers.5.final_layer_norm.weight)
  %onnx::MatMul_1360 = Add(%onnx::Add_1359, %layers.5.final_layer_norm.bias)
  %onnx::Add_1362 = MatMul(%onnx::MatMul_1360, %onnx::MatMul_3276)
  %input.71 = Add(%layers.5.fc1.bias, %onnx::Add_1362)
  %hidden_states.67 = Relu(%input.71)
  %onnx::Add_1366 = MatMul(%hidden_states.67, %onnx::MatMul_3277)
  %hidden_states.71 = Add(%layers.5.fc2.bias, %onnx::Add_1366)
  %input.75 = Add(%input.67, %hidden_states.71)
  %onnx::Sub_1369 = ReduceMean[axes = [-1]](%input.75)
  %onnx::Pow_1370 = Sub(%input.75, %onnx::Sub_1369)
  %onnx::ReduceMean_1372 = Pow(%onnx::Pow_1370, %onnx::Pow_321)
  %onnx::Add_1373 = ReduceMean[axes = [-1]](%onnx::ReduceMean_1372)
  %onnx::Sqrt_1375 = Add(%onnx::Add_1373, %onnx::Add_324)
  %onnx::Div_1376 = Sqrt(%onnx::Sqrt_1375)
  %onnx::Mul_1377 = Div(%onnx::Pow_1370, %onnx::Div_1376)
  %onnx::Add_1378 = Mul(%onnx::Mul_1377, %layers.6.self_attn_layer_norm.weight)
  %onnx::Shape_1379 = Add(%onnx::Add_1378, %layers.6.self_attn_layer_norm.bias)
  %onnx::Gather_1380 = Shape(%onnx::Shape_1379)
  %onnx::Unsqueeze_1382 = Gather[axis = 0](%onnx::Gather_1380, %onnx::Range_3131)
  %onnx::Unsqueeze_1385 = Gather[axis = 0](%onnx::Gather_1380, %onnx::Range_3132)
  %onnx::Add_1387 = MatMul(%onnx::Shape_1379, %onnx::MatMul_3278)
  %onnx::Mul_1388 = Add(%layers.6.self_attn.q_proj.bias, %onnx::Add_1387)
  %query_states.23 = Mul(%onnx::Mul_1388, %onnx::Mul_339)
  %onnx::Add_1392 = MatMul(%onnx::Shape_1379, %onnx::MatMul_3279)
  %onnx::Reshape_1393 = Add(%layers.6.self_attn.k_proj.bias, %onnx::Add_1392)
  %onnx::Concat_1398 = Unsqueeze(%onnx::Unsqueeze_1382, %onnx::Unsqueeze_268)
  %onnx::Reshape_1405 = Concat[axis = 0](%onnx::Concat_1398, %onnx::Concat_3130, %onnx::Concat_3137, %onnx::Concat_3138)
  %onnx::Transpose_1406 = Reshape(%onnx::Reshape_1393, %onnx::Reshape_1405)
  %onnx::Reshape_1407 = Transpose[perm = [0, 2, 1, 3]](%onnx::Transpose_1406)
  %onnx::Add_1409 = MatMul(%onnx::Shape_1379, %onnx::MatMul_3283)
  %onnx::Reshape_1410 = Add(%layers.6.self_attn.v_proj.bias, %onnx::Add_1409)
  %onnx::Transpose_1423 = Reshape(%onnx::Reshape_1410, %onnx::Reshape_1405)
  %onnx::Reshape_1424 = Transpose[perm = [0, 2, 1, 3]](%onnx::Transpose_1423)
  %onnx::Unsqueeze_1426 = Mul(%onnx::Unsqueeze_1382, %onnx::Mul_375)
  %onnx::Concat_1432 = Unsqueeze(%onnx::Unsqueeze_1385, %onnx::Unsqueeze_268)
  %onnx::Reshape_1437 = Concat[axis = 0](%onnx::Concat_1398, %onnx::Concat_1432, %onnx::Concat_3137, %onnx::Concat_3138)
  %onnx::Transpose_1438 = Reshape(%query_states.23, %onnx::Reshape_1437)
  %onnx::Reshape_1439 = Transpose[perm = [0, 2, 1, 3]](%onnx::Transpose_1438)
  %onnx::Concat_1443 = Unsqueeze(%onnx::Unsqueeze_1426, %onnx::Unsqueeze_268)
  %onnx::Reshape_1448 = Concat[axis = 0](%onnx::Concat_1443, %onnx::Concat_3130, %onnx::Concat_3138)
  %onnx::MatMul_1449 = Reshape(%onnx::Reshape_1439, %onnx::Reshape_1448)
  %onnx::Shape_1459 = Reshape(%onnx::Reshape_1407, %onnx::Reshape_1448)
  %onnx::MatMul_1469 = Reshape(%onnx::Reshape_1424, %onnx::Reshape_1448)
  %onnx::Gather_1470 = Shape(%onnx::Shape_1459)
  %onnx::Unsqueeze_1472 = Gather[axis = 0](%onnx::Gather_1470, %onnx::Range_3132)
  %onnx::MatMul_1473 = Transpose[perm = [0, 2, 1]](%onnx::Shape_1459)
  %onnx::Reshape_1474 = MatMul(%onnx::MatMul_1449, %onnx::MatMul_1473)
  %onnx::Concat_1483 = Unsqueeze(%onnx::Unsqueeze_1472, %onnx::Unsqueeze_268)
  %onnx::Reshape_1484 = Concat[axis = 0](%onnx::Concat_1398, %onnx::Concat_3137, %onnx::Concat_1432, %onnx::Concat_1483)
  %onnx::Add_1485 = Reshape(%onnx::Reshape_1474, %onnx::Reshape_1484)
  %onnx::Reshape_1486 = Add(%onnx::Add_1485, %onnx::Add_318)
  %onnx::Reshape_1495 = Concat[axis = 0](%onnx::Concat_1443, %onnx::Concat_1432, %onnx::Concat_1483)
  %attn_weights.47 = Reshape(%onnx::Reshape_1486, %onnx::Reshape_1495)
  %attn_weights.51 = Softmax[axis = -1](%attn_weights.47)
  %onnx::Reshape_1498 = MatMul(%attn_weights.51, %onnx::MatMul_1469)
  %onnx::Reshape_1509 = Concat[axis = 0](%onnx::Concat_1398, %onnx::Concat_3137, %onnx::Concat_1432, %onnx::Concat_3138)
  %onnx::Transpose_1510 = Reshape(%onnx::Reshape_1498, %onnx::Reshape_1509)
  %onnx::Reshape_1511 = Transpose[perm = [0, 2, 1, 3]](%onnx::Transpose_1510)
  %onnx::Reshape_1519 = Concat[axis = 0](%onnx::Concat_1398, %onnx::Concat_1432, %onnx::Concat_3154)
  %onnx::MatMul_1520 = Reshape(%onnx::Reshape_1511, %onnx::Reshape_1519)
  %onnx::Add_1522 = MatMul(%onnx::MatMul_1520, %onnx::MatMul_3299)
  %hidden_states.75 = Add(%layers.6.self_attn.out_proj.bias, %onnx::Add_1522)
  %input.79 = Add(%input.75, %hidden_states.75)
  %onnx::Sub_1525 = ReduceMean[axes = [-1]](%input.79)
  %onnx::Pow_1526 = Sub(%input.79, %onnx::Sub_1525)
  %onnx::ReduceMean_1528 = Pow(%onnx::Pow_1526, %onnx::Pow_321)
  %onnx::Add_1529 = ReduceMean[axes = [-1]](%onnx::ReduceMean_1528)
  %onnx::Sqrt_1531 = Add(%onnx::Add_1529, %onnx::Add_324)
  %onnx::Div_1532 = Sqrt(%onnx::Sqrt_1531)
  %onnx::Mul_1533 = Div(%onnx::Pow_1526, %onnx::Div_1532)
  %onnx::Add_1534 = Mul(%onnx::Mul_1533, %layers.6.final_layer_norm.weight)
  %onnx::MatMul_1535 = Add(%onnx::Add_1534, %layers.6.final_layer_norm.bias)
  %onnx::Add_1537 = MatMul(%onnx::MatMul_1535, %onnx::MatMul_3300)
  %input.83 = Add(%layers.6.fc1.bias, %onnx::Add_1537)
  %hidden_states.79 = Relu(%input.83)
  %onnx::Add_1541 = MatMul(%hidden_states.79, %onnx::MatMul_3301)
  %hidden_states.83 = Add(%layers.6.fc2.bias, %onnx::Add_1541)
  %input.87 = Add(%input.79, %hidden_states.83)
  %onnx::Sub_1544 = ReduceMean[axes = [-1]](%input.87)
  %onnx::Pow_1545 = Sub(%input.87, %onnx::Sub_1544)
  %onnx::ReduceMean_1547 = Pow(%onnx::Pow_1545, %onnx::Pow_321)
  %onnx::Add_1548 = ReduceMean[axes = [-1]](%onnx::ReduceMean_1547)
  %onnx::Sqrt_1550 = Add(%onnx::Add_1548, %onnx::Add_324)
  %onnx::Div_1551 = Sqrt(%onnx::Sqrt_1550)
  %onnx::Mul_1552 = Div(%onnx::Pow_1545, %onnx::Div_1551)
  %onnx::Add_1553 = Mul(%onnx::Mul_1552, %layers.7.self_attn_layer_norm.weight)
  %onnx::Shape_1554 = Add(%onnx::Add_1553, %layers.7.self_attn_layer_norm.bias)
  %onnx::Gather_1555 = Shape(%onnx::Shape_1554)
  %onnx::Unsqueeze_1557 = Gather[axis = 0](%onnx::Gather_1555, %onnx::Range_3131)
  %onnx::Unsqueeze_1560 = Gather[axis = 0](%onnx::Gather_1555, %onnx::Range_3132)
  %onnx::Add_1562 = MatMul(%onnx::Shape_1554, %onnx::MatMul_3302)
  %onnx::Mul_1563 = Add(%layers.7.self_attn.q_proj.bias, %onnx::Add_1562)
  %query_states.27 = Mul(%onnx::Mul_1563, %onnx::Mul_339)
  %onnx::Add_1567 = MatMul(%onnx::Shape_1554, %onnx::MatMul_3303)
  %onnx::Reshape_1568 = Add(%layers.7.self_attn.k_proj.bias, %onnx::Add_1567)
  %onnx::Concat_1573 = Unsqueeze(%onnx::Unsqueeze_1557, %onnx::Unsqueeze_268)
  %onnx::Reshape_1580 = Concat[axis = 0](%onnx::Concat_1573, %onnx::Concat_3130, %onnx::Concat_3137, %onnx::Concat_3138)
  %onnx::Transpose_1581 = Reshape(%onnx::Reshape_1568, %onnx::Reshape_1580)
  %onnx::Reshape_1582 = Transpose[perm = [0, 2, 1, 3]](%onnx::Transpose_1581)
  %onnx::Add_1584 = MatMul(%onnx::Shape_1554, %onnx::MatMul_3307)
  %onnx::Reshape_1585 = Add(%layers.7.self_attn.v_proj.bias, %onnx::Add_1584)
  %onnx::Transpose_1598 = Reshape(%onnx::Reshape_1585, %onnx::Reshape_1580)
  %onnx::Reshape_1599 = Transpose[perm = [0, 2, 1, 3]](%onnx::Transpose_1598)
  %onnx::Unsqueeze_1601 = Mul(%onnx::Unsqueeze_1557, %onnx::Mul_375)
  %onnx::Concat_1607 = Unsqueeze(%onnx::Unsqueeze_1560, %onnx::Unsqueeze_268)
  %onnx::Reshape_1612 = Concat[axis = 0](%onnx::Concat_1573, %onnx::Concat_1607, %onnx::Concat_3137, %onnx::Concat_3138)
  %onnx::Transpose_1613 = Reshape(%query_states.27, %onnx::Reshape_1612)
  %onnx::Reshape_1614 = Transpose[perm = [0, 2, 1, 3]](%onnx::Transpose_1613)
  %onnx::Concat_1618 = Unsqueeze(%onnx::Unsqueeze_1601, %onnx::Unsqueeze_268)
  %onnx::Reshape_1623 = Concat[axis = 0](%onnx::Concat_1618, %onnx::Concat_3130, %onnx::Concat_3138)
  %onnx::MatMul_1624 = Reshape(%onnx::Reshape_1614, %onnx::Reshape_1623)
  %onnx::Shape_1634 = Reshape(%onnx::Reshape_1582, %onnx::Reshape_1623)
  %onnx::MatMul_1644 = Reshape(%onnx::Reshape_1599, %onnx::Reshape_1623)
  %onnx::Gather_1645 = Shape(%onnx::Shape_1634)
  %onnx::Unsqueeze_1647 = Gather[axis = 0](%onnx::Gather_1645, %onnx::Range_3132)
  %onnx::MatMul_1648 = Transpose[perm = [0, 2, 1]](%onnx::Shape_1634)
  %onnx::Reshape_1649 = MatMul(%onnx::MatMul_1624, %onnx::MatMul_1648)
  %onnx::Concat_1658 = Unsqueeze(%onnx::Unsqueeze_1647, %onnx::Unsqueeze_268)
  %onnx::Reshape_1659 = Concat[axis = 0](%onnx::Concat_1573, %onnx::Concat_3137, %onnx::Concat_1607, %onnx::Concat_1658)
  %onnx::Add_1660 = Reshape(%onnx::Reshape_1649, %onnx::Reshape_1659)
  %onnx::Reshape_1661 = Add(%onnx::Add_1660, %onnx::Add_318)
  %onnx::Reshape_1670 = Concat[axis = 0](%onnx::Concat_1618, %onnx::Concat_1607, %onnx::Concat_1658)
  %attn_weights.55 = Reshape(%onnx::Reshape_1661, %onnx::Reshape_1670)
  %attn_weights.59 = Softmax[axis = -1](%attn_weights.55)
  %onnx::Reshape_1673 = MatMul(%attn_weights.59, %onnx::MatMul_1644)
  %onnx::Reshape_1684 = Concat[axis = 0](%onnx::Concat_1573, %onnx::Concat_3137, %onnx::Concat_1607, %onnx::Concat_3138)
  %onnx::Transpose_1685 = Reshape(%onnx::Reshape_1673, %onnx::Reshape_1684)
  %onnx::Reshape_1686 = Transpose[perm = [0, 2, 1, 3]](%onnx::Transpose_1685)
  %onnx::Reshape_1694 = Concat[axis = 0](%onnx::Concat_1573, %onnx::Concat_1607, %onnx::Concat_3154)
  %onnx::MatMul_1695 = Reshape(%onnx::Reshape_1686, %onnx::Reshape_1694)
  %onnx::Add_1697 = MatMul(%onnx::MatMul_1695, %onnx::MatMul_3323)
  %hidden_states.87 = Add(%layers.7.self_attn.out_proj.bias, %onnx::Add_1697)
  %input.91 = Add(%input.87, %hidden_states.87)
  %onnx::Sub_1700 = ReduceMean[axes = [-1]](%input.91)
  %onnx::Pow_1701 = Sub(%input.91, %onnx::Sub_1700)
  %onnx::ReduceMean_1703 = Pow(%onnx::Pow_1701, %onnx::Pow_321)
  %onnx::Add_1704 = ReduceMean[axes = [-1]](%onnx::ReduceMean_1703)
  %onnx::Sqrt_1706 = Add(%onnx::Add_1704, %onnx::Add_324)
  %onnx::Div_1707 = Sqrt(%onnx::Sqrt_1706)
  %onnx::Mul_1708 = Div(%onnx::Pow_1701, %onnx::Div_1707)
  %onnx::Add_1709 = Mul(%onnx::Mul_1708, %layers.7.final_layer_norm.weight)
  %onnx::MatMul_1710 = Add(%onnx::Add_1709, %layers.7.final_layer_norm.bias)
  %onnx::Add_1712 = MatMul(%onnx::MatMul_1710, %onnx::MatMul_3324)
  %input.95 = Add(%layers.7.fc1.bias, %onnx::Add_1712)
  %hidden_states.91 = Relu(%input.95)
  %onnx::Add_1716 = MatMul(%hidden_states.91, %onnx::MatMul_3325)
  %hidden_states.95 = Add(%layers.7.fc2.bias, %onnx::Add_1716)
  %input.99 = Add(%input.91, %hidden_states.95)
  %onnx::Sub_1719 = ReduceMean[axes = [-1]](%input.99)
  %onnx::Pow_1720 = Sub(%input.99, %onnx::Sub_1719)
  %onnx::ReduceMean_1722 = Pow(%onnx::Pow_1720, %onnx::Pow_321)
  %onnx::Add_1723 = ReduceMean[axes = [-1]](%onnx::ReduceMean_1722)
  %onnx::Sqrt_1725 = Add(%onnx::Add_1723, %onnx::Add_324)
  %onnx::Div_1726 = Sqrt(%onnx::Sqrt_1725)
  %onnx::Mul_1727 = Div(%onnx::Pow_1720, %onnx::Div_1726)
  %onnx::Add_1728 = Mul(%onnx::Mul_1727, %layers.8.self_attn_layer_norm.weight)
  %onnx::Shape_1729 = Add(%onnx::Add_1728, %layers.8.self_attn_layer_norm.bias)
  %onnx::Gather_1730 = Shape(%onnx::Shape_1729)
  %onnx::Unsqueeze_1732 = Gather[axis = 0](%onnx::Gather_1730, %onnx::Range_3131)
  %onnx::Unsqueeze_1735 = Gather[axis = 0](%onnx::Gather_1730, %onnx::Range_3132)
  %onnx::Add_1737 = MatMul(%onnx::Shape_1729, %onnx::MatMul_3326)
  %onnx::Mul_1738 = Add(%layers.8.self_attn.q_proj.bias, %onnx::Add_1737)
  %query_states.31 = Mul(%onnx::Mul_1738, %onnx::Mul_339)
  %onnx::Add_1742 = MatMul(%onnx::Shape_1729, %onnx::MatMul_3327)
  %onnx::Reshape_1743 = Add(%layers.8.self_attn.k_proj.bias, %onnx::Add_1742)
  %onnx::Concat_1748 = Unsqueeze(%onnx::Unsqueeze_1732, %onnx::Unsqueeze_268)
  %onnx::Reshape_1755 = Concat[axis = 0](%onnx::Concat_1748, %onnx::Concat_3130, %onnx::Concat_3137, %onnx::Concat_3138)
  %onnx::Transpose_1756 = Reshape(%onnx::Reshape_1743, %onnx::Reshape_1755)
  %onnx::Reshape_1757 = Transpose[perm = [0, 2, 1, 3]](%onnx::Transpose_1756)
  %onnx::Add_1759 = MatMul(%onnx::Shape_1729, %onnx::MatMul_3331)
  %onnx::Reshape_1760 = Add(%layers.8.self_attn.v_proj.bias, %onnx::Add_1759)
  %onnx::Transpose_1773 = Reshape(%onnx::Reshape_1760, %onnx::Reshape_1755)
  %onnx::Reshape_1774 = Transpose[perm = [0, 2, 1, 3]](%onnx::Transpose_1773)
  %onnx::Unsqueeze_1776 = Mul(%onnx::Unsqueeze_1732, %onnx::Mul_375)
  %onnx::Concat_1782 = Unsqueeze(%onnx::Unsqueeze_1735, %onnx::Unsqueeze_268)
  %onnx::Reshape_1787 = Concat[axis = 0](%onnx::Concat_1748, %onnx::Concat_1782, %onnx::Concat_3137, %onnx::Concat_3138)
  %onnx::Transpose_1788 = Reshape(%query_states.31, %onnx::Reshape_1787)
  %onnx::Reshape_1789 = Transpose[perm = [0, 2, 1, 3]](%onnx::Transpose_1788)
  %onnx::Concat_1793 = Unsqueeze(%onnx::Unsqueeze_1776, %onnx::Unsqueeze_268)
  %onnx::Reshape_1798 = Concat[axis = 0](%onnx::Concat_1793, %onnx::Concat_3130, %onnx::Concat_3138)
  %onnx::MatMul_1799 = Reshape(%onnx::Reshape_1789, %onnx::Reshape_1798)
  %onnx::Shape_1809 = Reshape(%onnx::Reshape_1757, %onnx::Reshape_1798)
  %onnx::MatMul_1819 = Reshape(%onnx::Reshape_1774, %onnx::Reshape_1798)
  %onnx::Gather_1820 = Shape(%onnx::Shape_1809)
  %onnx::Unsqueeze_1822 = Gather[axis = 0](%onnx::Gather_1820, %onnx::Range_3132)
  %onnx::MatMul_1823 = Transpose[perm = [0, 2, 1]](%onnx::Shape_1809)
  %onnx::Reshape_1824 = MatMul(%onnx::MatMul_1799, %onnx::MatMul_1823)
  %onnx::Concat_1833 = Unsqueeze(%onnx::Unsqueeze_1822, %onnx::Unsqueeze_268)
  %onnx::Reshape_1834 = Concat[axis = 0](%onnx::Concat_1748, %onnx::Concat_3137, %onnx::Concat_1782, %onnx::Concat_1833)
  %onnx::Add_1835 = Reshape(%onnx::Reshape_1824, %onnx::Reshape_1834)
  %onnx::Reshape_1836 = Add(%onnx::Add_1835, %onnx::Add_318)
  %onnx::Reshape_1845 = Concat[axis = 0](%onnx::Concat_1793, %onnx::Concat_1782, %onnx::Concat_1833)
  %attn_weights.63 = Reshape(%onnx::Reshape_1836, %onnx::Reshape_1845)
  %attn_weights.67 = Softmax[axis = -1](%attn_weights.63)
  %onnx::Reshape_1848 = MatMul(%attn_weights.67, %onnx::MatMul_1819)
  %onnx::Reshape_1859 = Concat[axis = 0](%onnx::Concat_1748, %onnx::Concat_3137, %onnx::Concat_1782, %onnx::Concat_3138)
  %onnx::Transpose_1860 = Reshape(%onnx::Reshape_1848, %onnx::Reshape_1859)
  %onnx::Reshape_1861 = Transpose[perm = [0, 2, 1, 3]](%onnx::Transpose_1860)
  %onnx::Reshape_1869 = Concat[axis = 0](%onnx::Concat_1748, %onnx::Concat_1782, %onnx::Concat_3154)
  %onnx::MatMul_1870 = Reshape(%onnx::Reshape_1861, %onnx::Reshape_1869)
  %onnx::Add_1872 = MatMul(%onnx::MatMul_1870, %onnx::MatMul_3347)
  %hidden_states.99 = Add(%layers.8.self_attn.out_proj.bias, %onnx::Add_1872)
  %input.103 = Add(%input.99, %hidden_states.99)
  %onnx::Sub_1875 = ReduceMean[axes = [-1]](%input.103)
  %onnx::Pow_1876 = Sub(%input.103, %onnx::Sub_1875)
  %onnx::ReduceMean_1878 = Pow(%onnx::Pow_1876, %onnx::Pow_321)
  %onnx::Add_1879 = ReduceMean[axes = [-1]](%onnx::ReduceMean_1878)
  %onnx::Sqrt_1881 = Add(%onnx::Add_1879, %onnx::Add_324)
  %onnx::Div_1882 = Sqrt(%onnx::Sqrt_1881)
  %onnx::Mul_1883 = Div(%onnx::Pow_1876, %onnx::Div_1882)
  %onnx::Add_1884 = Mul(%onnx::Mul_1883, %layers.8.final_layer_norm.weight)
  %onnx::MatMul_1885 = Add(%onnx::Add_1884, %layers.8.final_layer_norm.bias)
  %onnx::Add_1887 = MatMul(%onnx::MatMul_1885, %onnx::MatMul_3348)
  %input.107 = Add(%layers.8.fc1.bias, %onnx::Add_1887)
  %hidden_states.103 = Relu(%input.107)
  %onnx::Add_1891 = MatMul(%hidden_states.103, %onnx::MatMul_3349)
  %hidden_states.107 = Add(%layers.8.fc2.bias, %onnx::Add_1891)
  %input.111 = Add(%input.103, %hidden_states.107)
  %onnx::Sub_1894 = ReduceMean[axes = [-1]](%input.111)
  %onnx::Pow_1895 = Sub(%input.111, %onnx::Sub_1894)
  %onnx::ReduceMean_1897 = Pow(%onnx::Pow_1895, %onnx::Pow_321)
  %onnx::Add_1898 = ReduceMean[axes = [-1]](%onnx::ReduceMean_1897)
  %onnx::Sqrt_1900 = Add(%onnx::Add_1898, %onnx::Add_324)
  %onnx::Div_1901 = Sqrt(%onnx::Sqrt_1900)
  %onnx::Mul_1902 = Div(%onnx::Pow_1895, %onnx::Div_1901)
  %onnx::Add_1903 = Mul(%onnx::Mul_1902, %layers.9.self_attn_layer_norm.weight)
  %onnx::Shape_1904 = Add(%onnx::Add_1903, %layers.9.self_attn_layer_norm.bias)
  %onnx::Gather_1905 = Shape(%onnx::Shape_1904)
  %onnx::Unsqueeze_1907 = Gather[axis = 0](%onnx::Gather_1905, %onnx::Range_3131)
  %onnx::Unsqueeze_1910 = Gather[axis = 0](%onnx::Gather_1905, %onnx::Range_3132)
  %onnx::Add_1912 = MatMul(%onnx::Shape_1904, %onnx::MatMul_3350)
  %onnx::Mul_1913 = Add(%layers.9.self_attn.q_proj.bias, %onnx::Add_1912)
  %query_states.35 = Mul(%onnx::Mul_1913, %onnx::Mul_339)
  %onnx::Add_1917 = MatMul(%onnx::Shape_1904, %onnx::MatMul_3351)
  %onnx::Reshape_1918 = Add(%layers.9.self_attn.k_proj.bias, %onnx::Add_1917)
  %onnx::Concat_1923 = Unsqueeze(%onnx::Unsqueeze_1907, %onnx::Unsqueeze_268)
  %onnx::Reshape_1930 = Concat[axis = 0](%onnx::Concat_1923, %onnx::Concat_3130, %onnx::Concat_3137, %onnx::Concat_3138)
  %onnx::Transpose_1931 = Reshape(%onnx::Reshape_1918, %onnx::Reshape_1930)
  %onnx::Reshape_1932 = Transpose[perm = [0, 2, 1, 3]](%onnx::Transpose_1931)
  %onnx::Add_1934 = MatMul(%onnx::Shape_1904, %onnx::MatMul_3355)
  %onnx::Reshape_1935 = Add(%layers.9.self_attn.v_proj.bias, %onnx::Add_1934)
  %onnx::Transpose_1948 = Reshape(%onnx::Reshape_1935, %onnx::Reshape_1930)
  %onnx::Reshape_1949 = Transpose[perm = [0, 2, 1, 3]](%onnx::Transpose_1948)
  %onnx::Unsqueeze_1951 = Mul(%onnx::Unsqueeze_1907, %onnx::Mul_375)
  %onnx::Concat_1957 = Unsqueeze(%onnx::Unsqueeze_1910, %onnx::Unsqueeze_268)
  %onnx::Reshape_1962 = Concat[axis = 0](%onnx::Concat_1923, %onnx::Concat_1957, %onnx::Concat_3137, %onnx::Concat_3138)
  %onnx::Transpose_1963 = Reshape(%query_states.35, %onnx::Reshape_1962)
  %onnx::Reshape_1964 = Transpose[perm = [0, 2, 1, 3]](%onnx::Transpose_1963)
  %onnx::Concat_1968 = Unsqueeze(%onnx::Unsqueeze_1951, %onnx::Unsqueeze_268)
  %onnx::Reshape_1973 = Concat[axis = 0](%onnx::Concat_1968, %onnx::Concat_3130, %onnx::Concat_3138)
  %onnx::MatMul_1974 = Reshape(%onnx::Reshape_1964, %onnx::Reshape_1973)
  %onnx::Shape_1984 = Reshape(%onnx::Reshape_1932, %onnx::Reshape_1973)
  %onnx::MatMul_1994 = Reshape(%onnx::Reshape_1949, %onnx::Reshape_1973)
  %onnx::Gather_1995 = Shape(%onnx::Shape_1984)
  %onnx::Unsqueeze_1997 = Gather[axis = 0](%onnx::Gather_1995, %onnx::Range_3132)
  %onnx::MatMul_1998 = Transpose[perm = [0, 2, 1]](%onnx::Shape_1984)
  %onnx::Reshape_1999 = MatMul(%onnx::MatMul_1974, %onnx::MatMul_1998)
  %onnx::Concat_2008 = Unsqueeze(%onnx::Unsqueeze_1997, %onnx::Unsqueeze_268)
  %onnx::Reshape_2009 = Concat[axis = 0](%onnx::Concat_1923, %onnx::Concat_3137, %onnx::Concat_1957, %onnx::Concat_2008)
  %onnx::Add_2010 = Reshape(%onnx::Reshape_1999, %onnx::Reshape_2009)
  %onnx::Reshape_2011 = Add(%onnx::Add_2010, %onnx::Add_318)
  %onnx::Reshape_2020 = Concat[axis = 0](%onnx::Concat_1968, %onnx::Concat_1957, %onnx::Concat_2008)
  %attn_weights.71 = Reshape(%onnx::Reshape_2011, %onnx::Reshape_2020)
  %attn_weights.75 = Softmax[axis = -1](%attn_weights.71)
  %onnx::Reshape_2023 = MatMul(%attn_weights.75, %onnx::MatMul_1994)
  %onnx::Reshape_2034 = Concat[axis = 0](%onnx::Concat_1923, %onnx::Concat_3137, %onnx::Concat_1957, %onnx::Concat_3138)
  %onnx::Transpose_2035 = Reshape(%onnx::Reshape_2023, %onnx::Reshape_2034)
  %onnx::Reshape_2036 = Transpose[perm = [0, 2, 1, 3]](%onnx::Transpose_2035)
  %onnx::Reshape_2044 = Concat[axis = 0](%onnx::Concat_1923, %onnx::Concat_1957, %onnx::Concat_3154)
  %onnx::MatMul_2045 = Reshape(%onnx::Reshape_2036, %onnx::Reshape_2044)
  %onnx::Add_2047 = MatMul(%onnx::MatMul_2045, %onnx::MatMul_3371)
  %hidden_states.111 = Add(%layers.9.self_attn.out_proj.bias, %onnx::Add_2047)
  %input.115 = Add(%input.111, %hidden_states.111)
  %onnx::Sub_2050 = ReduceMean[axes = [-1]](%input.115)
  %onnx::Pow_2051 = Sub(%input.115, %onnx::Sub_2050)
  %onnx::ReduceMean_2053 = Pow(%onnx::Pow_2051, %onnx::Pow_321)
  %onnx::Add_2054 = ReduceMean[axes = [-1]](%onnx::ReduceMean_2053)
  %onnx::Sqrt_2056 = Add(%onnx::Add_2054, %onnx::Add_324)
  %onnx::Div_2057 = Sqrt(%onnx::Sqrt_2056)
  %onnx::Mul_2058 = Div(%onnx::Pow_2051, %onnx::Div_2057)
  %onnx::Add_2059 = Mul(%onnx::Mul_2058, %layers.9.final_layer_norm.weight)
  %onnx::MatMul_2060 = Add(%onnx::Add_2059, %layers.9.final_layer_norm.bias)
  %onnx::Add_2062 = MatMul(%onnx::MatMul_2060, %onnx::MatMul_3372)
  %input.119 = Add(%layers.9.fc1.bias, %onnx::Add_2062)
  %hidden_states.115 = Relu(%input.119)
  %onnx::Add_2066 = MatMul(%hidden_states.115, %onnx::MatMul_3373)
  %hidden_states.119 = Add(%layers.9.fc2.bias, %onnx::Add_2066)
  %input.123 = Add(%input.115, %hidden_states.119)
  %onnx::Sub_2069 = ReduceMean[axes = [-1]](%input.123)
  %onnx::Pow_2070 = Sub(%input.123, %onnx::Sub_2069)
  %onnx::ReduceMean_2072 = Pow(%onnx::Pow_2070, %onnx::Pow_321)
  %onnx::Add_2073 = ReduceMean[axes = [-1]](%onnx::ReduceMean_2072)
  %onnx::Sqrt_2075 = Add(%onnx::Add_2073, %onnx::Add_324)
  %onnx::Div_2076 = Sqrt(%onnx::Sqrt_2075)
  %onnx::Mul_2077 = Div(%onnx::Pow_2070, %onnx::Div_2076)
  %onnx::Add_2078 = Mul(%onnx::Mul_2077, %layers.10.self_attn_layer_norm.weight)
  %onnx::Shape_2079 = Add(%onnx::Add_2078, %layers.10.self_attn_layer_norm.bias)
  %onnx::Gather_2080 = Shape(%onnx::Shape_2079)
  %onnx::Unsqueeze_2082 = Gather[axis = 0](%onnx::Gather_2080, %onnx::Range_3131)
  %onnx::Unsqueeze_2085 = Gather[axis = 0](%onnx::Gather_2080, %onnx::Range_3132)
  %onnx::Add_2087 = MatMul(%onnx::Shape_2079, %onnx::MatMul_3374)
  %onnx::Mul_2088 = Add(%layers.10.self_attn.q_proj.bias, %onnx::Add_2087)
  %query_states.39 = Mul(%onnx::Mul_2088, %onnx::Mul_339)
  %onnx::Add_2092 = MatMul(%onnx::Shape_2079, %onnx::MatMul_3375)
  %onnx::Reshape_2093 = Add(%layers.10.self_attn.k_proj.bias, %onnx::Add_2092)
  %onnx::Concat_2098 = Unsqueeze(%onnx::Unsqueeze_2082, %onnx::Unsqueeze_268)
  %onnx::Reshape_2105 = Concat[axis = 0](%onnx::Concat_2098, %onnx::Concat_3130, %onnx::Concat_3137, %onnx::Concat_3138)
  %onnx::Transpose_2106 = Reshape(%onnx::Reshape_2093, %onnx::Reshape_2105)
  %onnx::Reshape_2107 = Transpose[perm = [0, 2, 1, 3]](%onnx::Transpose_2106)
  %onnx::Add_2109 = MatMul(%onnx::Shape_2079, %onnx::MatMul_3379)
  %onnx::Reshape_2110 = Add(%layers.10.self_attn.v_proj.bias, %onnx::Add_2109)
  %onnx::Transpose_2123 = Reshape(%onnx::Reshape_2110, %onnx::Reshape_2105)
  %onnx::Reshape_2124 = Transpose[perm = [0, 2, 1, 3]](%onnx::Transpose_2123)
  %onnx::Unsqueeze_2126 = Mul(%onnx::Unsqueeze_2082, %onnx::Mul_375)
  %onnx::Concat_2132 = Unsqueeze(%onnx::Unsqueeze_2085, %onnx::Unsqueeze_268)
  %onnx::Reshape_2137 = Concat[axis = 0](%onnx::Concat_2098, %onnx::Concat_2132, %onnx::Concat_3137, %onnx::Concat_3138)
  %onnx::Transpose_2138 = Reshape(%query_states.39, %onnx::Reshape_2137)
  %onnx::Reshape_2139 = Transpose[perm = [0, 2, 1, 3]](%onnx::Transpose_2138)
  %onnx::Concat_2143 = Unsqueeze(%onnx::Unsqueeze_2126, %onnx::Unsqueeze_268)
  %onnx::Reshape_2148 = Concat[axis = 0](%onnx::Concat_2143, %onnx::Concat_3130, %onnx::Concat_3138)
  %onnx::MatMul_2149 = Reshape(%onnx::Reshape_2139, %onnx::Reshape_2148)
  %onnx::Shape_2159 = Reshape(%onnx::Reshape_2107, %onnx::Reshape_2148)
  %onnx::MatMul_2169 = Reshape(%onnx::Reshape_2124, %onnx::Reshape_2148)
  %onnx::Gather_2170 = Shape(%onnx::Shape_2159)
  %onnx::Unsqueeze_2172 = Gather[axis = 0](%onnx::Gather_2170, %onnx::Range_3132)
  %onnx::MatMul_2173 = Transpose[perm = [0, 2, 1]](%onnx::Shape_2159)
  %onnx::Reshape_2174 = MatMul(%onnx::MatMul_2149, %onnx::MatMul_2173)
  %onnx::Concat_2183 = Unsqueeze(%onnx::Unsqueeze_2172, %onnx::Unsqueeze_268)
  %onnx::Reshape_2184 = Concat[axis = 0](%onnx::Concat_2098, %onnx::Concat_3137, %onnx::Concat_2132, %onnx::Concat_2183)
  %onnx::Add_2185 = Reshape(%onnx::Reshape_2174, %onnx::Reshape_2184)
  %onnx::Reshape_2186 = Add(%onnx::Add_2185, %onnx::Add_318)
  %onnx::Reshape_2195 = Concat[axis = 0](%onnx::Concat_2143, %onnx::Concat_2132, %onnx::Concat_2183)
  %attn_weights.79 = Reshape(%onnx::Reshape_2186, %onnx::Reshape_2195)
  %attn_weights.83 = Softmax[axis = -1](%attn_weights.79)
  %onnx::Reshape_2198 = MatMul(%attn_weights.83, %onnx::MatMul_2169)
  %onnx::Reshape_2209 = Concat[axis = 0](%onnx::Concat_2098, %onnx::Concat_3137, %onnx::Concat_2132, %onnx::Concat_3138)
  %onnx::Transpose_2210 = Reshape(%onnx::Reshape_2198, %onnx::Reshape_2209)
  %onnx::Reshape_2211 = Transpose[perm = [0, 2, 1, 3]](%onnx::Transpose_2210)
  %onnx::Reshape_2219 = Concat[axis = 0](%onnx::Concat_2098, %onnx::Concat_2132, %onnx::Concat_3154)
  %onnx::MatMul_2220 = Reshape(%onnx::Reshape_2211, %onnx::Reshape_2219)
  %onnx::Add_2222 = MatMul(%onnx::MatMul_2220, %onnx::MatMul_3395)
  %hidden_states.123 = Add(%layers.10.self_attn.out_proj.bias, %onnx::Add_2222)
  %input.127 = Add(%input.123, %hidden_states.123)
  %onnx::Sub_2225 = ReduceMean[axes = [-1]](%input.127)
  %onnx::Pow_2226 = Sub(%input.127, %onnx::Sub_2225)
  %onnx::ReduceMean_2228 = Pow(%onnx::Pow_2226, %onnx::Pow_321)
  %onnx::Add_2229 = ReduceMean[axes = [-1]](%onnx::ReduceMean_2228)
  %onnx::Sqrt_2231 = Add(%onnx::Add_2229, %onnx::Add_324)
  %onnx::Div_2232 = Sqrt(%onnx::Sqrt_2231)
  %onnx::Mul_2233 = Div(%onnx::Pow_2226, %onnx::Div_2232)
  %onnx::Add_2234 = Mul(%onnx::Mul_2233, %layers.10.final_layer_norm.weight)
  %onnx::MatMul_2235 = Add(%onnx::Add_2234, %layers.10.final_layer_norm.bias)
  %onnx::Add_2237 = MatMul(%onnx::MatMul_2235, %onnx::MatMul_3396)
  %input.131 = Add(%layers.10.fc1.bias, %onnx::Add_2237)
  %hidden_states.127 = Relu(%input.131)
  %onnx::Add_2241 = MatMul(%hidden_states.127, %onnx::MatMul_3397)
  %hidden_states.131 = Add(%layers.10.fc2.bias, %onnx::Add_2241)
  %input.135 = Add(%input.127, %hidden_states.131)
  %onnx::Sub_2244 = ReduceMean[axes = [-1]](%input.135)
  %onnx::Pow_2245 = Sub(%input.135, %onnx::Sub_2244)
  %onnx::ReduceMean_2247 = Pow(%onnx::Pow_2245, %onnx::Pow_321)
  %onnx::Add_2248 = ReduceMean[axes = [-1]](%onnx::ReduceMean_2247)
  %onnx::Sqrt_2250 = Add(%onnx::Add_2248, %onnx::Add_324)
  %onnx::Div_2251 = Sqrt(%onnx::Sqrt_2250)
  %onnx::Mul_2252 = Div(%onnx::Pow_2245, %onnx::Div_2251)
  %onnx::Add_2253 = Mul(%onnx::Mul_2252, %layers.11.self_attn_layer_norm.weight)
  %onnx::Shape_2254 = Add(%onnx::Add_2253, %layers.11.self_attn_layer_norm.bias)
  %onnx::Gather_2255 = Shape(%onnx::Shape_2254)
  %onnx::Unsqueeze_2257 = Gather[axis = 0](%onnx::Gather_2255, %onnx::Range_3131)
  %onnx::Unsqueeze_2260 = Gather[axis = 0](%onnx::Gather_2255, %onnx::Range_3132)
  %onnx::Add_2262 = MatMul(%onnx::Shape_2254, %onnx::MatMul_3398)
  %onnx::Mul_2263 = Add(%layers.11.self_attn.q_proj.bias, %onnx::Add_2262)
  %query_states.43 = Mul(%onnx::Mul_2263, %onnx::Mul_339)
  %onnx::Add_2267 = MatMul(%onnx::Shape_2254, %onnx::MatMul_3399)
  %onnx::Reshape_2268 = Add(%layers.11.self_attn.k_proj.bias, %onnx::Add_2267)
  %onnx::Concat_2273 = Unsqueeze(%onnx::Unsqueeze_2257, %onnx::Unsqueeze_268)
  %onnx::Reshape_2280 = Concat[axis = 0](%onnx::Concat_2273, %onnx::Concat_3130, %onnx::Concat_3137, %onnx::Concat_3138)
  %onnx::Transpose_2281 = Reshape(%onnx::Reshape_2268, %onnx::Reshape_2280)
  %onnx::Reshape_2282 = Transpose[perm = [0, 2, 1, 3]](%onnx::Transpose_2281)
  %onnx::Add_2284 = MatMul(%onnx::Shape_2254, %onnx::MatMul_3403)
  %onnx::Reshape_2285 = Add(%layers.11.self_attn.v_proj.bias, %onnx::Add_2284)
  %onnx::Transpose_2298 = Reshape(%onnx::Reshape_2285, %onnx::Reshape_2280)
  %onnx::Reshape_2299 = Transpose[perm = [0, 2, 1, 3]](%onnx::Transpose_2298)
  %onnx::Unsqueeze_2301 = Mul(%onnx::Unsqueeze_2257, %onnx::Mul_375)
  %onnx::Concat_2307 = Unsqueeze(%onnx::Unsqueeze_2260, %onnx::Unsqueeze_268)
  %onnx::Reshape_2312 = Concat[axis = 0](%onnx::Concat_2273, %onnx::Concat_2307, %onnx::Concat_3137, %onnx::Concat_3138)
  %onnx::Transpose_2313 = Reshape(%query_states.43, %onnx::Reshape_2312)
  %onnx::Reshape_2314 = Transpose[perm = [0, 2, 1, 3]](%onnx::Transpose_2313)
  %onnx::Concat_2318 = Unsqueeze(%onnx::Unsqueeze_2301, %onnx::Unsqueeze_268)
  %onnx::Reshape_2323 = Concat[axis = 0](%onnx::Concat_2318, %onnx::Concat_3130, %onnx::Concat_3138)
  %onnx::MatMul_2324 = Reshape(%onnx::Reshape_2314, %onnx::Reshape_2323)
  %onnx::Shape_2334 = Reshape(%onnx::Reshape_2282, %onnx::Reshape_2323)
  %onnx::MatMul_2344 = Reshape(%onnx::Reshape_2299, %onnx::Reshape_2323)
  %onnx::Gather_2345 = Shape(%onnx::Shape_2334)
  %onnx::Unsqueeze_2347 = Gather[axis = 0](%onnx::Gather_2345, %onnx::Range_3132)
  %onnx::MatMul_2348 = Transpose[perm = [0, 2, 1]](%onnx::Shape_2334)
  %onnx::Reshape_2349 = MatMul(%onnx::MatMul_2324, %onnx::MatMul_2348)
  %onnx::Concat_2358 = Unsqueeze(%onnx::Unsqueeze_2347, %onnx::Unsqueeze_268)
  %onnx::Reshape_2359 = Concat[axis = 0](%onnx::Concat_2273, %onnx::Concat_3137, %onnx::Concat_2307, %onnx::Concat_2358)
  %onnx::Add_2360 = Reshape(%onnx::Reshape_2349, %onnx::Reshape_2359)
  %onnx::Reshape_2361 = Add(%onnx::Add_2360, %onnx::Add_318)
  %onnx::Reshape_2370 = Concat[axis = 0](%onnx::Concat_2318, %onnx::Concat_2307, %onnx::Concat_2358)
  %attn_weights.87 = Reshape(%onnx::Reshape_2361, %onnx::Reshape_2370)
  %attn_weights.91 = Softmax[axis = -1](%attn_weights.87)
  %onnx::Reshape_2373 = MatMul(%attn_weights.91, %onnx::MatMul_2344)
  %onnx::Reshape_2384 = Concat[axis = 0](%onnx::Concat_2273, %onnx::Concat_3137, %onnx::Concat_2307, %onnx::Concat_3138)
  %onnx::Transpose_2385 = Reshape(%onnx::Reshape_2373, %onnx::Reshape_2384)
  %onnx::Reshape_2386 = Transpose[perm = [0, 2, 1, 3]](%onnx::Transpose_2385)
  %onnx::Reshape_2394 = Concat[axis = 0](%onnx::Concat_2273, %onnx::Concat_2307, %onnx::Concat_3154)
  %onnx::MatMul_2395 = Reshape(%onnx::Reshape_2386, %onnx::Reshape_2394)
  %onnx::Add_2397 = MatMul(%onnx::MatMul_2395, %onnx::MatMul_3419)
  %hidden_states.135 = Add(%layers.11.self_attn.out_proj.bias, %onnx::Add_2397)
  %input.139 = Add(%input.135, %hidden_states.135)
  %onnx::Sub_2400 = ReduceMean[axes = [-1]](%input.139)
  %onnx::Pow_2401 = Sub(%input.139, %onnx::Sub_2400)
  %onnx::ReduceMean_2403 = Pow(%onnx::Pow_2401, %onnx::Pow_321)
  %onnx::Add_2404 = ReduceMean[axes = [-1]](%onnx::ReduceMean_2403)
  %onnx::Sqrt_2406 = Add(%onnx::Add_2404, %onnx::Add_324)
  %onnx::Div_2407 = Sqrt(%onnx::Sqrt_2406)
  %onnx::Mul_2408 = Div(%onnx::Pow_2401, %onnx::Div_2407)
  %onnx::Add_2409 = Mul(%onnx::Mul_2408, %layers.11.final_layer_norm.weight)
  %onnx::MatMul_2410 = Add(%onnx::Add_2409, %layers.11.final_layer_norm.bias)
  %onnx::Add_2412 = MatMul(%onnx::MatMul_2410, %onnx::MatMul_3420)
  %input.143 = Add(%layers.11.fc1.bias, %onnx::Add_2412)
  %hidden_states.139 = Relu(%input.143)
  %onnx::Add_2416 = MatMul(%hidden_states.139, %onnx::MatMul_3421)
  %hidden_states.143 = Add(%layers.11.fc2.bias, %onnx::Add_2416)
  %input.147 = Add(%input.139, %hidden_states.143)
  %onnx::Sub_2419 = ReduceMean[axes = [-1]](%input.147)
  %onnx::Pow_2420 = Sub(%input.147, %onnx::Sub_2419)
  %onnx::ReduceMean_2422 = Pow(%onnx::Pow_2420, %onnx::Pow_321)
  %onnx::Add_2423 = ReduceMean[axes = [-1]](%onnx::ReduceMean_2422)
  %onnx::Sqrt_2425 = Add(%onnx::Add_2423, %onnx::Add_324)
  %onnx::Div_2426 = Sqrt(%onnx::Sqrt_2425)
  %onnx::Mul_2427 = Div(%onnx::Pow_2420, %onnx::Div_2426)
  %onnx::Add_2428 = Mul(%onnx::Mul_2427, %layers.12.self_attn_layer_norm.weight)
  %onnx::Shape_2429 = Add(%onnx::Add_2428, %layers.12.self_attn_layer_norm.bias)
  %onnx::Gather_2430 = Shape(%onnx::Shape_2429)
  %onnx::Unsqueeze_2432 = Gather[axis = 0](%onnx::Gather_2430, %onnx::Range_3131)
  %onnx::Unsqueeze_2435 = Gather[axis = 0](%onnx::Gather_2430, %onnx::Range_3132)
  %onnx::Add_2437 = MatMul(%onnx::Shape_2429, %onnx::MatMul_3422)
  %onnx::Mul_2438 = Add(%layers.12.self_attn.q_proj.bias, %onnx::Add_2437)
  %query_states.47 = Mul(%onnx::Mul_2438, %onnx::Mul_339)
  %onnx::Add_2442 = MatMul(%onnx::Shape_2429, %onnx::MatMul_3423)
  %onnx::Reshape_2443 = Add(%layers.12.self_attn.k_proj.bias, %onnx::Add_2442)
  %onnx::Concat_2448 = Unsqueeze(%onnx::Unsqueeze_2432, %onnx::Unsqueeze_268)
  %onnx::Reshape_2455 = Concat[axis = 0](%onnx::Concat_2448, %onnx::Concat_3130, %onnx::Concat_3137, %onnx::Concat_3138)
  %onnx::Transpose_2456 = Reshape(%onnx::Reshape_2443, %onnx::Reshape_2455)
  %onnx::Reshape_2457 = Transpose[perm = [0, 2, 1, 3]](%onnx::Transpose_2456)
  %onnx::Add_2459 = MatMul(%onnx::Shape_2429, %onnx::MatMul_3427)
  %onnx::Reshape_2460 = Add(%layers.12.self_attn.v_proj.bias, %onnx::Add_2459)
  %onnx::Transpose_2473 = Reshape(%onnx::Reshape_2460, %onnx::Reshape_2455)
  %onnx::Reshape_2474 = Transpose[perm = [0, 2, 1, 3]](%onnx::Transpose_2473)
  %onnx::Unsqueeze_2476 = Mul(%onnx::Unsqueeze_2432, %onnx::Mul_375)
  %onnx::Concat_2482 = Unsqueeze(%onnx::Unsqueeze_2435, %onnx::Unsqueeze_268)
  %onnx::Reshape_2487 = Concat[axis = 0](%onnx::Concat_2448, %onnx::Concat_2482, %onnx::Concat_3137, %onnx::Concat_3138)
  %onnx::Transpose_2488 = Reshape(%query_states.47, %onnx::Reshape_2487)
  %onnx::Reshape_2489 = Transpose[perm = [0, 2, 1, 3]](%onnx::Transpose_2488)
  %onnx::Concat_2493 = Unsqueeze(%onnx::Unsqueeze_2476, %onnx::Unsqueeze_268)
  %onnx::Reshape_2498 = Concat[axis = 0](%onnx::Concat_2493, %onnx::Concat_3130, %onnx::Concat_3138)
  %onnx::MatMul_2499 = Reshape(%onnx::Reshape_2489, %onnx::Reshape_2498)
  %onnx::Shape_2509 = Reshape(%onnx::Reshape_2457, %onnx::Reshape_2498)
  %onnx::MatMul_2519 = Reshape(%onnx::Reshape_2474, %onnx::Reshape_2498)
  %onnx::Gather_2520 = Shape(%onnx::Shape_2509)
  %onnx::Unsqueeze_2522 = Gather[axis = 0](%onnx::Gather_2520, %onnx::Range_3132)
  %onnx::MatMul_2523 = Transpose[perm = [0, 2, 1]](%onnx::Shape_2509)
  %onnx::Reshape_2524 = MatMul(%onnx::MatMul_2499, %onnx::MatMul_2523)
  %onnx::Concat_2533 = Unsqueeze(%onnx::Unsqueeze_2522, %onnx::Unsqueeze_268)
  %onnx::Reshape_2534 = Concat[axis = 0](%onnx::Concat_2448, %onnx::Concat_3137, %onnx::Concat_2482, %onnx::Concat_2533)
  %onnx::Add_2535 = Reshape(%onnx::Reshape_2524, %onnx::Reshape_2534)
  %onnx::Reshape_2536 = Add(%onnx::Add_2535, %onnx::Add_318)
  %onnx::Reshape_2545 = Concat[axis = 0](%onnx::Concat_2493, %onnx::Concat_2482, %onnx::Concat_2533)
  %attn_weights.95 = Reshape(%onnx::Reshape_2536, %onnx::Reshape_2545)
  %attn_weights.99 = Softmax[axis = -1](%attn_weights.95)
  %onnx::Reshape_2548 = MatMul(%attn_weights.99, %onnx::MatMul_2519)
  %onnx::Reshape_2559 = Concat[axis = 0](%onnx::Concat_2448, %onnx::Concat_3137, %onnx::Concat_2482, %onnx::Concat_3138)
  %onnx::Transpose_2560 = Reshape(%onnx::Reshape_2548, %onnx::Reshape_2559)
  %onnx::Reshape_2561 = Transpose[perm = [0, 2, 1, 3]](%onnx::Transpose_2560)
  %onnx::Reshape_2569 = Concat[axis = 0](%onnx::Concat_2448, %onnx::Concat_2482, %onnx::Concat_3154)
  %onnx::MatMul_2570 = Reshape(%onnx::Reshape_2561, %onnx::Reshape_2569)
  %onnx::Add_2572 = MatMul(%onnx::MatMul_2570, %onnx::MatMul_3443)
  %hidden_states.147 = Add(%layers.12.self_attn.out_proj.bias, %onnx::Add_2572)
  %input.151 = Add(%input.147, %hidden_states.147)
  %onnx::Sub_2575 = ReduceMean[axes = [-1]](%input.151)
  %onnx::Pow_2576 = Sub(%input.151, %onnx::Sub_2575)
  %onnx::ReduceMean_2578 = Pow(%onnx::Pow_2576, %onnx::Pow_321)
  %onnx::Add_2579 = ReduceMean[axes = [-1]](%onnx::ReduceMean_2578)
  %onnx::Sqrt_2581 = Add(%onnx::Add_2579, %onnx::Add_324)
  %onnx::Div_2582 = Sqrt(%onnx::Sqrt_2581)
  %onnx::Mul_2583 = Div(%onnx::Pow_2576, %onnx::Div_2582)
  %onnx::Add_2584 = Mul(%onnx::Mul_2583, %layers.12.final_layer_norm.weight)
  %onnx::MatMul_2585 = Add(%onnx::Add_2584, %layers.12.final_layer_norm.bias)
  %onnx::Add_2587 = MatMul(%onnx::MatMul_2585, %onnx::MatMul_3444)
  %input.155 = Add(%layers.12.fc1.bias, %onnx::Add_2587)
  %hidden_states.151 = Relu(%input.155)
  %onnx::Add_2591 = MatMul(%hidden_states.151, %onnx::MatMul_3445)
  %hidden_states.155 = Add(%layers.12.fc2.bias, %onnx::Add_2591)
  %input.159 = Add(%input.151, %hidden_states.155)
  %onnx::Sub_2594 = ReduceMean[axes = [-1]](%input.159)
  %onnx::Pow_2595 = Sub(%input.159, %onnx::Sub_2594)
  %onnx::ReduceMean_2597 = Pow(%onnx::Pow_2595, %onnx::Pow_321)
  %onnx::Add_2598 = ReduceMean[axes = [-1]](%onnx::ReduceMean_2597)
  %onnx::Sqrt_2600 = Add(%onnx::Add_2598, %onnx::Add_324)
  %onnx::Div_2601 = Sqrt(%onnx::Sqrt_2600)
  %onnx::Mul_2602 = Div(%onnx::Pow_2595, %onnx::Div_2601)
  %onnx::Add_2603 = Mul(%onnx::Mul_2602, %layers.13.self_attn_layer_norm.weight)
  %onnx::Shape_2604 = Add(%onnx::Add_2603, %layers.13.self_attn_layer_norm.bias)
  %onnx::Gather_2605 = Shape(%onnx::Shape_2604)
  %onnx::Unsqueeze_2607 = Gather[axis = 0](%onnx::Gather_2605, %onnx::Range_3131)
  %onnx::Unsqueeze_2610 = Gather[axis = 0](%onnx::Gather_2605, %onnx::Range_3132)
  %onnx::Add_2612 = MatMul(%onnx::Shape_2604, %onnx::MatMul_3446)
  %onnx::Mul_2613 = Add(%layers.13.self_attn.q_proj.bias, %onnx::Add_2612)
  %query_states.51 = Mul(%onnx::Mul_2613, %onnx::Mul_339)
  %onnx::Add_2617 = MatMul(%onnx::Shape_2604, %onnx::MatMul_3447)
  %onnx::Reshape_2618 = Add(%layers.13.self_attn.k_proj.bias, %onnx::Add_2617)
  %onnx::Concat_2623 = Unsqueeze(%onnx::Unsqueeze_2607, %onnx::Unsqueeze_268)
  %onnx::Reshape_2630 = Concat[axis = 0](%onnx::Concat_2623, %onnx::Concat_3130, %onnx::Concat_3137, %onnx::Concat_3138)
  %onnx::Transpose_2631 = Reshape(%onnx::Reshape_2618, %onnx::Reshape_2630)
  %onnx::Reshape_2632 = Transpose[perm = [0, 2, 1, 3]](%onnx::Transpose_2631)
  %onnx::Add_2634 = MatMul(%onnx::Shape_2604, %onnx::MatMul_3451)
  %onnx::Reshape_2635 = Add(%layers.13.self_attn.v_proj.bias, %onnx::Add_2634)
  %onnx::Transpose_2648 = Reshape(%onnx::Reshape_2635, %onnx::Reshape_2630)
  %onnx::Reshape_2649 = Transpose[perm = [0, 2, 1, 3]](%onnx::Transpose_2648)
  %onnx::Unsqueeze_2651 = Mul(%onnx::Unsqueeze_2607, %onnx::Mul_375)
  %onnx::Concat_2657 = Unsqueeze(%onnx::Unsqueeze_2610, %onnx::Unsqueeze_268)
  %onnx::Reshape_2662 = Concat[axis = 0](%onnx::Concat_2623, %onnx::Concat_2657, %onnx::Concat_3137, %onnx::Concat_3138)
  %onnx::Transpose_2663 = Reshape(%query_states.51, %onnx::Reshape_2662)
  %onnx::Reshape_2664 = Transpose[perm = [0, 2, 1, 3]](%onnx::Transpose_2663)
  %onnx::Concat_2668 = Unsqueeze(%onnx::Unsqueeze_2651, %onnx::Unsqueeze_268)
  %onnx::Reshape_2673 = Concat[axis = 0](%onnx::Concat_2668, %onnx::Concat_3130, %onnx::Concat_3138)
  %onnx::MatMul_2674 = Reshape(%onnx::Reshape_2664, %onnx::Reshape_2673)
  %onnx::Shape_2684 = Reshape(%onnx::Reshape_2632, %onnx::Reshape_2673)
  %onnx::MatMul_2694 = Reshape(%onnx::Reshape_2649, %onnx::Reshape_2673)
  %onnx::Gather_2695 = Shape(%onnx::Shape_2684)
  %onnx::Unsqueeze_2697 = Gather[axis = 0](%onnx::Gather_2695, %onnx::Range_3132)
  %onnx::MatMul_2698 = Transpose[perm = [0, 2, 1]](%onnx::Shape_2684)
  %onnx::Reshape_2699 = MatMul(%onnx::MatMul_2674, %onnx::MatMul_2698)
  %onnx::Concat_2708 = Unsqueeze(%onnx::Unsqueeze_2697, %onnx::Unsqueeze_268)
  %onnx::Reshape_2709 = Concat[axis = 0](%onnx::Concat_2623, %onnx::Concat_3137, %onnx::Concat_2657, %onnx::Concat_2708)
  %onnx::Add_2710 = Reshape(%onnx::Reshape_2699, %onnx::Reshape_2709)
  %onnx::Reshape_2711 = Add(%onnx::Add_2710, %onnx::Add_318)
  %onnx::Reshape_2720 = Concat[axis = 0](%onnx::Concat_2668, %onnx::Concat_2657, %onnx::Concat_2708)
  %attn_weights.103 = Reshape(%onnx::Reshape_2711, %onnx::Reshape_2720)
  %attn_weights.107 = Softmax[axis = -1](%attn_weights.103)
  %onnx::Reshape_2723 = MatMul(%attn_weights.107, %onnx::MatMul_2694)
  %onnx::Reshape_2734 = Concat[axis = 0](%onnx::Concat_2623, %onnx::Concat_3137, %onnx::Concat_2657, %onnx::Concat_3138)
  %onnx::Transpose_2735 = Reshape(%onnx::Reshape_2723, %onnx::Reshape_2734)
  %onnx::Reshape_2736 = Transpose[perm = [0, 2, 1, 3]](%onnx::Transpose_2735)
  %onnx::Reshape_2744 = Concat[axis = 0](%onnx::Concat_2623, %onnx::Concat_2657, %onnx::Concat_3154)
  %onnx::MatMul_2745 = Reshape(%onnx::Reshape_2736, %onnx::Reshape_2744)
  %onnx::Add_2747 = MatMul(%onnx::MatMul_2745, %onnx::MatMul_3467)
  %hidden_states.159 = Add(%layers.13.self_attn.out_proj.bias, %onnx::Add_2747)
  %input.163 = Add(%input.159, %hidden_states.159)
  %onnx::Sub_2750 = ReduceMean[axes = [-1]](%input.163)
  %onnx::Pow_2751 = Sub(%input.163, %onnx::Sub_2750)
  %onnx::ReduceMean_2753 = Pow(%onnx::Pow_2751, %onnx::Pow_321)
  %onnx::Add_2754 = ReduceMean[axes = [-1]](%onnx::ReduceMean_2753)
  %onnx::Sqrt_2756 = Add(%onnx::Add_2754, %onnx::Add_324)
  %onnx::Div_2757 = Sqrt(%onnx::Sqrt_2756)
  %onnx::Mul_2758 = Div(%onnx::Pow_2751, %onnx::Div_2757)
  %onnx::Add_2759 = Mul(%onnx::Mul_2758, %layers.13.final_layer_norm.weight)
  %onnx::MatMul_2760 = Add(%onnx::Add_2759, %layers.13.final_layer_norm.bias)
  %onnx::Add_2762 = MatMul(%onnx::MatMul_2760, %onnx::MatMul_3468)
  %input.167 = Add(%layers.13.fc1.bias, %onnx::Add_2762)
  %hidden_states.163 = Relu(%input.167)
  %onnx::Add_2766 = MatMul(%hidden_states.163, %onnx::MatMul_3469)
  %hidden_states.167 = Add(%layers.13.fc2.bias, %onnx::Add_2766)
  %input.171 = Add(%input.163, %hidden_states.167)
  %onnx::Sub_2769 = ReduceMean[axes = [-1]](%input.171)
  %onnx::Pow_2770 = Sub(%input.171, %onnx::Sub_2769)
  %onnx::ReduceMean_2772 = Pow(%onnx::Pow_2770, %onnx::Pow_321)
  %onnx::Add_2773 = ReduceMean[axes = [-1]](%onnx::ReduceMean_2772)
  %onnx::Sqrt_2775 = Add(%onnx::Add_2773, %onnx::Add_324)
  %onnx::Div_2776 = Sqrt(%onnx::Sqrt_2775)
  %onnx::Mul_2777 = Div(%onnx::Pow_2770, %onnx::Div_2776)
  %onnx::Add_2778 = Mul(%onnx::Mul_2777, %layers.14.self_attn_layer_norm.weight)
  %onnx::Shape_2779 = Add(%onnx::Add_2778, %layers.14.self_attn_layer_norm.bias)
  %onnx::Gather_2780 = Shape(%onnx::Shape_2779)
  %onnx::Unsqueeze_2782 = Gather[axis = 0](%onnx::Gather_2780, %onnx::Range_3131)
  %onnx::Unsqueeze_2785 = Gather[axis = 0](%onnx::Gather_2780, %onnx::Range_3132)
  %onnx::Add_2787 = MatMul(%onnx::Shape_2779, %onnx::MatMul_3470)
  %onnx::Mul_2788 = Add(%layers.14.self_attn.q_proj.bias, %onnx::Add_2787)
  %query_states.55 = Mul(%onnx::Mul_2788, %onnx::Mul_339)
  %onnx::Add_2792 = MatMul(%onnx::Shape_2779, %onnx::MatMul_3471)
  %onnx::Reshape_2793 = Add(%layers.14.self_attn.k_proj.bias, %onnx::Add_2792)
  %onnx::Concat_2798 = Unsqueeze(%onnx::Unsqueeze_2782, %onnx::Unsqueeze_268)
  %onnx::Reshape_2805 = Concat[axis = 0](%onnx::Concat_2798, %onnx::Concat_3130, %onnx::Concat_3137, %onnx::Concat_3138)
  %onnx::Transpose_2806 = Reshape(%onnx::Reshape_2793, %onnx::Reshape_2805)
  %onnx::Reshape_2807 = Transpose[perm = [0, 2, 1, 3]](%onnx::Transpose_2806)
  %onnx::Add_2809 = MatMul(%onnx::Shape_2779, %onnx::MatMul_3475)
  %onnx::Reshape_2810 = Add(%layers.14.self_attn.v_proj.bias, %onnx::Add_2809)
  %onnx::Transpose_2823 = Reshape(%onnx::Reshape_2810, %onnx::Reshape_2805)
  %onnx::Reshape_2824 = Transpose[perm = [0, 2, 1, 3]](%onnx::Transpose_2823)
  %onnx::Unsqueeze_2826 = Mul(%onnx::Unsqueeze_2782, %onnx::Mul_375)
  %onnx::Concat_2832 = Unsqueeze(%onnx::Unsqueeze_2785, %onnx::Unsqueeze_268)
  %onnx::Reshape_2837 = Concat[axis = 0](%onnx::Concat_2798, %onnx::Concat_2832, %onnx::Concat_3137, %onnx::Concat_3138)
  %onnx::Transpose_2838 = Reshape(%query_states.55, %onnx::Reshape_2837)
  %onnx::Reshape_2839 = Transpose[perm = [0, 2, 1, 3]](%onnx::Transpose_2838)
  %onnx::Concat_2843 = Unsqueeze(%onnx::Unsqueeze_2826, %onnx::Unsqueeze_268)
  %onnx::Reshape_2848 = Concat[axis = 0](%onnx::Concat_2843, %onnx::Concat_3130, %onnx::Concat_3138)
  %onnx::MatMul_2849 = Reshape(%onnx::Reshape_2839, %onnx::Reshape_2848)
  %onnx::Shape_2859 = Reshape(%onnx::Reshape_2807, %onnx::Reshape_2848)
  %onnx::MatMul_2869 = Reshape(%onnx::Reshape_2824, %onnx::Reshape_2848)
  %onnx::Gather_2870 = Shape(%onnx::Shape_2859)
  %onnx::Unsqueeze_2872 = Gather[axis = 0](%onnx::Gather_2870, %onnx::Range_3132)
  %onnx::MatMul_2873 = Transpose[perm = [0, 2, 1]](%onnx::Shape_2859)
  %onnx::Reshape_2874 = MatMul(%onnx::MatMul_2849, %onnx::MatMul_2873)
  %onnx::Concat_2883 = Unsqueeze(%onnx::Unsqueeze_2872, %onnx::Unsqueeze_268)
  %onnx::Reshape_2884 = Concat[axis = 0](%onnx::Concat_2798, %onnx::Concat_3137, %onnx::Concat_2832, %onnx::Concat_2883)
  %onnx::Add_2885 = Reshape(%onnx::Reshape_2874, %onnx::Reshape_2884)
  %onnx::Reshape_2886 = Add(%onnx::Add_2885, %onnx::Add_318)
  %onnx::Reshape_2895 = Concat[axis = 0](%onnx::Concat_2843, %onnx::Concat_2832, %onnx::Concat_2883)
  %attn_weights.111 = Reshape(%onnx::Reshape_2886, %onnx::Reshape_2895)
  %attn_weights.115 = Softmax[axis = -1](%attn_weights.111)
  %onnx::Reshape_2898 = MatMul(%attn_weights.115, %onnx::MatMul_2869)
  %onnx::Reshape_2909 = Concat[axis = 0](%onnx::Concat_2798, %onnx::Concat_3137, %onnx::Concat_2832, %onnx::Concat_3138)
  %onnx::Transpose_2910 = Reshape(%onnx::Reshape_2898, %onnx::Reshape_2909)
  %onnx::Reshape_2911 = Transpose[perm = [0, 2, 1, 3]](%onnx::Transpose_2910)
  %onnx::Reshape_2919 = Concat[axis = 0](%onnx::Concat_2798, %onnx::Concat_2832, %onnx::Concat_3154)
  %onnx::MatMul_2920 = Reshape(%onnx::Reshape_2911, %onnx::Reshape_2919)
  %onnx::Add_2922 = MatMul(%onnx::MatMul_2920, %onnx::MatMul_3491)
  %hidden_states.171 = Add(%layers.14.self_attn.out_proj.bias, %onnx::Add_2922)
  %input.175 = Add(%input.171, %hidden_states.171)
  %onnx::Sub_2925 = ReduceMean[axes = [-1]](%input.175)
  %onnx::Pow_2926 = Sub(%input.175, %onnx::Sub_2925)
  %onnx::ReduceMean_2928 = Pow(%onnx::Pow_2926, %onnx::Pow_321)
  %onnx::Add_2929 = ReduceMean[axes = [-1]](%onnx::ReduceMean_2928)
  %onnx::Sqrt_2931 = Add(%onnx::Add_2929, %onnx::Add_324)
  %onnx::Div_2932 = Sqrt(%onnx::Sqrt_2931)
  %onnx::Mul_2933 = Div(%onnx::Pow_2926, %onnx::Div_2932)
  %onnx::Add_2934 = Mul(%onnx::Mul_2933, %layers.14.final_layer_norm.weight)
  %onnx::MatMul_2935 = Add(%onnx::Add_2934, %layers.14.final_layer_norm.bias)
  %onnx::Add_2937 = MatMul(%onnx::MatMul_2935, %onnx::MatMul_3492)
  %input.179 = Add(%layers.14.fc1.bias, %onnx::Add_2937)
  %hidden_states.175 = Relu(%input.179)
  %onnx::Add_2941 = MatMul(%hidden_states.175, %onnx::MatMul_3493)
  %hidden_states.179 = Add(%layers.14.fc2.bias, %onnx::Add_2941)
  %input.183 = Add(%input.175, %hidden_states.179)
  %onnx::Sub_2944 = ReduceMean[axes = [-1]](%input.183)
  %onnx::Pow_2945 = Sub(%input.183, %onnx::Sub_2944)
  %onnx::ReduceMean_2947 = Pow(%onnx::Pow_2945, %onnx::Pow_321)
  %onnx::Add_2948 = ReduceMean[axes = [-1]](%onnx::ReduceMean_2947)
  %onnx::Sqrt_2950 = Add(%onnx::Add_2948, %onnx::Add_324)
  %onnx::Div_2951 = Sqrt(%onnx::Sqrt_2950)
  %onnx::Mul_2952 = Div(%onnx::Pow_2945, %onnx::Div_2951)
  %onnx::Add_2953 = Mul(%onnx::Mul_2952, %layers.15.self_attn_layer_norm.weight)
  %onnx::Shape_2954 = Add(%onnx::Add_2953, %layers.15.self_attn_layer_norm.bias)
  %onnx::Gather_2955 = Shape(%onnx::Shape_2954)
  %onnx::Unsqueeze_2957 = Gather[axis = 0](%onnx::Gather_2955, %onnx::Range_3131)
  %onnx::Unsqueeze_2960 = Gather[axis = 0](%onnx::Gather_2955, %onnx::Range_3132)
  %onnx::Add_2962 = MatMul(%onnx::Shape_2954, %onnx::MatMul_3494)
  %onnx::Mul_2963 = Add(%layers.15.self_attn.q_proj.bias, %onnx::Add_2962)
  %query_states.59 = Mul(%onnx::Mul_2963, %onnx::Mul_339)
  %onnx::Add_2967 = MatMul(%onnx::Shape_2954, %onnx::MatMul_3495)
  %onnx::Reshape_2968 = Add(%layers.15.self_attn.k_proj.bias, %onnx::Add_2967)
  %onnx::Concat_2973 = Unsqueeze(%onnx::Unsqueeze_2957, %onnx::Unsqueeze_268)
  %onnx::Reshape_2980 = Concat[axis = 0](%onnx::Concat_2973, %onnx::Concat_3130, %onnx::Concat_3137, %onnx::Concat_3138)
  %onnx::Transpose_2981 = Reshape(%onnx::Reshape_2968, %onnx::Reshape_2980)
  %onnx::Reshape_2982 = Transpose[perm = [0, 2, 1, 3]](%onnx::Transpose_2981)
  %onnx::Add_2984 = MatMul(%onnx::Shape_2954, %onnx::MatMul_3499)
  %onnx::Reshape_2985 = Add(%layers.15.self_attn.v_proj.bias, %onnx::Add_2984)
  %onnx::Transpose_2998 = Reshape(%onnx::Reshape_2985, %onnx::Reshape_2980)
  %onnx::Reshape_2999 = Transpose[perm = [0, 2, 1, 3]](%onnx::Transpose_2998)
  %onnx::Unsqueeze_3001 = Mul(%onnx::Unsqueeze_2957, %onnx::Mul_375)
  %onnx::Concat_3007 = Unsqueeze(%onnx::Unsqueeze_2960, %onnx::Unsqueeze_268)
  %onnx::Reshape_3012 = Concat[axis = 0](%onnx::Concat_2973, %onnx::Concat_3007, %onnx::Concat_3137, %onnx::Concat_3138)
  %onnx::Transpose_3013 = Reshape(%query_states.59, %onnx::Reshape_3012)
  %onnx::Reshape_3014 = Transpose[perm = [0, 2, 1, 3]](%onnx::Transpose_3013)
  %onnx::Concat_3018 = Unsqueeze(%onnx::Unsqueeze_3001, %onnx::Unsqueeze_268)
  %onnx::Reshape_3023 = Concat[axis = 0](%onnx::Concat_3018, %onnx::Concat_3130, %onnx::Concat_3138)
  %onnx::MatMul_3024 = Reshape(%onnx::Reshape_3014, %onnx::Reshape_3023)
  %onnx::Shape_3034 = Reshape(%onnx::Reshape_2982, %onnx::Reshape_3023)
  %onnx::MatMul_3044 = Reshape(%onnx::Reshape_2999, %onnx::Reshape_3023)
  %onnx::Gather_3045 = Shape(%onnx::Shape_3034)
  %onnx::Unsqueeze_3047 = Gather[axis = 0](%onnx::Gather_3045, %onnx::Range_3132)
  %onnx::MatMul_3048 = Transpose[perm = [0, 2, 1]](%onnx::Shape_3034)
  %onnx::Reshape_3049 = MatMul(%onnx::MatMul_3024, %onnx::MatMul_3048)
  %onnx::Concat_3058 = Unsqueeze(%onnx::Unsqueeze_3047, %onnx::Unsqueeze_268)
  %onnx::Reshape_3059 = Concat[axis = 0](%onnx::Concat_2973, %onnx::Concat_3137, %onnx::Concat_3007, %onnx::Concat_3058)
  %onnx::Add_3060 = Reshape(%onnx::Reshape_3049, %onnx::Reshape_3059)
  %onnx::Reshape_3061 = Add(%onnx::Add_3060, %onnx::Add_318)
  %onnx::Reshape_3070 = Concat[axis = 0](%onnx::Concat_3018, %onnx::Concat_3007, %onnx::Concat_3058)
  %attn_weights.119 = Reshape(%onnx::Reshape_3061, %onnx::Reshape_3070)
  %attn_weights.123 = Softmax[axis = -1](%attn_weights.119)
  %onnx::Reshape_3073 = MatMul(%attn_weights.123, %onnx::MatMul_3044)
  %onnx::Reshape_3084 = Concat[axis = 0](%onnx::Concat_2973, %onnx::Concat_3137, %onnx::Concat_3007, %onnx::Concat_3138)
  %onnx::Transpose_3085 = Reshape(%onnx::Reshape_3073, %onnx::Reshape_3084)
  %onnx::Reshape_3086 = Transpose[perm = [0, 2, 1, 3]](%onnx::Transpose_3085)
  %onnx::Reshape_3094 = Concat[axis = 0](%onnx::Concat_2973, %onnx::Concat_3007, %onnx::Concat_3154)
  %onnx::MatMul_3095 = Reshape(%onnx::Reshape_3086, %onnx::Reshape_3094)
  %onnx::Add_3097 = MatMul(%onnx::MatMul_3095, %onnx::MatMul_3515)
  %hidden_states.183 = Add(%layers.15.self_attn.out_proj.bias, %onnx::Add_3097)
  %input.187 = Add(%input.183, %hidden_states.183)
  %onnx::Sub_3100 = ReduceMean[axes = [-1]](%input.187)
  %onnx::Pow_3101 = Sub(%input.187, %onnx::Sub_3100)
  %onnx::ReduceMean_3103 = Pow(%onnx::Pow_3101, %onnx::Pow_321)
  %onnx::Add_3104 = ReduceMean[axes = [-1]](%onnx::ReduceMean_3103)
  %onnx::Sqrt_3106 = Add(%onnx::Add_3104, %onnx::Add_324)
  %onnx::Div_3107 = Sqrt(%onnx::Sqrt_3106)
  %onnx::Mul_3108 = Div(%onnx::Pow_3101, %onnx::Div_3107)
  %onnx::Add_3109 = Mul(%onnx::Mul_3108, %layers.15.final_layer_norm.weight)
  %onnx::MatMul_3110 = Add(%onnx::Add_3109, %layers.15.final_layer_norm.bias)
  %onnx::Add_3112 = MatMul(%onnx::MatMul_3110, %onnx::MatMul_3516)
  %input.191 = Add(%layers.15.fc1.bias, %onnx::Add_3112)
  %hidden_states.187 = Relu(%input.191)
  %onnx::Add_3116 = MatMul(%hidden_states.187, %onnx::MatMul_3517)
  %hidden_states.191 = Add(%layers.15.fc2.bias, %onnx::Add_3116)
  %input.195 = Add(%input.187, %hidden_states.191)
  %onnx::Sub_3119 = ReduceMean[axes = [-1]](%input.195)
  %onnx::Pow_3120 = Sub(%input.195, %onnx::Sub_3119)
  %onnx::ReduceMean_3122 = Pow(%onnx::Pow_3120, %onnx::Pow_321)
  %onnx::Add_3123 = ReduceMean[axes = [-1]](%onnx::ReduceMean_3122)
  %onnx::Sqrt_3125 = Add(%onnx::Add_3123, %onnx::Add_324)
  %onnx::Div_3126 = Sqrt(%onnx::Sqrt_3125)
  %onnx::Mul_3127 = Div(%onnx::Pow_3120, %onnx::Div_3126)
  %onnx::Add_3128 = Mul(%onnx::Mul_3127, %layer_norm.weight)
  %output = Add(%onnx::Add_3128, %layer_norm.bias)
  return %output
}
