graph torch_jit (
  %input_ids[INT32, batch_sizexsequence]
  %attention_mask[INT32, batch_sizexsequence]
) initializers (
  %embed_tokens.weight[FLOAT16, 96104x1024]
  %embed_positions.weight[FLOAT16, 1024x1024]
  %layers.0.self_attn.k_proj.bias[FLOAT, 1024]
  %layers.0.self_attn.v_proj.bias[FLOAT, 1024]
  %layers.0.self_attn.q_proj.bias[FLOAT, 1024]
  %layers.0.self_attn.out_proj.bias[FLOAT, 1024]
  %layers.0.self_attn_layer_norm.weight[FLOAT, 1024]
  %layers.0.self_attn_layer_norm.bias[FLOAT, 1024]
  %layers.0.fc1.bias[FLOAT, 4096]
  %layers.0.fc2.bias[FLOAT, 1024]
  %layers.0.final_layer_norm.weight[FLOAT, 1024]
  %layers.0.final_layer_norm.bias[FLOAT, 1024]
  %layers.1.self_attn.k_proj.bias[FLOAT, 1024]
  %layers.1.self_attn.v_proj.bias[FLOAT, 1024]
  %layers.1.self_attn.q_proj.bias[FLOAT, 1024]
  %layers.1.self_attn.out_proj.bias[FLOAT, 1024]
  %layers.1.self_attn_layer_norm.weight[FLOAT, 1024]
  %layers.1.self_attn_layer_norm.bias[FLOAT, 1024]
  %layers.1.fc1.bias[FLOAT, 4096]
  %layers.1.fc2.bias[FLOAT, 1024]
  %layers.1.final_layer_norm.weight[FLOAT, 1024]
  %layers.1.final_layer_norm.bias[FLOAT, 1024]
  %layers.2.self_attn.k_proj.bias[FLOAT, 1024]
  %layers.2.self_attn.v_proj.bias[FLOAT, 1024]
  %layers.2.self_attn.q_proj.bias[FLOAT, 1024]
  %layers.2.self_attn.out_proj.bias[FLOAT, 1024]
  %layers.2.self_attn_layer_norm.weight[FLOAT, 1024]
  %layers.2.self_attn_layer_norm.bias[FLOAT, 1024]
  %layers.2.fc1.bias[FLOAT, 4096]
  %layers.2.fc2.bias[FLOAT, 1024]
  %layers.2.final_layer_norm.weight[FLOAT, 1024]
  %layers.2.final_layer_norm.bias[FLOAT, 1024]
  %layers.3.self_attn.k_proj.bias[FLOAT, 1024]
  %layers.3.self_attn.v_proj.bias[FLOAT, 1024]
  %layers.3.self_attn.q_proj.bias[FLOAT, 1024]
  %layers.3.self_attn.out_proj.bias[FLOAT, 1024]
  %layers.3.self_attn_layer_norm.weight[FLOAT, 1024]
  %layers.3.self_attn_layer_norm.bias[FLOAT, 1024]
  %layers.3.fc1.bias[FLOAT, 4096]
  %layers.3.fc2.bias[FLOAT, 1024]
  %layers.3.final_layer_norm.weight[FLOAT, 1024]
  %layers.3.final_layer_norm.bias[FLOAT, 1024]
  %layers.4.self_attn.k_proj.bias[FLOAT, 1024]
  %layers.4.self_attn.v_proj.bias[FLOAT, 1024]
  %layers.4.self_attn.q_proj.bias[FLOAT, 1024]
  %layers.4.self_attn.out_proj.bias[FLOAT, 1024]
  %layers.4.self_attn_layer_norm.weight[FLOAT, 1024]
  %layers.4.self_attn_layer_norm.bias[FLOAT, 1024]
  %layers.4.fc1.bias[FLOAT, 4096]
  %layers.4.fc2.bias[FLOAT, 1024]
  %layers.4.final_layer_norm.weight[FLOAT, 1024]
  %layers.4.final_layer_norm.bias[FLOAT, 1024]
  %layers.5.self_attn.k_proj.bias[FLOAT, 1024]
  %layers.5.self_attn.v_proj.bias[FLOAT, 1024]
  %layers.5.self_attn.q_proj.bias[FLOAT, 1024]
  %layers.5.self_attn.out_proj.bias[FLOAT, 1024]
  %layers.5.self_attn_layer_norm.weight[FLOAT, 1024]
  %layers.5.self_attn_layer_norm.bias[FLOAT, 1024]
  %layers.5.fc1.bias[FLOAT, 4096]
  %layers.5.fc2.bias[FLOAT, 1024]
  %layers.5.final_layer_norm.weight[FLOAT, 1024]
  %layers.5.final_layer_norm.bias[FLOAT, 1024]
  %layers.6.self_attn.k_proj.bias[FLOAT, 1024]
  %layers.6.self_attn.v_proj.bias[FLOAT, 1024]
  %layers.6.self_attn.q_proj.bias[FLOAT, 1024]
  %layers.6.self_attn.out_proj.bias[FLOAT, 1024]
  %layers.6.self_attn_layer_norm.weight[FLOAT, 1024]
  %layers.6.self_attn_layer_norm.bias[FLOAT, 1024]
  %layers.6.fc1.bias[FLOAT, 4096]
  %layers.6.fc2.bias[FLOAT, 1024]
  %layers.6.final_layer_norm.weight[FLOAT, 1024]
  %layers.6.final_layer_norm.bias[FLOAT, 1024]
  %layers.7.self_attn.k_proj.bias[FLOAT, 1024]
  %layers.7.self_attn.v_proj.bias[FLOAT, 1024]
  %layers.7.self_attn.q_proj.bias[FLOAT, 1024]
  %layers.7.self_attn.out_proj.bias[FLOAT, 1024]
  %layers.7.self_attn_layer_norm.weight[FLOAT, 1024]
  %layers.7.self_attn_layer_norm.bias[FLOAT, 1024]
  %layers.7.fc1.bias[FLOAT, 4096]
  %layers.7.fc2.bias[FLOAT, 1024]
  %layers.7.final_layer_norm.weight[FLOAT, 1024]
  %layers.7.final_layer_norm.bias[FLOAT, 1024]
  %layers.8.self_attn.k_proj.bias[FLOAT, 1024]
  %layers.8.self_attn.v_proj.bias[FLOAT, 1024]
  %layers.8.self_attn.q_proj.bias[FLOAT, 1024]
  %layers.8.self_attn.out_proj.bias[FLOAT, 1024]
  %layers.8.self_attn_layer_norm.weight[FLOAT, 1024]
  %layers.8.self_attn_layer_norm.bias[FLOAT, 1024]
  %layers.8.fc1.bias[FLOAT, 4096]
  %layers.8.fc2.bias[FLOAT, 1024]
  %layers.8.final_layer_norm.weight[FLOAT, 1024]
  %layers.8.final_layer_norm.bias[FLOAT, 1024]
  %layers.9.self_attn.k_proj.bias[FLOAT, 1024]
  %layers.9.self_attn.v_proj.bias[FLOAT, 1024]
  %layers.9.self_attn.q_proj.bias[FLOAT, 1024]
  %layers.9.self_attn.out_proj.bias[FLOAT, 1024]
  %layers.9.self_attn_layer_norm.weight[FLOAT, 1024]
  %layers.9.self_attn_layer_norm.bias[FLOAT, 1024]
  %layers.9.fc1.bias[FLOAT, 4096]
  %layers.9.fc2.bias[FLOAT, 1024]
  %layers.9.final_layer_norm.weight[FLOAT, 1024]
  %layers.9.final_layer_norm.bias[FLOAT, 1024]
  %layers.10.self_attn.k_proj.bias[FLOAT, 1024]
  %layers.10.self_attn.v_proj.bias[FLOAT, 1024]
  %layers.10.self_attn.q_proj.bias[FLOAT, 1024]
  %layers.10.self_attn.out_proj.bias[FLOAT, 1024]
  %layers.10.self_attn_layer_norm.weight[FLOAT, 1024]
  %layers.10.self_attn_layer_norm.bias[FLOAT, 1024]
  %layers.10.fc1.bias[FLOAT, 4096]
  %layers.10.fc2.bias[FLOAT, 1024]
  %layers.10.final_layer_norm.weight[FLOAT, 1024]
  %layers.10.final_layer_norm.bias[FLOAT, 1024]
  %layers.11.self_attn.k_proj.bias[FLOAT, 1024]
  %layers.11.self_attn.v_proj.bias[FLOAT, 1024]
  %layers.11.self_attn.q_proj.bias[FLOAT, 1024]
  %layers.11.self_attn.out_proj.bias[FLOAT, 1024]
  %layers.11.self_attn_layer_norm.weight[FLOAT, 1024]
  %layers.11.self_attn_layer_norm.bias[FLOAT, 1024]
  %layers.11.fc1.bias[FLOAT, 4096]
  %layers.11.fc2.bias[FLOAT, 1024]
  %layers.11.final_layer_norm.weight[FLOAT, 1024]
  %layers.11.final_layer_norm.bias[FLOAT, 1024]
  %layers.12.self_attn.k_proj.bias[FLOAT, 1024]
  %layers.12.self_attn.v_proj.bias[FLOAT, 1024]
  %layers.12.self_attn.q_proj.bias[FLOAT, 1024]
  %layers.12.self_attn.out_proj.bias[FLOAT, 1024]
  %layers.12.self_attn_layer_norm.weight[FLOAT, 1024]
  %layers.12.self_attn_layer_norm.bias[FLOAT, 1024]
  %layers.12.fc1.bias[FLOAT, 4096]
  %layers.12.fc2.bias[FLOAT, 1024]
  %layers.12.final_layer_norm.weight[FLOAT, 1024]
  %layers.12.final_layer_norm.bias[FLOAT, 1024]
  %layers.13.self_attn.k_proj.bias[FLOAT, 1024]
  %layers.13.self_attn.v_proj.bias[FLOAT, 1024]
  %layers.13.self_attn.q_proj.bias[FLOAT, 1024]
  %layers.13.self_attn.out_proj.bias[FLOAT, 1024]
  %layers.13.self_attn_layer_norm.weight[FLOAT, 1024]
  %layers.13.self_attn_layer_norm.bias[FLOAT, 1024]
  %layers.13.fc1.bias[FLOAT, 4096]
  %layers.13.fc2.bias[FLOAT, 1024]
  %layers.13.final_layer_norm.weight[FLOAT, 1024]
  %layers.13.final_layer_norm.bias[FLOAT, 1024]
  %layers.14.self_attn.k_proj.bias[FLOAT, 1024]
  %layers.14.self_attn.v_proj.bias[FLOAT, 1024]
  %layers.14.self_attn.q_proj.bias[FLOAT, 1024]
  %layers.14.self_attn.out_proj.bias[FLOAT, 1024]
  %layers.14.self_attn_layer_norm.weight[FLOAT, 1024]
  %layers.14.self_attn_layer_norm.bias[FLOAT, 1024]
  %layers.14.fc1.bias[FLOAT, 4096]
  %layers.14.fc2.bias[FLOAT, 1024]
  %layers.14.final_layer_norm.weight[FLOAT, 1024]
  %layers.14.final_layer_norm.bias[FLOAT, 1024]
  %layers.15.self_attn.k_proj.bias[FLOAT, 1024]
  %layers.15.self_attn.v_proj.bias[FLOAT, 1024]
  %layers.15.self_attn.q_proj.bias[FLOAT, 1024]
  %layers.15.self_attn.out_proj.bias[FLOAT, 1024]
  %layers.15.self_attn_layer_norm.weight[FLOAT, 1024]
  %layers.15.self_attn_layer_norm.bias[FLOAT, 1024]
  %layers.15.fc1.bias[FLOAT, 4096]
  %layers.15.fc2.bias[FLOAT, 1024]
  %layers.15.final_layer_norm.weight[FLOAT, 1024]
  %layers.15.final_layer_norm.bias[FLOAT, 1024]
  %layer_norm.weight[FLOAT, 1024]
  %layer_norm.bias[FLOAT, 1024]
  %onnx::MatMul_2836[FLOAT, 1024x1024]
  %onnx::MatMul_2837[FLOAT, 1024x4096]
  %onnx::MatMul_2838[FLOAT, 4096x1024]
  %onnx::MatMul_2860[FLOAT, 1024x1024]
  %onnx::MatMul_2861[FLOAT, 1024x4096]
  %onnx::MatMul_2862[FLOAT, 4096x1024]
  %onnx::MatMul_2884[FLOAT, 1024x1024]
  %onnx::MatMul_2885[FLOAT, 1024x4096]
  %onnx::MatMul_2886[FLOAT, 4096x1024]
  %onnx::MatMul_2908[FLOAT, 1024x1024]
  %onnx::MatMul_2909[FLOAT, 1024x4096]
  %onnx::MatMul_2910[FLOAT, 4096x1024]
  %onnx::MatMul_2932[FLOAT, 1024x1024]
  %onnx::MatMul_2933[FLOAT, 1024x4096]
  %onnx::MatMul_2934[FLOAT, 4096x1024]
  %onnx::MatMul_2956[FLOAT, 1024x1024]
  %onnx::MatMul_2957[FLOAT, 1024x4096]
  %onnx::MatMul_2958[FLOAT, 4096x1024]
  %onnx::MatMul_2980[FLOAT, 1024x1024]
  %onnx::MatMul_2981[FLOAT, 1024x4096]
  %onnx::MatMul_2982[FLOAT, 4096x1024]
  %onnx::MatMul_3004[FLOAT, 1024x1024]
  %onnx::MatMul_3005[FLOAT, 1024x4096]
  %onnx::MatMul_3006[FLOAT, 4096x1024]
  %onnx::MatMul_3028[FLOAT, 1024x1024]
  %onnx::MatMul_3029[FLOAT, 1024x4096]
  %onnx::MatMul_3030[FLOAT, 4096x1024]
  %onnx::MatMul_3052[FLOAT, 1024x1024]
  %onnx::MatMul_3053[FLOAT, 1024x4096]
  %onnx::MatMul_3054[FLOAT, 4096x1024]
  %onnx::MatMul_3076[FLOAT, 1024x1024]
  %onnx::MatMul_3077[FLOAT, 1024x4096]
  %onnx::MatMul_3078[FLOAT, 4096x1024]
  %onnx::MatMul_3100[FLOAT, 1024x1024]
  %onnx::MatMul_3101[FLOAT, 1024x4096]
  %onnx::MatMul_3102[FLOAT, 4096x1024]
  %onnx::MatMul_3124[FLOAT, 1024x1024]
  %onnx::MatMul_3125[FLOAT, 1024x4096]
  %onnx::MatMul_3126[FLOAT, 4096x1024]
  %onnx::MatMul_3148[FLOAT, 1024x1024]
  %onnx::MatMul_3149[FLOAT, 1024x4096]
  %onnx::MatMul_3150[FLOAT, 4096x1024]
  %onnx::MatMul_3172[FLOAT, 1024x1024]
  %onnx::MatMul_3173[FLOAT, 1024x4096]
  %onnx::MatMul_3174[FLOAT, 4096x1024]
  %onnx::MatMul_3196[FLOAT, 1024x1024]
  %onnx::MatMul_3197[FLOAT, 1024x4096]
  %onnx::MatMul_3198[FLOAT, 4096x1024]
  %/Constant_output_0[INT64, scalar]
  %/Constant_1_output_0[INT64, 1]
  %onnx::Unsqueeze_269[INT64, 1]
  %/embed_positions/Constant_output_0[INT64, scalar]
  %/Constant_8_output_0[INT64, 1]
  %/layers.0/self_attn/Constant_4_output_0[INT64, 1]
  %/layers.0/self_attn/Constant_5_output_0[INT64, 1]
  %/layers.0/self_attn/Constant_9_output_0[INT64, scalar]
  %/layers.0/self_attn/Constant_22_output_0[INT64, 1]
  %/Mul_input_cast_1[FLOAT, scalar]
  %/Sub_input_cast_0[FLOAT, scalar]
  %/Where_1_input_cast_1[FLOAT, scalar]
  %/layers.0/self_attn_layer_norm/Pow_input_cast_1[FLOAT, scalar]
  %/layers.0/self_attn_layer_norm/Add_input_cast_1[FLOAT, scalar]
  %/layers.0/self_attn/Mul_input_cast_1[FLOAT, scalar]
  %4383[INT64, 3]
  %4490[INT64, 2]
  %/ConstantOfShape_output_0[INT64, 4]
  %/Mul_1_output_0[INT64, 4]
  %4378[FLOAT, 1024x3072]
  %4385[FLOAT, 1024x3072]
  %4392[FLOAT, 1024x3072]
  %4399[FLOAT, 1024x3072]
  %4406[FLOAT, 1024x3072]
  %4413[FLOAT, 1024x3072]
  %4420[FLOAT, 1024x3072]
  %4427[FLOAT, 1024x3072]
  %4434[FLOAT, 1024x3072]
  %4441[FLOAT, 1024x3072]
  %4448[FLOAT, 1024x3072]
  %4455[FLOAT, 1024x3072]
  %4462[FLOAT, 1024x3072]
  %4469[FLOAT, 1024x3072]
  %4476[FLOAT, 1024x3072]
  %4483[FLOAT, 1024x3072]
) {
  %/Shape_1_output_0 = Shape(%attention_mask)
  %/Shape_output_0 = Shape(%input_ids)
  %/Gather_1_output_0 = Gather[axis = 0](%/Shape_1_output_0, %/embed_positions/Constant_output_0)
  %/Gather_2_output_0 = Gather[axis = 0](%/Shape_1_output_0, %/Constant_output_0)
  %/Gather_output_0 = Gather[axis = 0](%/Shape_output_0, %/Constant_output_0)
  %/Unsqueeze_2_output_0 = Unsqueeze(%attention_mask, %4490)
  %/Unsqueeze_3_output_0 = Unsqueeze(%/Gather_1_output_0, %onnx::Unsqueeze_269)
  %/Unsqueeze_4_output_0 = Unsqueeze(%/Gather_2_output_0, %onnx::Unsqueeze_269)
  %/Unsqueeze_output_0 = Unsqueeze(%/Gather_output_0, %onnx::Unsqueeze_269)
  %/Concat_1_output_0 = Concat[axis = 0](%/Unsqueeze_3_output_0, %/Constant_8_output_0, %/Unsqueeze_4_output_0, %/Unsqueeze_4_output_0)
  %/Concat_output_0 = Concat[axis = 0](%/Constant_1_output_0, %/Unsqueeze_output_0)
  %/embed_positions/Range_output_0 = Range(%/embed_positions/Constant_output_0, %/Gather_output_0, %/Constant_output_0)
  %/Reshape_output_0 = Reshape(%input_ids, %/Concat_output_0)
  %/embed_positions/Gather_output_0 = Gather(%embed_positions.weight, %/embed_positions/Range_output_0)
  %/embed_tokens/Gather_output_0 = Gather(%embed_tokens.weight, %/Reshape_output_0)
  %/Add_input_cast_1 = Cast[to = 1](%/embed_positions/Gather_output_0)
  %/Mul_input_cast_0 = Cast[to = 1](%/embed_tokens/Gather_output_0)
  %/Mul_output_cast_0 = Mul(%/Mul_input_cast_0, %/Mul_input_cast_1)
  %/Equal_output_0 = Equal(%/Concat_1_output_0, %/Mul_1_output_0)
  %/Mul_output_0 = Cast[to = 10](%/Mul_output_cast_0)
  %/Where_output_0 = Where(%/Equal_output_0, %/ConstantOfShape_output_0, %/Concat_1_output_0)
  %/Add_input_cast_0 = Cast[to = 1](%/Mul_output_0)
  %/Expand_output_0 = Expand(%/Unsqueeze_2_output_0, %/Where_output_0)
  %/Add_output_cast_0 = Add(%/Add_input_cast_0, %/Add_input_cast_1)
  %/Cast_output_cast_0 = Cast[to = 1](%/Expand_output_0)
  %/Add_output_0 = Cast[to = 10](%/Add_output_cast_0)
  %/Cast_output_0 = Cast[to = 10](%/Cast_output_cast_0)
  %/layers.0/self_attn_layer_norm/ReduceMean_input_cast_0 = Cast[to = 1](%/Add_output_0)
  %/Sub_input_cast_1 = Cast[to = 1](%/Cast_output_0)
  %/layers.0/self_attn_layer_norm/ReduceMean_output_cast_0 = ReduceMean[axes = [-1]](%/layers.0/self_attn_layer_norm/ReduceMean_input_cast_0)
  %/Sub_output_cast_0 = Sub(%/Sub_input_cast_0, %/Sub_input_cast_1)
  %/layers.0/self_attn_layer_norm/ReduceMean_output_0 = Cast[to = 10](%/layers.0/self_attn_layer_norm/ReduceMean_output_cast_0)
  %/Sub_output_0 = Cast[to = 10](%/Sub_output_cast_0)
  %/layers.0/self_attn_layer_norm/Sub_input_cast_1 = Cast[to = 1](%/layers.0/self_attn_layer_norm/ReduceMean_output_0)
  %/Cast_1_input_cast_0 = Cast[to = 1](%/Sub_output_0)
  %/layers.0/self_attn_layer_norm/Sub_output_cast_0 = Sub(%/layers.0/self_attn_layer_norm/ReduceMean_input_cast_0, %/layers.0/self_attn_layer_norm/Sub_input_cast_1)
  %/Cast_1_output_0 = Cast[to = 9](%/Cast_1_input_cast_0)
  %/layers.0/self_attn_layer_norm/Sub_output_0 = Cast[to = 10](%/layers.0/self_attn_layer_norm/Sub_output_cast_0)
  %/layers.0/self_attn_layer_norm/Pow_input_cast_0 = Cast[to = 1](%/layers.0/self_attn_layer_norm/Sub_output_0)
  %/Where_1_output_cast_0 = Where(%/Cast_1_output_0, %/Where_1_input_cast_1, %/Cast_1_input_cast_0)
  %/layers.0/self_attn_layer_norm/Pow_output_cast_0 = Pow(%/layers.0/self_attn_layer_norm/Pow_input_cast_0, %/layers.0/self_attn_layer_norm/Pow_input_cast_1)
  %/Where_1_output_0 = Cast[to = 10](%/Where_1_output_cast_0)
  %/layers.0/self_attn_layer_norm/Pow_output_0 = Cast[to = 10](%/layers.0/self_attn_layer_norm/Pow_output_cast_0)
  %/layers.0/self_attn/Add_input_cast_1 = Cast[to = 1](%/Where_1_output_0)
  %/layers.0/self_attn_layer_norm/ReduceMean_1_input_cast_0 = Cast[to = 1](%/layers.0/self_attn_layer_norm/Pow_output_0)
  %/layers.0/self_attn_layer_norm/ReduceMean_1_output_cast_0 = ReduceMean[axes = [-1]](%/layers.0/self_attn_layer_norm/ReduceMean_1_input_cast_0)
  %/layers.0/self_attn_layer_norm/ReduceMean_1_output_0 = Cast[to = 10](%/layers.0/self_attn_layer_norm/ReduceMean_1_output_cast_0)
  %/layers.0/self_attn_layer_norm/Add_input_cast_0 = Cast[to = 1](%/layers.0/self_attn_layer_norm/ReduceMean_1_output_0)
  %/layers.0/self_attn_layer_norm/Add_output_cast_0 = Add(%/layers.0/self_attn_layer_norm/Add_input_cast_0, %/layers.0/self_attn_layer_norm/Add_input_cast_1)
  %/layers.0/self_attn_layer_norm/Add_output_0 = Cast[to = 10](%/layers.0/self_attn_layer_norm/Add_output_cast_0)
  %/layers.0/self_attn_layer_norm/Sqrt_input_cast_0 = Cast[to = 1](%/layers.0/self_attn_layer_norm/Add_output_0)
  %/layers.0/self_attn_layer_norm/Sqrt_output_cast_0 = Sqrt(%/layers.0/self_attn_layer_norm/Sqrt_input_cast_0)
  %/layers.0/self_attn_layer_norm/Sqrt_output_0 = Cast[to = 10](%/layers.0/self_attn_layer_norm/Sqrt_output_cast_0)
  %/layers.0/self_attn_layer_norm/Div_input_cast_1 = Cast[to = 1](%/layers.0/self_attn_layer_norm/Sqrt_output_0)
  %/layers.0/self_attn_layer_norm/Div_output_cast_0 = Div(%/layers.0/self_attn_layer_norm/Pow_input_cast_0, %/layers.0/self_attn_layer_norm/Div_input_cast_1)
  %/layers.0/self_attn_layer_norm/Div_output_0 = Cast[to = 10](%/layers.0/self_attn_layer_norm/Div_output_cast_0)
  %/layers.0/self_attn_layer_norm/Mul_input_cast_0 = Cast[to = 1](%/layers.0/self_attn_layer_norm/Div_output_0)
  %/layers.0/self_attn_layer_norm/Mul_output_cast_0 = Mul(%/layers.0/self_attn_layer_norm/Mul_input_cast_0, %layers.0.self_attn_layer_norm.weight)
  %/layers.0/self_attn_layer_norm/Mul_output_0 = Cast[to = 10](%/layers.0/self_attn_layer_norm/Mul_output_cast_0)
  %/layers.0/self_attn_layer_norm/Add_1_input_cast_0 = Cast[to = 1](%/layers.0/self_attn_layer_norm/Mul_output_0)
  %/layers.0/self_attn_layer_norm/Add_1_output_cast_0 = Add(%/layers.0/self_attn_layer_norm/Add_1_input_cast_0, %layers.0.self_attn_layer_norm.bias)
  %/layers.0/self_attn_layer_norm/Add_1_output_0 = Cast[to = 10](%/layers.0/self_attn_layer_norm/Add_1_output_cast_0)
  %/layers.0/self_attn/Shape_output_0 = Shape(%/layers.0/self_attn_layer_norm/Add_1_output_0)
  %/layers.0/self_attn/q_proj/MatMul_input_cast_0 = Cast[to = 1](%/layers.0/self_attn_layer_norm/Add_1_output_0)
  %4379 = MatMul(%/layers.0/self_attn/q_proj/MatMul_input_cast_0, %4378)
  %4380, %4381, %4382 = Split[axis = -1](%4379, %4383)
  %/layers.0/self_attn/Gather_output_0 = Gather[axis = 0](%/layers.0/self_attn/Shape_output_0, %/embed_positions/Constant_output_0)
  %/layers.0/self_attn/Gather_1_output_0 = Gather[axis = 0](%/layers.0/self_attn/Shape_output_0, %/Constant_output_0)
  %/layers.0/self_attn/Unsqueeze_output_0 = Unsqueeze(%/layers.0/self_attn/Gather_output_0, %onnx::Unsqueeze_269)
  %/layers.0/self_attn/Mul_1_output_0 = Mul(%/layers.0/self_attn/Gather_output_0, %/layers.0/self_attn/Constant_9_output_0)
  %/layers.0/self_attn/Unsqueeze_3_output_0 = Unsqueeze(%/layers.0/self_attn/Gather_1_output_0, %onnx::Unsqueeze_269)
  %/layers.0/self_attn/q_proj/MatMul_output_0 = Cast[to = 10](%4380)
  %/layers.0/self_attn/k_proj/MatMul_output_0 = Cast[to = 10](%4381)
  %/layers.0/self_attn/v_proj/MatMul_output_0 = Cast[to = 10](%4382)
  %/layers.0/self_attn/Concat_output_0 = Concat[axis = 0](%/layers.0/self_attn/Unsqueeze_output_0, %/Constant_1_output_0, %/layers.0/self_attn/Constant_4_output_0, %/layers.0/self_attn/Constant_5_output_0)
  %/layers.0/self_attn/Unsqueeze_4_output_0 = Unsqueeze(%/layers.0/self_attn/Mul_1_output_0, %onnx::Unsqueeze_269)
  %/layers.0/self_attn/Concat_2_output_0 = Concat[axis = 0](%/layers.0/self_attn/Unsqueeze_output_0, %/layers.0/self_attn/Unsqueeze_3_output_0, %/layers.0/self_attn/Constant_4_output_0, %/layers.0/self_attn/Constant_5_output_0)
  %/layers.0/self_attn/Concat_8_output_0 = Concat[axis = 0](%/layers.0/self_attn/Unsqueeze_output_0, %/layers.0/self_attn/Constant_4_output_0, %/layers.0/self_attn/Unsqueeze_3_output_0, %/layers.0/self_attn/Constant_5_output_0)
  %/layers.0/self_attn/Concat_9_output_0 = Concat[axis = 0](%/layers.0/self_attn/Unsqueeze_output_0, %/layers.0/self_attn/Unsqueeze_3_output_0, %/layers.0/self_attn/Constant_22_output_0)
  %/layers.0/self_attn/q_proj/Add_input_cast_1 = Cast[to = 1](%/layers.0/self_attn/q_proj/MatMul_output_0)
  %/layers.0/self_attn/k_proj/Add_input_cast_1 = Cast[to = 1](%/layers.0/self_attn/k_proj/MatMul_output_0)
  %/layers.0/self_attn/v_proj/Add_input_cast_1 = Cast[to = 1](%/layers.0/self_attn/v_proj/MatMul_output_0)
  %/layers.0/self_attn/Concat_3_output_0 = Concat[axis = 0](%/layers.0/self_attn/Unsqueeze_4_output_0, %/Constant_1_output_0, %/layers.0/self_attn/Constant_5_output_0)
  %/layers.0/self_attn/q_proj/Add_output_cast_0 = Add(%layers.0.self_attn.q_proj.bias, %/layers.0/self_attn/q_proj/Add_input_cast_1)
  %/layers.0/self_attn/k_proj/Add_output_cast_0 = Add(%layers.0.self_attn.k_proj.bias, %/layers.0/self_attn/k_proj/Add_input_cast_1)
  %/layers.0/self_attn/v_proj/Add_output_cast_0 = Add(%layers.0.self_attn.v_proj.bias, %/layers.0/self_attn/v_proj/Add_input_cast_1)
  %/layers.0/self_attn/q_proj/Add_output_0 = Cast[to = 10](%/layers.0/self_attn/q_proj/Add_output_cast_0)
  %/layers.0/self_attn/k_proj/Add_output_0 = Cast[to = 10](%/layers.0/self_attn/k_proj/Add_output_cast_0)
  %/layers.0/self_attn/v_proj/Add_output_0 = Cast[to = 10](%/layers.0/self_attn/v_proj/Add_output_cast_0)
  %/layers.0/self_attn/Mul_input_cast_0 = Cast[to = 1](%/layers.0/self_attn/q_proj/Add_output_0)
  %/layers.0/self_attn/Reshape_input_cast_0 = Cast[to = 1](%/layers.0/self_attn/k_proj/Add_output_0)
  %/layers.0/self_attn/Reshape_1_input_cast_0 = Cast[to = 1](%/layers.0/self_attn/v_proj/Add_output_0)
  %/layers.0/self_attn/Mul_output_cast_0 = Mul(%/layers.0/self_attn/Mul_input_cast_0, %/layers.0/self_attn/Mul_input_cast_1)
  %/layers.0/self_attn/Reshape_output_cast_0 = Reshape(%/layers.0/self_attn/Reshape_input_cast_0, %/layers.0/self_attn/Concat_output_0)
  %/layers.0/self_attn/Reshape_1_output_cast_0 = Reshape(%/layers.0/self_attn/Reshape_1_input_cast_0, %/layers.0/self_attn/Concat_output_0)
  %/layers.0/self_attn/Mul_output_0 = Cast[to = 10](%/layers.0/self_attn/Mul_output_cast_0)
  %/layers.0/self_attn/Reshape_output_0 = Cast[to = 10](%/layers.0/self_attn/Reshape_output_cast_0)
  %/layers.0/self_attn/Reshape_1_output_0 = Cast[to = 10](%/layers.0/self_attn/Reshape_1_output_cast_0)
  %/layers.0/self_attn/Reshape_2_input_cast_0 = Cast[to = 1](%/layers.0/self_attn/Mul_output_0)
  %/layers.0/self_attn/Transpose_input_cast_0 = Cast[to = 1](%/layers.0/self_attn/Reshape_output_0)
  %/layers.0/self_attn/Transpose_1_input_cast_0 = Cast[to = 1](%/layers.0/self_attn/Reshape_1_output_0)
  %/layers.0/self_attn/Reshape_2_output_cast_0 = Reshape(%/layers.0/self_attn/Reshape_2_input_cast_0, %/layers.0/self_attn/Concat_2_output_0)
  %/layers.0/self_attn/Transpose_output_cast_0 = Transpose[perm = [0, 2, 1, 3]](%/layers.0/self_attn/Transpose_input_cast_0)
  %/layers.0/self_attn/Transpose_1_output_cast_0 = Transpose[perm = [0, 2, 1, 3]](%/layers.0/self_attn/Transpose_1_input_cast_0)
  %/layers.0/self_attn/Reshape_2_output_0 = Cast[to = 10](%/layers.0/self_attn/Reshape_2_output_cast_0)
  %/layers.0/self_attn/Transpose_output_0 = Cast[to = 10](%/layers.0/self_attn/Transpose_output_cast_0)
  %/layers.0/self_attn/Transpose_1_output_0 = Cast[to = 10](%/layers.0/self_attn/Transpose_1_output_cast_0)
  %/layers.0/self_attn/Transpose_2_input_cast_0 = Cast[to = 1](%/layers.0/self_attn/Reshape_2_output_0)
  %/layers.0/self_attn/Reshape_4_input_cast_0 = Cast[to = 1](%/layers.0/self_attn/Transpose_output_0)
  %/layers.0/self_attn/Reshape_5_input_cast_0 = Cast[to = 1](%/layers.0/self_attn/Transpose_1_output_0)
  %/layers.0/self_attn/Transpose_2_output_cast_0 = Transpose[perm = [0, 2, 1, 3]](%/layers.0/self_attn/Transpose_2_input_cast_0)
  %/layers.0/self_attn/Reshape_4_output_cast_0 = Reshape(%/layers.0/self_attn/Reshape_4_input_cast_0, %/layers.0/self_attn/Concat_3_output_0)
  %/layers.0/self_attn/Reshape_5_output_cast_0 = Reshape(%/layers.0/self_attn/Reshape_5_input_cast_0, %/layers.0/self_attn/Concat_3_output_0)
  %/layers.0/self_attn/Transpose_2_output_0 = Cast[to = 10](%/layers.0/self_attn/Transpose_2_output_cast_0)
  %/layers.0/self_attn/Reshape_4_output_0 = Cast[to = 10](%/layers.0/self_attn/Reshape_4_output_cast_0)
  %/layers.0/self_attn/Reshape_5_output_0 = Cast[to = 10](%/layers.0/self_attn/Reshape_5_output_cast_0)
  %/layers.0/self_attn/Reshape_3_input_cast_0 = Cast[to = 1](%/layers.0/self_attn/Transpose_2_output_0)
  %/layers.0/self_attn/Shape_2_output_0 = Shape(%/layers.0/self_attn/Reshape_4_output_0)
  %/layers.0/self_attn/Transpose_3_input_cast_0 = Cast[to = 1](%/layers.0/self_attn/Reshape_4_output_0)
  %/layers.0/self_attn/MatMul_1_input_cast_1 = Cast[to = 1](%/layers.0/self_attn/Reshape_5_output_0)
  %/layers.0/self_attn/Reshape_3_output_cast_0 = Reshape(%/layers.0/self_attn/Reshape_3_input_cast_0, %/layers.0/self_attn/Concat_3_output_0)
  %/layers.0/self_attn/Gather_2_output_0 = Gather[axis = 0](%/layers.0/self_attn/Shape_2_output_0, %/Constant_output_0)
  %/layers.0/self_attn/Transpose_3_output_cast_0 = Transpose[perm = [0, 2, 1]](%/layers.0/self_attn/Transpose_3_input_cast_0)
  %/layers.0/self_attn/Reshape_3_output_0 = Cast[to = 10](%/layers.0/self_attn/Reshape_3_output_cast_0)
  %/layers.0/self_attn/Unsqueeze_9_output_0 = Unsqueeze(%/layers.0/self_attn/Gather_2_output_0, %onnx::Unsqueeze_269)
  %/layers.0/self_attn/Transpose_3_output_0 = Cast[to = 10](%/layers.0/self_attn/Transpose_3_output_cast_0)
  %/layers.0/self_attn/MatMul_input_cast_0 = Cast[to = 1](%/layers.0/self_attn/Reshape_3_output_0)
  %/layers.0/self_attn/Concat_6_output_0 = Concat[axis = 0](%/layers.0/self_attn/Unsqueeze_output_0, %/layers.0/self_attn/Constant_4_output_0, %/layers.0/self_attn/Unsqueeze_3_output_0, %/layers.0/self_attn/Unsqueeze_9_output_0)
  %/layers.0/self_attn/Concat_7_output_0 = Concat[axis = 0](%/layers.0/self_attn/Unsqueeze_4_output_0, %/layers.0/self_attn/Unsqueeze_3_output_0, %/layers.0/self_attn/Unsqueeze_9_output_0)
  %/layers.0/self_attn/MatMul_input_cast_1 = Cast[to = 1](%/layers.0/self_attn/Transpose_3_output_0)
  %/layers.0/self_attn/MatMul_output_cast_0 = MatMul(%/layers.0/self_attn/MatMul_input_cast_0, %/layers.0/self_attn/MatMul_input_cast_1)
  %/layers.0/self_attn/MatMul_output_0 = Cast[to = 10](%/layers.0/self_attn/MatMul_output_cast_0)
  %/layers.0/self_attn/Reshape_6_input_cast_0 = Cast[to = 1](%/layers.0/self_attn/MatMul_output_0)
  %/layers.0/self_attn/Reshape_6_output_cast_0 = Reshape(%/layers.0/self_attn/Reshape_6_input_cast_0, %/layers.0/self_attn/Concat_6_output_0)
  %/layers.0/self_attn/Reshape_6_output_0 = Cast[to = 10](%/layers.0/self_attn/Reshape_6_output_cast_0)
  %/layers.0/self_attn/Add_input_cast_0 = Cast[to = 1](%/layers.0/self_attn/Reshape_6_output_0)
  %/layers.0/self_attn/Add_output_cast_0 = Add(%/layers.0/self_attn/Add_input_cast_0, %/layers.0/self_attn/Add_input_cast_1)
  %/layers.0/self_attn/Add_output_0 = Cast[to = 10](%/layers.0/self_attn/Add_output_cast_0)
  %/layers.0/self_attn/Reshape_7_input_cast_0 = Cast[to = 1](%/layers.0/self_attn/Add_output_0)
  %/layers.0/self_attn/Reshape_7_output_cast_0 = Reshape(%/layers.0/self_attn/Reshape_7_input_cast_0, %/layers.0/self_attn/Concat_7_output_0)
  %/layers.0/self_attn/Reshape_7_output_0 = Cast[to = 10](%/layers.0/self_attn/Reshape_7_output_cast_0)
  %/layers.0/self_attn/Softmax_input_cast_0 = Cast[to = 1](%/layers.0/self_attn/Reshape_7_output_0)
  %/layers.0/self_attn/Softmax_output_cast_0 = Softmax[axis = -1](%/layers.0/self_attn/Softmax_input_cast_0)
  %/layers.0/self_attn/Softmax_output_0 = Cast[to = 10](%/layers.0/self_attn/Softmax_output_cast_0)
  %/layers.0/self_attn/MatMul_1_input_cast_0 = Cast[to = 1](%/layers.0/self_attn/Softmax_output_0)
  %/layers.0/self_attn/MatMul_1_output_cast_0 = MatMul(%/layers.0/self_attn/MatMul_1_input_cast_0, %/layers.0/self_attn/MatMul_1_input_cast_1)
  %/layers.0/self_attn/MatMul_1_output_0 = Cast[to = 10](%/layers.0/self_attn/MatMul_1_output_cast_0)
  %/layers.0/self_attn/Reshape_8_input_cast_0 = Cast[to = 1](%/layers.0/self_attn/MatMul_1_output_0)
  %/layers.0/self_attn/Reshape_8_output_cast_0 = Reshape(%/layers.0/self_attn/Reshape_8_input_cast_0, %/layers.0/self_attn/Concat_8_output_0)
  %/layers.0/self_attn/Reshape_8_output_0 = Cast[to = 10](%/layers.0/self_attn/Reshape_8_output_cast_0)
  %/layers.0/self_attn/Transpose_4_input_cast_0 = Cast[to = 1](%/layers.0/self_attn/Reshape_8_output_0)
  %/layers.0/self_attn/Transpose_4_output_cast_0 = Transpose[perm = [0, 2, 1, 3]](%/layers.0/self_attn/Transpose_4_input_cast_0)
  %/layers.0/self_attn/Transpose_4_output_0 = Cast[to = 10](%/layers.0/self_attn/Transpose_4_output_cast_0)
  %/layers.0/self_attn/Reshape_9_input_cast_0 = Cast[to = 1](%/layers.0/self_attn/Transpose_4_output_0)
  %/layers.0/self_attn/Reshape_9_output_cast_0 = Reshape(%/layers.0/self_attn/Reshape_9_input_cast_0, %/layers.0/self_attn/Concat_9_output_0)
  %/layers.0/self_attn/Reshape_9_output_0 = Cast[to = 10](%/layers.0/self_attn/Reshape_9_output_cast_0)
  %/layers.0/self_attn/out_proj/MatMul_input_cast_0 = Cast[to = 1](%/layers.0/self_attn/Reshape_9_output_0)
  %/layers.0/self_attn/out_proj/MatMul_output_cast_0 = MatMul(%/layers.0/self_attn/out_proj/MatMul_input_cast_0, %onnx::MatMul_2836)
  %/layers.0/self_attn/out_proj/MatMul_output_0 = Cast[to = 10](%/layers.0/self_attn/out_proj/MatMul_output_cast_0)
  %/layers.0/self_attn/out_proj/Add_input_cast_1 = Cast[to = 1](%/layers.0/self_attn/out_proj/MatMul_output_0)
  %/layers.0/self_attn/out_proj/Add_output_cast_0 = Add(%layers.0.self_attn.out_proj.bias, %/layers.0/self_attn/out_proj/Add_input_cast_1)
  %/layers.0/self_attn/out_proj/Add_output_0 = Cast[to = 10](%/layers.0/self_attn/out_proj/Add_output_cast_0)
  %/layers.0/Add_input_cast_1 = Cast[to = 1](%/layers.0/self_attn/out_proj/Add_output_0)
  %/layers.0/Add_output_cast_0 = Add(%/layers.0/self_attn_layer_norm/ReduceMean_input_cast_0, %/layers.0/Add_input_cast_1)
  %/layers.0/Add_output_0 = Cast[to = 10](%/layers.0/Add_output_cast_0)
  %/layers.0/final_layer_norm/ReduceMean_input_cast_0 = Cast[to = 1](%/layers.0/Add_output_0)
  %/layers.0/final_layer_norm/ReduceMean_output_cast_0 = ReduceMean[axes = [-1]](%/layers.0/final_layer_norm/ReduceMean_input_cast_0)
  %/layers.0/final_layer_norm/ReduceMean_output_0 = Cast[to = 10](%/layers.0/final_layer_norm/ReduceMean_output_cast_0)
  %/layers.0/final_layer_norm/Sub_input_cast_1 = Cast[to = 1](%/layers.0/final_layer_norm/ReduceMean_output_0)
  %/layers.0/final_layer_norm/Sub_output_cast_0 = Sub(%/layers.0/final_layer_norm/ReduceMean_input_cast_0, %/layers.0/final_layer_norm/Sub_input_cast_1)
  %/layers.0/final_layer_norm/Sub_output_0 = Cast[to = 10](%/layers.0/final_layer_norm/Sub_output_cast_0)
  %/layers.0/final_layer_norm/Pow_input_cast_0 = Cast[to = 1](%/layers.0/final_layer_norm/Sub_output_0)
  %/layers.0/final_layer_norm/Pow_output_cast_0 = Pow(%/layers.0/final_layer_norm/Pow_input_cast_0, %/layers.0/self_attn_layer_norm/Pow_input_cast_1)
  %/layers.0/final_layer_norm/Pow_output_0 = Cast[to = 10](%/layers.0/final_layer_norm/Pow_output_cast_0)
  %/layers.0/final_layer_norm/ReduceMean_1_input_cast_0 = Cast[to = 1](%/layers.0/final_layer_norm/Pow_output_0)
  %/layers.0/final_layer_norm/ReduceMean_1_output_cast_0 = ReduceMean[axes = [-1]](%/layers.0/final_layer_norm/ReduceMean_1_input_cast_0)
  %/layers.0/final_layer_norm/ReduceMean_1_output_0 = Cast[to = 10](%/layers.0/final_layer_norm/ReduceMean_1_output_cast_0)
  %/layers.0/final_layer_norm/Add_input_cast_0 = Cast[to = 1](%/layers.0/final_layer_norm/ReduceMean_1_output_0)
  %/layers.0/final_layer_norm/Add_output_cast_0 = Add(%/layers.0/final_layer_norm/Add_input_cast_0, %/layers.0/self_attn_layer_norm/Add_input_cast_1)
  %/layers.0/final_layer_norm/Add_output_0 = Cast[to = 10](%/layers.0/final_layer_norm/Add_output_cast_0)
  %/layers.0/final_layer_norm/Sqrt_input_cast_0 = Cast[to = 1](%/layers.0/final_layer_norm/Add_output_0)
  %/layers.0/final_layer_norm/Sqrt_output_cast_0 = Sqrt(%/layers.0/final_layer_norm/Sqrt_input_cast_0)
  %/layers.0/final_layer_norm/Sqrt_output_0 = Cast[to = 10](%/layers.0/final_layer_norm/Sqrt_output_cast_0)
  %/layers.0/final_layer_norm/Div_input_cast_1 = Cast[to = 1](%/layers.0/final_layer_norm/Sqrt_output_0)
  %/layers.0/final_layer_norm/Div_output_cast_0 = Div(%/layers.0/final_layer_norm/Pow_input_cast_0, %/layers.0/final_layer_norm/Div_input_cast_1)
  %/layers.0/final_layer_norm/Div_output_0 = Cast[to = 10](%/layers.0/final_layer_norm/Div_output_cast_0)
  %/layers.0/final_layer_norm/Mul_input_cast_0 = Cast[to = 1](%/layers.0/final_layer_norm/Div_output_0)
  %/layers.0/final_layer_norm/Mul_output_cast_0 = Mul(%/layers.0/final_layer_norm/Mul_input_cast_0, %layers.0.final_layer_norm.weight)
  %/layers.0/final_layer_norm/Mul_output_0 = Cast[to = 10](%/layers.0/final_layer_norm/Mul_output_cast_0)
  %/layers.0/final_layer_norm/Add_1_input_cast_0 = Cast[to = 1](%/layers.0/final_layer_norm/Mul_output_0)
  %/layers.0/final_layer_norm/Add_1_output_cast_0 = Add(%/layers.0/final_layer_norm/Add_1_input_cast_0, %layers.0.final_layer_norm.bias)
  %/layers.0/final_layer_norm/Add_1_output_0 = Cast[to = 10](%/layers.0/final_layer_norm/Add_1_output_cast_0)
  %/layers.0/fc1/MatMul_input_cast_0 = Cast[to = 1](%/layers.0/final_layer_norm/Add_1_output_0)
  %/layers.0/fc1/MatMul_output_cast_0 = MatMul(%/layers.0/fc1/MatMul_input_cast_0, %onnx::MatMul_2837)
  %/layers.0/fc1/MatMul_output_0 = Cast[to = 10](%/layers.0/fc1/MatMul_output_cast_0)
  %/layers.0/fc1/Add_input_cast_1 = Cast[to = 1](%/layers.0/fc1/MatMul_output_0)
  %/layers.0/fc1/Add_output_cast_0 = Add(%layers.0.fc1.bias, %/layers.0/fc1/Add_input_cast_1)
  %/layers.0/fc1/Add_output_0 = Cast[to = 10](%/layers.0/fc1/Add_output_cast_0)
  %/layers.0/activation_fn/Relu_input_cast_0 = Cast[to = 1](%/layers.0/fc1/Add_output_0)
  %/layers.0/activation_fn/Relu_output_cast_0 = Relu(%/layers.0/activation_fn/Relu_input_cast_0)
  %/layers.0/activation_fn/Relu_output_0 = Cast[to = 10](%/layers.0/activation_fn/Relu_output_cast_0)
  %/layers.0/fc2/MatMul_input_cast_0 = Cast[to = 1](%/layers.0/activation_fn/Relu_output_0)
  %/layers.0/fc2/MatMul_output_cast_0 = MatMul(%/layers.0/fc2/MatMul_input_cast_0, %onnx::MatMul_2838)
  %/layers.0/fc2/MatMul_output_0 = Cast[to = 10](%/layers.0/fc2/MatMul_output_cast_0)
  %/layers.0/fc2/Add_input_cast_1 = Cast[to = 1](%/layers.0/fc2/MatMul_output_0)
  %/layers.0/fc2/Add_output_cast_0 = Add(%layers.0.fc2.bias, %/layers.0/fc2/Add_input_cast_1)
  %/layers.0/fc2/Add_output_0 = Cast[to = 10](%/layers.0/fc2/Add_output_cast_0)
  %/layers.0/Add_1_input_cast_1 = Cast[to = 1](%/layers.0/fc2/Add_output_0)
  %/layers.0/Add_1_output_cast_0 = Add(%/layers.0/final_layer_norm/ReduceMean_input_cast_0, %/layers.0/Add_1_input_cast_1)
  %/layers.0/Add_1_output_0 = Cast[to = 10](%/layers.0/Add_1_output_cast_0)
  %/layers.1/self_attn_layer_norm/ReduceMean_input_cast_0 = Cast[to = 1](%/layers.0/Add_1_output_0)
  %/layers.1/self_attn_layer_norm/ReduceMean_output_cast_0 = ReduceMean[axes = [-1]](%/layers.1/self_attn_layer_norm/ReduceMean_input_cast_0)
  %/layers.1/self_attn_layer_norm/ReduceMean_output_0 = Cast[to = 10](%/layers.1/self_attn_layer_norm/ReduceMean_output_cast_0)
  %/layers.1/self_attn_layer_norm/Sub_input_cast_1 = Cast[to = 1](%/layers.1/self_attn_layer_norm/ReduceMean_output_0)
  %/layers.1/self_attn_layer_norm/Sub_output_cast_0 = Sub(%/layers.1/self_attn_layer_norm/ReduceMean_input_cast_0, %/layers.1/self_attn_layer_norm/Sub_input_cast_1)
  %/layers.1/self_attn_layer_norm/Sub_output_0 = Cast[to = 10](%/layers.1/self_attn_layer_norm/Sub_output_cast_0)
  %/layers.1/self_attn_layer_norm/Pow_input_cast_0 = Cast[to = 1](%/layers.1/self_attn_layer_norm/Sub_output_0)
  %/layers.1/self_attn_layer_norm/Pow_output_cast_0 = Pow(%/layers.1/self_attn_layer_norm/Pow_input_cast_0, %/layers.0/self_attn_layer_norm/Pow_input_cast_1)
  %/layers.1/self_attn_layer_norm/Pow_output_0 = Cast[to = 10](%/layers.1/self_attn_layer_norm/Pow_output_cast_0)
  %/layers.1/self_attn_layer_norm/ReduceMean_1_input_cast_0 = Cast[to = 1](%/layers.1/self_attn_layer_norm/Pow_output_0)
  %/layers.1/self_attn_layer_norm/ReduceMean_1_output_cast_0 = ReduceMean[axes = [-1]](%/layers.1/self_attn_layer_norm/ReduceMean_1_input_cast_0)
  %/layers.1/self_attn_layer_norm/ReduceMean_1_output_0 = Cast[to = 10](%/layers.1/self_attn_layer_norm/ReduceMean_1_output_cast_0)
  %/layers.1/self_attn_layer_norm/Add_input_cast_0 = Cast[to = 1](%/layers.1/self_attn_layer_norm/ReduceMean_1_output_0)
  %/layers.1/self_attn_layer_norm/Add_output_cast_0 = Add(%/layers.1/self_attn_layer_norm/Add_input_cast_0, %/layers.0/self_attn_layer_norm/Add_input_cast_1)
  %/layers.1/self_attn_layer_norm/Add_output_0 = Cast[to = 10](%/layers.1/self_attn_layer_norm/Add_output_cast_0)
  %/layers.1/self_attn_layer_norm/Sqrt_input_cast_0 = Cast[to = 1](%/layers.1/self_attn_layer_norm/Add_output_0)
  %/layers.1/self_attn_layer_norm/Sqrt_output_cast_0 = Sqrt(%/layers.1/self_attn_layer_norm/Sqrt_input_cast_0)
  %/layers.1/self_attn_layer_norm/Sqrt_output_0 = Cast[to = 10](%/layers.1/self_attn_layer_norm/Sqrt_output_cast_0)
  %/layers.1/self_attn_layer_norm/Div_input_cast_1 = Cast[to = 1](%/layers.1/self_attn_layer_norm/Sqrt_output_0)
  %/layers.1/self_attn_layer_norm/Div_output_cast_0 = Div(%/layers.1/self_attn_layer_norm/Pow_input_cast_0, %/layers.1/self_attn_layer_norm/Div_input_cast_1)
  %/layers.1/self_attn_layer_norm/Div_output_0 = Cast[to = 10](%/layers.1/self_attn_layer_norm/Div_output_cast_0)
  %/layers.1/self_attn_layer_norm/Mul_input_cast_0 = Cast[to = 1](%/layers.1/self_attn_layer_norm/Div_output_0)
  %/layers.1/self_attn_layer_norm/Mul_output_cast_0 = Mul(%/layers.1/self_attn_layer_norm/Mul_input_cast_0, %layers.1.self_attn_layer_norm.weight)
  %/layers.1/self_attn_layer_norm/Mul_output_0 = Cast[to = 10](%/layers.1/self_attn_layer_norm/Mul_output_cast_0)
  %/layers.1/self_attn_layer_norm/Add_1_input_cast_0 = Cast[to = 1](%/layers.1/self_attn_layer_norm/Mul_output_0)
  %/layers.1/self_attn_layer_norm/Add_1_output_cast_0 = Add(%/layers.1/self_attn_layer_norm/Add_1_input_cast_0, %layers.1.self_attn_layer_norm.bias)
  %/layers.1/self_attn_layer_norm/Add_1_output_0 = Cast[to = 10](%/layers.1/self_attn_layer_norm/Add_1_output_cast_0)
  %/layers.1/self_attn/Shape_output_0 = Shape(%/layers.1/self_attn_layer_norm/Add_1_output_0)
  %/layers.1/self_attn/q_proj/MatMul_input_cast_0 = Cast[to = 1](%/layers.1/self_attn_layer_norm/Add_1_output_0)
  %4386 = MatMul(%/layers.1/self_attn/q_proj/MatMul_input_cast_0, %4385)
  %4387, %4388, %4389 = Split[axis = -1](%4386, %4383)
  %/layers.1/self_attn/Gather_output_0 = Gather[axis = 0](%/layers.1/self_attn/Shape_output_0, %/embed_positions/Constant_output_0)
  %/layers.1/self_attn/Gather_1_output_0 = Gather[axis = 0](%/layers.1/self_attn/Shape_output_0, %/Constant_output_0)
  %/layers.1/self_attn/Unsqueeze_output_0 = Unsqueeze(%/layers.1/self_attn/Gather_output_0, %onnx::Unsqueeze_269)
  %/layers.1/self_attn/Mul_1_output_0 = Mul(%/layers.1/self_attn/Gather_output_0, %/layers.0/self_attn/Constant_9_output_0)
  %/layers.1/self_attn/Unsqueeze_3_output_0 = Unsqueeze(%/layers.1/self_attn/Gather_1_output_0, %onnx::Unsqueeze_269)
  %/layers.1/self_attn/q_proj/MatMul_output_0 = Cast[to = 10](%4387)
  %/layers.1/self_attn/k_proj/MatMul_output_0 = Cast[to = 10](%4388)
  %/layers.1/self_attn/v_proj/MatMul_output_0 = Cast[to = 10](%4389)
  %/layers.1/self_attn/Concat_output_0 = Concat[axis = 0](%/layers.1/self_attn/Unsqueeze_output_0, %/Constant_1_output_0, %/layers.0/self_attn/Constant_4_output_0, %/layers.0/self_attn/Constant_5_output_0)
  %/layers.1/self_attn/Unsqueeze_4_output_0 = Unsqueeze(%/layers.1/self_attn/Mul_1_output_0, %onnx::Unsqueeze_269)
  %/layers.1/self_attn/Concat_2_output_0 = Concat[axis = 0](%/layers.1/self_attn/Unsqueeze_output_0, %/layers.1/self_attn/Unsqueeze_3_output_0, %/layers.0/self_attn/Constant_4_output_0, %/layers.0/self_attn/Constant_5_output_0)
  %/layers.1/self_attn/Concat_8_output_0 = Concat[axis = 0](%/layers.1/self_attn/Unsqueeze_output_0, %/layers.0/self_attn/Constant_4_output_0, %/layers.1/self_attn/Unsqueeze_3_output_0, %/layers.0/self_attn/Constant_5_output_0)
  %/layers.1/self_attn/Concat_9_output_0 = Concat[axis = 0](%/layers.1/self_attn/Unsqueeze_output_0, %/layers.1/self_attn/Unsqueeze_3_output_0, %/layers.0/self_attn/Constant_22_output_0)
  %/layers.1/self_attn/q_proj/Add_input_cast_1 = Cast[to = 1](%/layers.1/self_attn/q_proj/MatMul_output_0)
  %/layers.1/self_attn/k_proj/Add_input_cast_1 = Cast[to = 1](%/layers.1/self_attn/k_proj/MatMul_output_0)
  %/layers.1/self_attn/v_proj/Add_input_cast_1 = Cast[to = 1](%/layers.1/self_attn/v_proj/MatMul_output_0)
  %/layers.1/self_attn/Concat_3_output_0 = Concat[axis = 0](%/layers.1/self_attn/Unsqueeze_4_output_0, %/Constant_1_output_0, %/layers.0/self_attn/Constant_5_output_0)
  %/layers.1/self_attn/q_proj/Add_output_cast_0 = Add(%layers.1.self_attn.q_proj.bias, %/layers.1/self_attn/q_proj/Add_input_cast_1)
  %/layers.1/self_attn/k_proj/Add_output_cast_0 = Add(%layers.1.self_attn.k_proj.bias, %/layers.1/self_attn/k_proj/Add_input_cast_1)
  %/layers.1/self_attn/v_proj/Add_output_cast_0 = Add(%layers.1.self_attn.v_proj.bias, %/layers.1/self_attn/v_proj/Add_input_cast_1)
  %/layers.1/self_attn/q_proj/Add_output_0 = Cast[to = 10](%/layers.1/self_attn/q_proj/Add_output_cast_0)
  %/layers.1/self_attn/k_proj/Add_output_0 = Cast[to = 10](%/layers.1/self_attn/k_proj/Add_output_cast_0)
  %/layers.1/self_attn/v_proj/Add_output_0 = Cast[to = 10](%/layers.1/self_attn/v_proj/Add_output_cast_0)
  %/layers.1/self_attn/Mul_input_cast_0 = Cast[to = 1](%/layers.1/self_attn/q_proj/Add_output_0)
  %/layers.1/self_attn/Reshape_input_cast_0 = Cast[to = 1](%/layers.1/self_attn/k_proj/Add_output_0)
  %/layers.1/self_attn/Reshape_1_input_cast_0 = Cast[to = 1](%/layers.1/self_attn/v_proj/Add_output_0)
  %/layers.1/self_attn/Mul_output_cast_0 = Mul(%/layers.1/self_attn/Mul_input_cast_0, %/layers.0/self_attn/Mul_input_cast_1)
  %/layers.1/self_attn/Reshape_output_cast_0 = Reshape(%/layers.1/self_attn/Reshape_input_cast_0, %/layers.1/self_attn/Concat_output_0)
  %/layers.1/self_attn/Reshape_1_output_cast_0 = Reshape(%/layers.1/self_attn/Reshape_1_input_cast_0, %/layers.1/self_attn/Concat_output_0)
  %/layers.1/self_attn/Mul_output_0 = Cast[to = 10](%/layers.1/self_attn/Mul_output_cast_0)
  %/layers.1/self_attn/Reshape_output_0 = Cast[to = 10](%/layers.1/self_attn/Reshape_output_cast_0)
  %/layers.1/self_attn/Reshape_1_output_0 = Cast[to = 10](%/layers.1/self_attn/Reshape_1_output_cast_0)
  %/layers.1/self_attn/Reshape_2_input_cast_0 = Cast[to = 1](%/layers.1/self_attn/Mul_output_0)
  %/layers.1/self_attn/Transpose_input_cast_0 = Cast[to = 1](%/layers.1/self_attn/Reshape_output_0)
  %/layers.1/self_attn/Transpose_1_input_cast_0 = Cast[to = 1](%/layers.1/self_attn/Reshape_1_output_0)
  %/layers.1/self_attn/Reshape_2_output_cast_0 = Reshape(%/layers.1/self_attn/Reshape_2_input_cast_0, %/layers.1/self_attn/Concat_2_output_0)
  %/layers.1/self_attn/Transpose_output_cast_0 = Transpose[perm = [0, 2, 1, 3]](%/layers.1/self_attn/Transpose_input_cast_0)
  %/layers.1/self_attn/Transpose_1_output_cast_0 = Transpose[perm = [0, 2, 1, 3]](%/layers.1/self_attn/Transpose_1_input_cast_0)
  %/layers.1/self_attn/Reshape_2_output_0 = Cast[to = 10](%/layers.1/self_attn/Reshape_2_output_cast_0)
  %/layers.1/self_attn/Transpose_output_0 = Cast[to = 10](%/layers.1/self_attn/Transpose_output_cast_0)
  %/layers.1/self_attn/Transpose_1_output_0 = Cast[to = 10](%/layers.1/self_attn/Transpose_1_output_cast_0)
  %/layers.1/self_attn/Transpose_2_input_cast_0 = Cast[to = 1](%/layers.1/self_attn/Reshape_2_output_0)
  %/layers.1/self_attn/Reshape_4_input_cast_0 = Cast[to = 1](%/layers.1/self_attn/Transpose_output_0)
  %/layers.1/self_attn/Reshape_5_input_cast_0 = Cast[to = 1](%/layers.1/self_attn/Transpose_1_output_0)
  %/layers.1/self_attn/Transpose_2_output_cast_0 = Transpose[perm = [0, 2, 1, 3]](%/layers.1/self_attn/Transpose_2_input_cast_0)
  %/layers.1/self_attn/Reshape_4_output_cast_0 = Reshape(%/layers.1/self_attn/Reshape_4_input_cast_0, %/layers.1/self_attn/Concat_3_output_0)
  %/layers.1/self_attn/Reshape_5_output_cast_0 = Reshape(%/layers.1/self_attn/Reshape_5_input_cast_0, %/layers.1/self_attn/Concat_3_output_0)
  %/layers.1/self_attn/Transpose_2_output_0 = Cast[to = 10](%/layers.1/self_attn/Transpose_2_output_cast_0)
  %/layers.1/self_attn/Reshape_4_output_0 = Cast[to = 10](%/layers.1/self_attn/Reshape_4_output_cast_0)
  %/layers.1/self_attn/Reshape_5_output_0 = Cast[to = 10](%/layers.1/self_attn/Reshape_5_output_cast_0)
  %/layers.1/self_attn/Reshape_3_input_cast_0 = Cast[to = 1](%/layers.1/self_attn/Transpose_2_output_0)
  %/layers.1/self_attn/Shape_2_output_0 = Shape(%/layers.1/self_attn/Reshape_4_output_0)
  %/layers.1/self_attn/Transpose_3_input_cast_0 = Cast[to = 1](%/layers.1/self_attn/Reshape_4_output_0)
  %/layers.1/self_attn/MatMul_1_input_cast_1 = Cast[to = 1](%/layers.1/self_attn/Reshape_5_output_0)
  %/layers.1/self_attn/Reshape_3_output_cast_0 = Reshape(%/layers.1/self_attn/Reshape_3_input_cast_0, %/layers.1/self_attn/Concat_3_output_0)
  %/layers.1/self_attn/Gather_2_output_0 = Gather[axis = 0](%/layers.1/self_attn/Shape_2_output_0, %/Constant_output_0)
  %/layers.1/self_attn/Transpose_3_output_cast_0 = Transpose[perm = [0, 2, 1]](%/layers.1/self_attn/Transpose_3_input_cast_0)
  %/layers.1/self_attn/Reshape_3_output_0 = Cast[to = 10](%/layers.1/self_attn/Reshape_3_output_cast_0)
  %/layers.1/self_attn/Unsqueeze_9_output_0 = Unsqueeze(%/layers.1/self_attn/Gather_2_output_0, %onnx::Unsqueeze_269)
  %/layers.1/self_attn/Transpose_3_output_0 = Cast[to = 10](%/layers.1/self_attn/Transpose_3_output_cast_0)
  %/layers.1/self_attn/MatMul_input_cast_0 = Cast[to = 1](%/layers.1/self_attn/Reshape_3_output_0)
  %/layers.1/self_attn/Concat_6_output_0 = Concat[axis = 0](%/layers.1/self_attn/Unsqueeze_output_0, %/layers.0/self_attn/Constant_4_output_0, %/layers.1/self_attn/Unsqueeze_3_output_0, %/layers.1/self_attn/Unsqueeze_9_output_0)
  %/layers.1/self_attn/Concat_7_output_0 = Concat[axis = 0](%/layers.1/self_attn/Unsqueeze_4_output_0, %/layers.1/self_attn/Unsqueeze_3_output_0, %/layers.1/self_attn/Unsqueeze_9_output_0)
  %/layers.1/self_attn/MatMul_input_cast_1 = Cast[to = 1](%/layers.1/self_attn/Transpose_3_output_0)
  %/layers.1/self_attn/MatMul_output_cast_0 = MatMul(%/layers.1/self_attn/MatMul_input_cast_0, %/layers.1/self_attn/MatMul_input_cast_1)
  %/layers.1/self_attn/MatMul_output_0 = Cast[to = 10](%/layers.1/self_attn/MatMul_output_cast_0)
  %/layers.1/self_attn/Reshape_6_input_cast_0 = Cast[to = 1](%/layers.1/self_attn/MatMul_output_0)
  %/layers.1/self_attn/Reshape_6_output_cast_0 = Reshape(%/layers.1/self_attn/Reshape_6_input_cast_0, %/layers.1/self_attn/Concat_6_output_0)
  %/layers.1/self_attn/Reshape_6_output_0 = Cast[to = 10](%/layers.1/self_attn/Reshape_6_output_cast_0)
  %/layers.1/self_attn/Add_input_cast_0 = Cast[to = 1](%/layers.1/self_attn/Reshape_6_output_0)
  %/layers.1/self_attn/Add_output_cast_0 = Add(%/layers.1/self_attn/Add_input_cast_0, %/layers.0/self_attn/Add_input_cast_1)
  %/layers.1/self_attn/Add_output_0 = Cast[to = 10](%/layers.1/self_attn/Add_output_cast_0)
  %/layers.1/self_attn/Reshape_7_input_cast_0 = Cast[to = 1](%/layers.1/self_attn/Add_output_0)
  %/layers.1/self_attn/Reshape_7_output_cast_0 = Reshape(%/layers.1/self_attn/Reshape_7_input_cast_0, %/layers.1/self_attn/Concat_7_output_0)
  %/layers.1/self_attn/Reshape_7_output_0 = Cast[to = 10](%/layers.1/self_attn/Reshape_7_output_cast_0)
  %/layers.1/self_attn/Softmax_input_cast_0 = Cast[to = 1](%/layers.1/self_attn/Reshape_7_output_0)
  %/layers.1/self_attn/Softmax_output_cast_0 = Softmax[axis = -1](%/layers.1/self_attn/Softmax_input_cast_0)
  %/layers.1/self_attn/Softmax_output_0 = Cast[to = 10](%/layers.1/self_attn/Softmax_output_cast_0)
  %/layers.1/self_attn/MatMul_1_input_cast_0 = Cast[to = 1](%/layers.1/self_attn/Softmax_output_0)
  %/layers.1/self_attn/MatMul_1_output_cast_0 = MatMul(%/layers.1/self_attn/MatMul_1_input_cast_0, %/layers.1/self_attn/MatMul_1_input_cast_1)
  %/layers.1/self_attn/MatMul_1_output_0 = Cast[to = 10](%/layers.1/self_attn/MatMul_1_output_cast_0)
  %/layers.1/self_attn/Reshape_8_input_cast_0 = Cast[to = 1](%/layers.1/self_attn/MatMul_1_output_0)
  %/layers.1/self_attn/Reshape_8_output_cast_0 = Reshape(%/layers.1/self_attn/Reshape_8_input_cast_0, %/layers.1/self_attn/Concat_8_output_0)
  %/layers.1/self_attn/Reshape_8_output_0 = Cast[to = 10](%/layers.1/self_attn/Reshape_8_output_cast_0)
  %/layers.1/self_attn/Transpose_4_input_cast_0 = Cast[to = 1](%/layers.1/self_attn/Reshape_8_output_0)
  %/layers.1/self_attn/Transpose_4_output_cast_0 = Transpose[perm = [0, 2, 1, 3]](%/layers.1/self_attn/Transpose_4_input_cast_0)
  %/layers.1/self_attn/Transpose_4_output_0 = Cast[to = 10](%/layers.1/self_attn/Transpose_4_output_cast_0)
  %/layers.1/self_attn/Reshape_9_input_cast_0 = Cast[to = 1](%/layers.1/self_attn/Transpose_4_output_0)
  %/layers.1/self_attn/Reshape_9_output_cast_0 = Reshape(%/layers.1/self_attn/Reshape_9_input_cast_0, %/layers.1/self_attn/Concat_9_output_0)
  %/layers.1/self_attn/Reshape_9_output_0 = Cast[to = 10](%/layers.1/self_attn/Reshape_9_output_cast_0)
  %/layers.1/self_attn/out_proj/MatMul_input_cast_0 = Cast[to = 1](%/layers.1/self_attn/Reshape_9_output_0)
  %/layers.1/self_attn/out_proj/MatMul_output_cast_0 = MatMul(%/layers.1/self_attn/out_proj/MatMul_input_cast_0, %onnx::MatMul_2860)
  %/layers.1/self_attn/out_proj/MatMul_output_0 = Cast[to = 10](%/layers.1/self_attn/out_proj/MatMul_output_cast_0)
  %/layers.1/self_attn/out_proj/Add_input_cast_1 = Cast[to = 1](%/layers.1/self_attn/out_proj/MatMul_output_0)
  %/layers.1/self_attn/out_proj/Add_output_cast_0 = Add(%layers.1.self_attn.out_proj.bias, %/layers.1/self_attn/out_proj/Add_input_cast_1)
  %/layers.1/self_attn/out_proj/Add_output_0 = Cast[to = 10](%/layers.1/self_attn/out_proj/Add_output_cast_0)
  %/layers.1/Add_input_cast_1 = Cast[to = 1](%/layers.1/self_attn/out_proj/Add_output_0)
  %/layers.1/Add_output_cast_0 = Add(%/layers.1/self_attn_layer_norm/ReduceMean_input_cast_0, %/layers.1/Add_input_cast_1)
  %/layers.1/Add_output_0 = Cast[to = 10](%/layers.1/Add_output_cast_0)
  %/layers.1/final_layer_norm/ReduceMean_input_cast_0 = Cast[to = 1](%/layers.1/Add_output_0)
  %/layers.1/final_layer_norm/ReduceMean_output_cast_0 = ReduceMean[axes = [-1]](%/layers.1/final_layer_norm/ReduceMean_input_cast_0)
  %/layers.1/final_layer_norm/ReduceMean_output_0 = Cast[to = 10](%/layers.1/final_layer_norm/ReduceMean_output_cast_0)
  %/layers.1/final_layer_norm/Sub_input_cast_1 = Cast[to = 1](%/layers.1/final_layer_norm/ReduceMean_output_0)
  %/layers.1/final_layer_norm/Sub_output_cast_0 = Sub(%/layers.1/final_layer_norm/ReduceMean_input_cast_0, %/layers.1/final_layer_norm/Sub_input_cast_1)
  %/layers.1/final_layer_norm/Sub_output_0 = Cast[to = 10](%/layers.1/final_layer_norm/Sub_output_cast_0)
  %/layers.1/final_layer_norm/Pow_input_cast_0 = Cast[to = 1](%/layers.1/final_layer_norm/Sub_output_0)
  %/layers.1/final_layer_norm/Pow_output_cast_0 = Pow(%/layers.1/final_layer_norm/Pow_input_cast_0, %/layers.0/self_attn_layer_norm/Pow_input_cast_1)
  %/layers.1/final_layer_norm/Pow_output_0 = Cast[to = 10](%/layers.1/final_layer_norm/Pow_output_cast_0)
  %/layers.1/final_layer_norm/ReduceMean_1_input_cast_0 = Cast[to = 1](%/layers.1/final_layer_norm/Pow_output_0)
  %/layers.1/final_layer_norm/ReduceMean_1_output_cast_0 = ReduceMean[axes = [-1]](%/layers.1/final_layer_norm/ReduceMean_1_input_cast_0)
  %/layers.1/final_layer_norm/ReduceMean_1_output_0 = Cast[to = 10](%/layers.1/final_layer_norm/ReduceMean_1_output_cast_0)
  %/layers.1/final_layer_norm/Add_input_cast_0 = Cast[to = 1](%/layers.1/final_layer_norm/ReduceMean_1_output_0)
  %/layers.1/final_layer_norm/Add_output_cast_0 = Add(%/layers.1/final_layer_norm/Add_input_cast_0, %/layers.0/self_attn_layer_norm/Add_input_cast_1)
  %/layers.1/final_layer_norm/Add_output_0 = Cast[to = 10](%/layers.1/final_layer_norm/Add_output_cast_0)
  %/layers.1/final_layer_norm/Sqrt_input_cast_0 = Cast[to = 1](%/layers.1/final_layer_norm/Add_output_0)
  %/layers.1/final_layer_norm/Sqrt_output_cast_0 = Sqrt(%/layers.1/final_layer_norm/Sqrt_input_cast_0)
  %/layers.1/final_layer_norm/Sqrt_output_0 = Cast[to = 10](%/layers.1/final_layer_norm/Sqrt_output_cast_0)
  %/layers.1/final_layer_norm/Div_input_cast_1 = Cast[to = 1](%/layers.1/final_layer_norm/Sqrt_output_0)
  %/layers.1/final_layer_norm/Div_output_cast_0 = Div(%/layers.1/final_layer_norm/Pow_input_cast_0, %/layers.1/final_layer_norm/Div_input_cast_1)
  %/layers.1/final_layer_norm/Div_output_0 = Cast[to = 10](%/layers.1/final_layer_norm/Div_output_cast_0)
  %/layers.1/final_layer_norm/Mul_input_cast_0 = Cast[to = 1](%/layers.1/final_layer_norm/Div_output_0)
  %/layers.1/final_layer_norm/Mul_output_cast_0 = Mul(%/layers.1/final_layer_norm/Mul_input_cast_0, %layers.1.final_layer_norm.weight)
  %/layers.1/final_layer_norm/Mul_output_0 = Cast[to = 10](%/layers.1/final_layer_norm/Mul_output_cast_0)
  %/layers.1/final_layer_norm/Add_1_input_cast_0 = Cast[to = 1](%/layers.1/final_layer_norm/Mul_output_0)
  %/layers.1/final_layer_norm/Add_1_output_cast_0 = Add(%/layers.1/final_layer_norm/Add_1_input_cast_0, %layers.1.final_layer_norm.bias)
  %/layers.1/final_layer_norm/Add_1_output_0 = Cast[to = 10](%/layers.1/final_layer_norm/Add_1_output_cast_0)
  %/layers.1/fc1/MatMul_input_cast_0 = Cast[to = 1](%/layers.1/final_layer_norm/Add_1_output_0)
  %/layers.1/fc1/MatMul_output_cast_0 = MatMul(%/layers.1/fc1/MatMul_input_cast_0, %onnx::MatMul_2861)
  %/layers.1/fc1/MatMul_output_0 = Cast[to = 10](%/layers.1/fc1/MatMul_output_cast_0)
  %/layers.1/fc1/Add_input_cast_1 = Cast[to = 1](%/layers.1/fc1/MatMul_output_0)
  %/layers.1/fc1/Add_output_cast_0 = Add(%layers.1.fc1.bias, %/layers.1/fc1/Add_input_cast_1)
  %/layers.1/fc1/Add_output_0 = Cast[to = 10](%/layers.1/fc1/Add_output_cast_0)
  %/layers.1/activation_fn/Relu_input_cast_0 = Cast[to = 1](%/layers.1/fc1/Add_output_0)
  %/layers.1/activation_fn/Relu_output_cast_0 = Relu(%/layers.1/activation_fn/Relu_input_cast_0)
  %/layers.1/activation_fn/Relu_output_0 = Cast[to = 10](%/layers.1/activation_fn/Relu_output_cast_0)
  %/layers.1/fc2/MatMul_input_cast_0 = Cast[to = 1](%/layers.1/activation_fn/Relu_output_0)
  %/layers.1/fc2/MatMul_output_cast_0 = MatMul(%/layers.1/fc2/MatMul_input_cast_0, %onnx::MatMul_2862)
  %/layers.1/fc2/MatMul_output_0 = Cast[to = 10](%/layers.1/fc2/MatMul_output_cast_0)
  %/layers.1/fc2/Add_input_cast_1 = Cast[to = 1](%/layers.1/fc2/MatMul_output_0)
  %/layers.1/fc2/Add_output_cast_0 = Add(%layers.1.fc2.bias, %/layers.1/fc2/Add_input_cast_1)
  %/layers.1/fc2/Add_output_0 = Cast[to = 10](%/layers.1/fc2/Add_output_cast_0)
  %/layers.1/Add_1_input_cast_1 = Cast[to = 1](%/layers.1/fc2/Add_output_0)
  %/layers.1/Add_1_output_cast_0 = Add(%/layers.1/final_layer_norm/ReduceMean_input_cast_0, %/layers.1/Add_1_input_cast_1)
  %/layers.1/Add_1_output_0 = Cast[to = 10](%/layers.1/Add_1_output_cast_0)
  %/layers.2/self_attn_layer_norm/ReduceMean_input_cast_0 = Cast[to = 1](%/layers.1/Add_1_output_0)
  %/layers.2/self_attn_layer_norm/ReduceMean_output_cast_0 = ReduceMean[axes = [-1]](%/layers.2/self_attn_layer_norm/ReduceMean_input_cast_0)
  %/layers.2/self_attn_layer_norm/ReduceMean_output_0 = Cast[to = 10](%/layers.2/self_attn_layer_norm/ReduceMean_output_cast_0)
  %/layers.2/self_attn_layer_norm/Sub_input_cast_1 = Cast[to = 1](%/layers.2/self_attn_layer_norm/ReduceMean_output_0)
  %/layers.2/self_attn_layer_norm/Sub_output_cast_0 = Sub(%/layers.2/self_attn_layer_norm/ReduceMean_input_cast_0, %/layers.2/self_attn_layer_norm/Sub_input_cast_1)
  %/layers.2/self_attn_layer_norm/Sub_output_0 = Cast[to = 10](%/layers.2/self_attn_layer_norm/Sub_output_cast_0)
  %/layers.2/self_attn_layer_norm/Pow_input_cast_0 = Cast[to = 1](%/layers.2/self_attn_layer_norm/Sub_output_0)
  %/layers.2/self_attn_layer_norm/Pow_output_cast_0 = Pow(%/layers.2/self_attn_layer_norm/Pow_input_cast_0, %/layers.0/self_attn_layer_norm/Pow_input_cast_1)
  %/layers.2/self_attn_layer_norm/Pow_output_0 = Cast[to = 10](%/layers.2/self_attn_layer_norm/Pow_output_cast_0)
  %/layers.2/self_attn_layer_norm/ReduceMean_1_input_cast_0 = Cast[to = 1](%/layers.2/self_attn_layer_norm/Pow_output_0)
  %/layers.2/self_attn_layer_norm/ReduceMean_1_output_cast_0 = ReduceMean[axes = [-1]](%/layers.2/self_attn_layer_norm/ReduceMean_1_input_cast_0)
  %/layers.2/self_attn_layer_norm/ReduceMean_1_output_0 = Cast[to = 10](%/layers.2/self_attn_layer_norm/ReduceMean_1_output_cast_0)
  %/layers.2/self_attn_layer_norm/Add_input_cast_0 = Cast[to = 1](%/layers.2/self_attn_layer_norm/ReduceMean_1_output_0)
  %/layers.2/self_attn_layer_norm/Add_output_cast_0 = Add(%/layers.2/self_attn_layer_norm/Add_input_cast_0, %/layers.0/self_attn_layer_norm/Add_input_cast_1)
  %/layers.2/self_attn_layer_norm/Add_output_0 = Cast[to = 10](%/layers.2/self_attn_layer_norm/Add_output_cast_0)
  %/layers.2/self_attn_layer_norm/Sqrt_input_cast_0 = Cast[to = 1](%/layers.2/self_attn_layer_norm/Add_output_0)
  %/layers.2/self_attn_layer_norm/Sqrt_output_cast_0 = Sqrt(%/layers.2/self_attn_layer_norm/Sqrt_input_cast_0)
  %/layers.2/self_attn_layer_norm/Sqrt_output_0 = Cast[to = 10](%/layers.2/self_attn_layer_norm/Sqrt_output_cast_0)
  %/layers.2/self_attn_layer_norm/Div_input_cast_1 = Cast[to = 1](%/layers.2/self_attn_layer_norm/Sqrt_output_0)
  %/layers.2/self_attn_layer_norm/Div_output_cast_0 = Div(%/layers.2/self_attn_layer_norm/Pow_input_cast_0, %/layers.2/self_attn_layer_norm/Div_input_cast_1)
  %/layers.2/self_attn_layer_norm/Div_output_0 = Cast[to = 10](%/layers.2/self_attn_layer_norm/Div_output_cast_0)
  %/layers.2/self_attn_layer_norm/Mul_input_cast_0 = Cast[to = 1](%/layers.2/self_attn_layer_norm/Div_output_0)
  %/layers.2/self_attn_layer_norm/Mul_output_cast_0 = Mul(%/layers.2/self_attn_layer_norm/Mul_input_cast_0, %layers.2.self_attn_layer_norm.weight)
  %/layers.2/self_attn_layer_norm/Mul_output_0 = Cast[to = 10](%/layers.2/self_attn_layer_norm/Mul_output_cast_0)
  %/layers.2/self_attn_layer_norm/Add_1_input_cast_0 = Cast[to = 1](%/layers.2/self_attn_layer_norm/Mul_output_0)
  %/layers.2/self_attn_layer_norm/Add_1_output_cast_0 = Add(%/layers.2/self_attn_layer_norm/Add_1_input_cast_0, %layers.2.self_attn_layer_norm.bias)
  %/layers.2/self_attn_layer_norm/Add_1_output_0 = Cast[to = 10](%/layers.2/self_attn_layer_norm/Add_1_output_cast_0)
  %/layers.2/self_attn/Shape_output_0 = Shape(%/layers.2/self_attn_layer_norm/Add_1_output_0)
  %/layers.2/self_attn/q_proj/MatMul_input_cast_0 = Cast[to = 1](%/layers.2/self_attn_layer_norm/Add_1_output_0)
  %4393 = MatMul(%/layers.2/self_attn/q_proj/MatMul_input_cast_0, %4392)
  %4394, %4395, %4396 = Split[axis = -1](%4393, %4383)
  %/layers.2/self_attn/Gather_output_0 = Gather[axis = 0](%/layers.2/self_attn/Shape_output_0, %/embed_positions/Constant_output_0)
  %/layers.2/self_attn/Gather_1_output_0 = Gather[axis = 0](%/layers.2/self_attn/Shape_output_0, %/Constant_output_0)
  %/layers.2/self_attn/Unsqueeze_output_0 = Unsqueeze(%/layers.2/self_attn/Gather_output_0, %onnx::Unsqueeze_269)
  %/layers.2/self_attn/Mul_1_output_0 = Mul(%/layers.2/self_attn/Gather_output_0, %/layers.0/self_attn/Constant_9_output_0)
  %/layers.2/self_attn/Unsqueeze_3_output_0 = Unsqueeze(%/layers.2/self_attn/Gather_1_output_0, %onnx::Unsqueeze_269)
  %/layers.2/self_attn/q_proj/MatMul_output_0 = Cast[to = 10](%4394)
  %/layers.2/self_attn/k_proj/MatMul_output_0 = Cast[to = 10](%4395)
  %/layers.2/self_attn/v_proj/MatMul_output_0 = Cast[to = 10](%4396)
  %/layers.2/self_attn/Concat_output_0 = Concat[axis = 0](%/layers.2/self_attn/Unsqueeze_output_0, %/Constant_1_output_0, %/layers.0/self_attn/Constant_4_output_0, %/layers.0/self_attn/Constant_5_output_0)
  %/layers.2/self_attn/Unsqueeze_4_output_0 = Unsqueeze(%/layers.2/self_attn/Mul_1_output_0, %onnx::Unsqueeze_269)
  %/layers.2/self_attn/Concat_2_output_0 = Concat[axis = 0](%/layers.2/self_attn/Unsqueeze_output_0, %/layers.2/self_attn/Unsqueeze_3_output_0, %/layers.0/self_attn/Constant_4_output_0, %/layers.0/self_attn/Constant_5_output_0)
  %/layers.2/self_attn/Concat_8_output_0 = Concat[axis = 0](%/layers.2/self_attn/Unsqueeze_output_0, %/layers.0/self_attn/Constant_4_output_0, %/layers.2/self_attn/Unsqueeze_3_output_0, %/layers.0/self_attn/Constant_5_output_0)
  %/layers.2/self_attn/Concat_9_output_0 = Concat[axis = 0](%/layers.2/self_attn/Unsqueeze_output_0, %/layers.2/self_attn/Unsqueeze_3_output_0, %/layers.0/self_attn/Constant_22_output_0)
  %/layers.2/self_attn/q_proj/Add_input_cast_1 = Cast[to = 1](%/layers.2/self_attn/q_proj/MatMul_output_0)
  %/layers.2/self_attn/k_proj/Add_input_cast_1 = Cast[to = 1](%/layers.2/self_attn/k_proj/MatMul_output_0)
  %/layers.2/self_attn/v_proj/Add_input_cast_1 = Cast[to = 1](%/layers.2/self_attn/v_proj/MatMul_output_0)
  %/layers.2/self_attn/Concat_3_output_0 = Concat[axis = 0](%/layers.2/self_attn/Unsqueeze_4_output_0, %/Constant_1_output_0, %/layers.0/self_attn/Constant_5_output_0)
  %/layers.2/self_attn/q_proj/Add_output_cast_0 = Add(%layers.2.self_attn.q_proj.bias, %/layers.2/self_attn/q_proj/Add_input_cast_1)
  %/layers.2/self_attn/k_proj/Add_output_cast_0 = Add(%layers.2.self_attn.k_proj.bias, %/layers.2/self_attn/k_proj/Add_input_cast_1)
  %/layers.2/self_attn/v_proj/Add_output_cast_0 = Add(%layers.2.self_attn.v_proj.bias, %/layers.2/self_attn/v_proj/Add_input_cast_1)
  %/layers.2/self_attn/q_proj/Add_output_0 = Cast[to = 10](%/layers.2/self_attn/q_proj/Add_output_cast_0)
  %/layers.2/self_attn/k_proj/Add_output_0 = Cast[to = 10](%/layers.2/self_attn/k_proj/Add_output_cast_0)
  %/layers.2/self_attn/v_proj/Add_output_0 = Cast[to = 10](%/layers.2/self_attn/v_proj/Add_output_cast_0)
  %/layers.2/self_attn/Mul_input_cast_0 = Cast[to = 1](%/layers.2/self_attn/q_proj/Add_output_0)
  %/layers.2/self_attn/Reshape_input_cast_0 = Cast[to = 1](%/layers.2/self_attn/k_proj/Add_output_0)
  %/layers.2/self_attn/Reshape_1_input_cast_0 = Cast[to = 1](%/layers.2/self_attn/v_proj/Add_output_0)
  %/layers.2/self_attn/Mul_output_cast_0 = Mul(%/layers.2/self_attn/Mul_input_cast_0, %/layers.0/self_attn/Mul_input_cast_1)
  %/layers.2/self_attn/Reshape_output_cast_0 = Reshape(%/layers.2/self_attn/Reshape_input_cast_0, %/layers.2/self_attn/Concat_output_0)
  %/layers.2/self_attn/Reshape_1_output_cast_0 = Reshape(%/layers.2/self_attn/Reshape_1_input_cast_0, %/layers.2/self_attn/Concat_output_0)
  %/layers.2/self_attn/Mul_output_0 = Cast[to = 10](%/layers.2/self_attn/Mul_output_cast_0)
  %/layers.2/self_attn/Reshape_output_0 = Cast[to = 10](%/layers.2/self_attn/Reshape_output_cast_0)
  %/layers.2/self_attn/Reshape_1_output_0 = Cast[to = 10](%/layers.2/self_attn/Reshape_1_output_cast_0)
  %/layers.2/self_attn/Reshape_2_input_cast_0 = Cast[to = 1](%/layers.2/self_attn/Mul_output_0)
  %/layers.2/self_attn/Transpose_input_cast_0 = Cast[to = 1](%/layers.2/self_attn/Reshape_output_0)
  %/layers.2/self_attn/Transpose_1_input_cast_0 = Cast[to = 1](%/layers.2/self_attn/Reshape_1_output_0)
  %/layers.2/self_attn/Reshape_2_output_cast_0 = Reshape(%/layers.2/self_attn/Reshape_2_input_cast_0, %/layers.2/self_attn/Concat_2_output_0)
  %/layers.2/self_attn/Transpose_output_cast_0 = Transpose[perm = [0, 2, 1, 3]](%/layers.2/self_attn/Transpose_input_cast_0)
  %/layers.2/self_attn/Transpose_1_output_cast_0 = Transpose[perm = [0, 2, 1, 3]](%/layers.2/self_attn/Transpose_1_input_cast_0)
  %/layers.2/self_attn/Reshape_2_output_0 = Cast[to = 10](%/layers.2/self_attn/Reshape_2_output_cast_0)
  %/layers.2/self_attn/Transpose_output_0 = Cast[to = 10](%/layers.2/self_attn/Transpose_output_cast_0)
  %/layers.2/self_attn/Transpose_1_output_0 = Cast[to = 10](%/layers.2/self_attn/Transpose_1_output_cast_0)
  %/layers.2/self_attn/Transpose_2_input_cast_0 = Cast[to = 1](%/layers.2/self_attn/Reshape_2_output_0)
  %/layers.2/self_attn/Reshape_4_input_cast_0 = Cast[to = 1](%/layers.2/self_attn/Transpose_output_0)
  %/layers.2/self_attn/Reshape_5_input_cast_0 = Cast[to = 1](%/layers.2/self_attn/Transpose_1_output_0)
  %/layers.2/self_attn/Transpose_2_output_cast_0 = Transpose[perm = [0, 2, 1, 3]](%/layers.2/self_attn/Transpose_2_input_cast_0)
  %/layers.2/self_attn/Reshape_4_output_cast_0 = Reshape(%/layers.2/self_attn/Reshape_4_input_cast_0, %/layers.2/self_attn/Concat_3_output_0)
  %/layers.2/self_attn/Reshape_5_output_cast_0 = Reshape(%/layers.2/self_attn/Reshape_5_input_cast_0, %/layers.2/self_attn/Concat_3_output_0)
  %/layers.2/self_attn/Transpose_2_output_0 = Cast[to = 10](%/layers.2/self_attn/Transpose_2_output_cast_0)
  %/layers.2/self_attn/Reshape_4_output_0 = Cast[to = 10](%/layers.2/self_attn/Reshape_4_output_cast_0)
  %/layers.2/self_attn/Reshape_5_output_0 = Cast[to = 10](%/layers.2/self_attn/Reshape_5_output_cast_0)
  %/layers.2/self_attn/Reshape_3_input_cast_0 = Cast[to = 1](%/layers.2/self_attn/Transpose_2_output_0)
  %/layers.2/self_attn/Shape_2_output_0 = Shape(%/layers.2/self_attn/Reshape_4_output_0)
  %/layers.2/self_attn/Transpose_3_input_cast_0 = Cast[to = 1](%/layers.2/self_attn/Reshape_4_output_0)
  %/layers.2/self_attn/MatMul_1_input_cast_1 = Cast[to = 1](%/layers.2/self_attn/Reshape_5_output_0)
  %/layers.2/self_attn/Reshape_3_output_cast_0 = Reshape(%/layers.2/self_attn/Reshape_3_input_cast_0, %/layers.2/self_attn/Concat_3_output_0)
  %/layers.2/self_attn/Gather_2_output_0 = Gather[axis = 0](%/layers.2/self_attn/Shape_2_output_0, %/Constant_output_0)
  %/layers.2/self_attn/Transpose_3_output_cast_0 = Transpose[perm = [0, 2, 1]](%/layers.2/self_attn/Transpose_3_input_cast_0)
  %/layers.2/self_attn/Reshape_3_output_0 = Cast[to = 10](%/layers.2/self_attn/Reshape_3_output_cast_0)
  %/layers.2/self_attn/Unsqueeze_9_output_0 = Unsqueeze(%/layers.2/self_attn/Gather_2_output_0, %onnx::Unsqueeze_269)
  %/layers.2/self_attn/Transpose_3_output_0 = Cast[to = 10](%/layers.2/self_attn/Transpose_3_output_cast_0)
  %/layers.2/self_attn/MatMul_input_cast_0 = Cast[to = 1](%/layers.2/self_attn/Reshape_3_output_0)
  %/layers.2/self_attn/Concat_6_output_0 = Concat[axis = 0](%/layers.2/self_attn/Unsqueeze_output_0, %/layers.0/self_attn/Constant_4_output_0, %/layers.2/self_attn/Unsqueeze_3_output_0, %/layers.2/self_attn/Unsqueeze_9_output_0)
  %/layers.2/self_attn/Concat_7_output_0 = Concat[axis = 0](%/layers.2/self_attn/Unsqueeze_4_output_0, %/layers.2/self_attn/Unsqueeze_3_output_0, %/layers.2/self_attn/Unsqueeze_9_output_0)
  %/layers.2/self_attn/MatMul_input_cast_1 = Cast[to = 1](%/layers.2/self_attn/Transpose_3_output_0)
  %/layers.2/self_attn/MatMul_output_cast_0 = MatMul(%/layers.2/self_attn/MatMul_input_cast_0, %/layers.2/self_attn/MatMul_input_cast_1)
  %/layers.2/self_attn/MatMul_output_0 = Cast[to = 10](%/layers.2/self_attn/MatMul_output_cast_0)
  %/layers.2/self_attn/Reshape_6_input_cast_0 = Cast[to = 1](%/layers.2/self_attn/MatMul_output_0)
  %/layers.2/self_attn/Reshape_6_output_cast_0 = Reshape(%/layers.2/self_attn/Reshape_6_input_cast_0, %/layers.2/self_attn/Concat_6_output_0)
  %/layers.2/self_attn/Reshape_6_output_0 = Cast[to = 10](%/layers.2/self_attn/Reshape_6_output_cast_0)
  %/layers.2/self_attn/Add_input_cast_0 = Cast[to = 1](%/layers.2/self_attn/Reshape_6_output_0)
  %/layers.2/self_attn/Add_output_cast_0 = Add(%/layers.2/self_attn/Add_input_cast_0, %/layers.0/self_attn/Add_input_cast_1)
  %/layers.2/self_attn/Add_output_0 = Cast[to = 10](%/layers.2/self_attn/Add_output_cast_0)
  %/layers.2/self_attn/Reshape_7_input_cast_0 = Cast[to = 1](%/layers.2/self_attn/Add_output_0)
  %/layers.2/self_attn/Reshape_7_output_cast_0 = Reshape(%/layers.2/self_attn/Reshape_7_input_cast_0, %/layers.2/self_attn/Concat_7_output_0)
  %/layers.2/self_attn/Reshape_7_output_0 = Cast[to = 10](%/layers.2/self_attn/Reshape_7_output_cast_0)
  %/layers.2/self_attn/Softmax_input_cast_0 = Cast[to = 1](%/layers.2/self_attn/Reshape_7_output_0)
  %/layers.2/self_attn/Softmax_output_cast_0 = Softmax[axis = -1](%/layers.2/self_attn/Softmax_input_cast_0)
  %/layers.2/self_attn/Softmax_output_0 = Cast[to = 10](%/layers.2/self_attn/Softmax_output_cast_0)
  %/layers.2/self_attn/MatMul_1_input_cast_0 = Cast[to = 1](%/layers.2/self_attn/Softmax_output_0)
  %/layers.2/self_attn/MatMul_1_output_cast_0 = MatMul(%/layers.2/self_attn/MatMul_1_input_cast_0, %/layers.2/self_attn/MatMul_1_input_cast_1)
  %/layers.2/self_attn/MatMul_1_output_0 = Cast[to = 10](%/layers.2/self_attn/MatMul_1_output_cast_0)
  %/layers.2/self_attn/Reshape_8_input_cast_0 = Cast[to = 1](%/layers.2/self_attn/MatMul_1_output_0)
  %/layers.2/self_attn/Reshape_8_output_cast_0 = Reshape(%/layers.2/self_attn/Reshape_8_input_cast_0, %/layers.2/self_attn/Concat_8_output_0)
  %/layers.2/self_attn/Reshape_8_output_0 = Cast[to = 10](%/layers.2/self_attn/Reshape_8_output_cast_0)
  %/layers.2/self_attn/Transpose_4_input_cast_0 = Cast[to = 1](%/layers.2/self_attn/Reshape_8_output_0)
  %/layers.2/self_attn/Transpose_4_output_cast_0 = Transpose[perm = [0, 2, 1, 3]](%/layers.2/self_attn/Transpose_4_input_cast_0)
  %/layers.2/self_attn/Transpose_4_output_0 = Cast[to = 10](%/layers.2/self_attn/Transpose_4_output_cast_0)
  %/layers.2/self_attn/Reshape_9_input_cast_0 = Cast[to = 1](%/layers.2/self_attn/Transpose_4_output_0)
  %/layers.2/self_attn/Reshape_9_output_cast_0 = Reshape(%/layers.2/self_attn/Reshape_9_input_cast_0, %/layers.2/self_attn/Concat_9_output_0)
  %/layers.2/self_attn/Reshape_9_output_0 = Cast[to = 10](%/layers.2/self_attn/Reshape_9_output_cast_0)
  %/layers.2/self_attn/out_proj/MatMul_input_cast_0 = Cast[to = 1](%/layers.2/self_attn/Reshape_9_output_0)
  %/layers.2/self_attn/out_proj/MatMul_output_cast_0 = MatMul(%/layers.2/self_attn/out_proj/MatMul_input_cast_0, %onnx::MatMul_2884)
  %/layers.2/self_attn/out_proj/MatMul_output_0 = Cast[to = 10](%/layers.2/self_attn/out_proj/MatMul_output_cast_0)
  %/layers.2/self_attn/out_proj/Add_input_cast_1 = Cast[to = 1](%/layers.2/self_attn/out_proj/MatMul_output_0)
  %/layers.2/self_attn/out_proj/Add_output_cast_0 = Add(%layers.2.self_attn.out_proj.bias, %/layers.2/self_attn/out_proj/Add_input_cast_1)
  %/layers.2/self_attn/out_proj/Add_output_0 = Cast[to = 10](%/layers.2/self_attn/out_proj/Add_output_cast_0)
  %/layers.2/Add_input_cast_1 = Cast[to = 1](%/layers.2/self_attn/out_proj/Add_output_0)
  %/layers.2/Add_output_cast_0 = Add(%/layers.2/self_attn_layer_norm/ReduceMean_input_cast_0, %/layers.2/Add_input_cast_1)
  %/layers.2/Add_output_0 = Cast[to = 10](%/layers.2/Add_output_cast_0)
  %/layers.2/final_layer_norm/ReduceMean_input_cast_0 = Cast[to = 1](%/layers.2/Add_output_0)
  %/layers.2/final_layer_norm/ReduceMean_output_cast_0 = ReduceMean[axes = [-1]](%/layers.2/final_layer_norm/ReduceMean_input_cast_0)
  %/layers.2/final_layer_norm/ReduceMean_output_0 = Cast[to = 10](%/layers.2/final_layer_norm/ReduceMean_output_cast_0)
  %/layers.2/final_layer_norm/Sub_input_cast_1 = Cast[to = 1](%/layers.2/final_layer_norm/ReduceMean_output_0)
  %/layers.2/final_layer_norm/Sub_output_cast_0 = Sub(%/layers.2/final_layer_norm/ReduceMean_input_cast_0, %/layers.2/final_layer_norm/Sub_input_cast_1)
  %/layers.2/final_layer_norm/Sub_output_0 = Cast[to = 10](%/layers.2/final_layer_norm/Sub_output_cast_0)
  %/layers.2/final_layer_norm/Pow_input_cast_0 = Cast[to = 1](%/layers.2/final_layer_norm/Sub_output_0)
  %/layers.2/final_layer_norm/Pow_output_cast_0 = Pow(%/layers.2/final_layer_norm/Pow_input_cast_0, %/layers.0/self_attn_layer_norm/Pow_input_cast_1)
  %/layers.2/final_layer_norm/Pow_output_0 = Cast[to = 10](%/layers.2/final_layer_norm/Pow_output_cast_0)
  %/layers.2/final_layer_norm/ReduceMean_1_input_cast_0 = Cast[to = 1](%/layers.2/final_layer_norm/Pow_output_0)
  %/layers.2/final_layer_norm/ReduceMean_1_output_cast_0 = ReduceMean[axes = [-1]](%/layers.2/final_layer_norm/ReduceMean_1_input_cast_0)
  %/layers.2/final_layer_norm/ReduceMean_1_output_0 = Cast[to = 10](%/layers.2/final_layer_norm/ReduceMean_1_output_cast_0)
  %/layers.2/final_layer_norm/Add_input_cast_0 = Cast[to = 1](%/layers.2/final_layer_norm/ReduceMean_1_output_0)
  %/layers.2/final_layer_norm/Add_output_cast_0 = Add(%/layers.2/final_layer_norm/Add_input_cast_0, %/layers.0/self_attn_layer_norm/Add_input_cast_1)
  %/layers.2/final_layer_norm/Add_output_0 = Cast[to = 10](%/layers.2/final_layer_norm/Add_output_cast_0)
  %/layers.2/final_layer_norm/Sqrt_input_cast_0 = Cast[to = 1](%/layers.2/final_layer_norm/Add_output_0)
  %/layers.2/final_layer_norm/Sqrt_output_cast_0 = Sqrt(%/layers.2/final_layer_norm/Sqrt_input_cast_0)
  %/layers.2/final_layer_norm/Sqrt_output_0 = Cast[to = 10](%/layers.2/final_layer_norm/Sqrt_output_cast_0)
  %/layers.2/final_layer_norm/Div_input_cast_1 = Cast[to = 1](%/layers.2/final_layer_norm/Sqrt_output_0)
  %/layers.2/final_layer_norm/Div_output_cast_0 = Div(%/layers.2/final_layer_norm/Pow_input_cast_0, %/layers.2/final_layer_norm/Div_input_cast_1)
  %/layers.2/final_layer_norm/Div_output_0 = Cast[to = 10](%/layers.2/final_layer_norm/Div_output_cast_0)
  %/layers.2/final_layer_norm/Mul_input_cast_0 = Cast[to = 1](%/layers.2/final_layer_norm/Div_output_0)
  %/layers.2/final_layer_norm/Mul_output_cast_0 = Mul(%/layers.2/final_layer_norm/Mul_input_cast_0, %layers.2.final_layer_norm.weight)
  %/layers.2/final_layer_norm/Mul_output_0 = Cast[to = 10](%/layers.2/final_layer_norm/Mul_output_cast_0)
  %/layers.2/final_layer_norm/Add_1_input_cast_0 = Cast[to = 1](%/layers.2/final_layer_norm/Mul_output_0)
  %/layers.2/final_layer_norm/Add_1_output_cast_0 = Add(%/layers.2/final_layer_norm/Add_1_input_cast_0, %layers.2.final_layer_norm.bias)
  %/layers.2/final_layer_norm/Add_1_output_0 = Cast[to = 10](%/layers.2/final_layer_norm/Add_1_output_cast_0)
  %/layers.2/fc1/MatMul_input_cast_0 = Cast[to = 1](%/layers.2/final_layer_norm/Add_1_output_0)
  %/layers.2/fc1/MatMul_output_cast_0 = MatMul(%/layers.2/fc1/MatMul_input_cast_0, %onnx::MatMul_2885)
  %/layers.2/fc1/MatMul_output_0 = Cast[to = 10](%/layers.2/fc1/MatMul_output_cast_0)
  %/layers.2/fc1/Add_input_cast_1 = Cast[to = 1](%/layers.2/fc1/MatMul_output_0)
  %/layers.2/fc1/Add_output_cast_0 = Add(%layers.2.fc1.bias, %/layers.2/fc1/Add_input_cast_1)
  %/layers.2/fc1/Add_output_0 = Cast[to = 10](%/layers.2/fc1/Add_output_cast_0)
  %/layers.2/activation_fn/Relu_input_cast_0 = Cast[to = 1](%/layers.2/fc1/Add_output_0)
  %/layers.2/activation_fn/Relu_output_cast_0 = Relu(%/layers.2/activation_fn/Relu_input_cast_0)
  %/layers.2/activation_fn/Relu_output_0 = Cast[to = 10](%/layers.2/activation_fn/Relu_output_cast_0)
  %/layers.2/fc2/MatMul_input_cast_0 = Cast[to = 1](%/layers.2/activation_fn/Relu_output_0)
  %/layers.2/fc2/MatMul_output_cast_0 = MatMul(%/layers.2/fc2/MatMul_input_cast_0, %onnx::MatMul_2886)
  %/layers.2/fc2/MatMul_output_0 = Cast[to = 10](%/layers.2/fc2/MatMul_output_cast_0)
  %/layers.2/fc2/Add_input_cast_1 = Cast[to = 1](%/layers.2/fc2/MatMul_output_0)
  %/layers.2/fc2/Add_output_cast_0 = Add(%layers.2.fc2.bias, %/layers.2/fc2/Add_input_cast_1)
  %/layers.2/fc2/Add_output_0 = Cast[to = 10](%/layers.2/fc2/Add_output_cast_0)
  %/layers.2/Add_1_input_cast_1 = Cast[to = 1](%/layers.2/fc2/Add_output_0)
  %/layers.2/Add_1_output_cast_0 = Add(%/layers.2/final_layer_norm/ReduceMean_input_cast_0, %/layers.2/Add_1_input_cast_1)
  %/layers.2/Add_1_output_0 = Cast[to = 10](%/layers.2/Add_1_output_cast_0)
  %/layers.3/self_attn_layer_norm/ReduceMean_input_cast_0 = Cast[to = 1](%/layers.2/Add_1_output_0)
  %/layers.3/self_attn_layer_norm/ReduceMean_output_cast_0 = ReduceMean[axes = [-1]](%/layers.3/self_attn_layer_norm/ReduceMean_input_cast_0)
  %/layers.3/self_attn_layer_norm/ReduceMean_output_0 = Cast[to = 10](%/layers.3/self_attn_layer_norm/ReduceMean_output_cast_0)
  %/layers.3/self_attn_layer_norm/Sub_input_cast_1 = Cast[to = 1](%/layers.3/self_attn_layer_norm/ReduceMean_output_0)
  %/layers.3/self_attn_layer_norm/Sub_output_cast_0 = Sub(%/layers.3/self_attn_layer_norm/ReduceMean_input_cast_0, %/layers.3/self_attn_layer_norm/Sub_input_cast_1)
  %/layers.3/self_attn_layer_norm/Sub_output_0 = Cast[to = 10](%/layers.3/self_attn_layer_norm/Sub_output_cast_0)
  %/layers.3/self_attn_layer_norm/Pow_input_cast_0 = Cast[to = 1](%/layers.3/self_attn_layer_norm/Sub_output_0)
  %/layers.3/self_attn_layer_norm/Pow_output_cast_0 = Pow(%/layers.3/self_attn_layer_norm/Pow_input_cast_0, %/layers.0/self_attn_layer_norm/Pow_input_cast_1)
  %/layers.3/self_attn_layer_norm/Pow_output_0 = Cast[to = 10](%/layers.3/self_attn_layer_norm/Pow_output_cast_0)
  %/layers.3/self_attn_layer_norm/ReduceMean_1_input_cast_0 = Cast[to = 1](%/layers.3/self_attn_layer_norm/Pow_output_0)
  %/layers.3/self_attn_layer_norm/ReduceMean_1_output_cast_0 = ReduceMean[axes = [-1]](%/layers.3/self_attn_layer_norm/ReduceMean_1_input_cast_0)
  %/layers.3/self_attn_layer_norm/ReduceMean_1_output_0 = Cast[to = 10](%/layers.3/self_attn_layer_norm/ReduceMean_1_output_cast_0)
  %/layers.3/self_attn_layer_norm/Add_input_cast_0 = Cast[to = 1](%/layers.3/self_attn_layer_norm/ReduceMean_1_output_0)
  %/layers.3/self_attn_layer_norm/Add_output_cast_0 = Add(%/layers.3/self_attn_layer_norm/Add_input_cast_0, %/layers.0/self_attn_layer_norm/Add_input_cast_1)
  %/layers.3/self_attn_layer_norm/Add_output_0 = Cast[to = 10](%/layers.3/self_attn_layer_norm/Add_output_cast_0)
  %/layers.3/self_attn_layer_norm/Sqrt_input_cast_0 = Cast[to = 1](%/layers.3/self_attn_layer_norm/Add_output_0)
  %/layers.3/self_attn_layer_norm/Sqrt_output_cast_0 = Sqrt(%/layers.3/self_attn_layer_norm/Sqrt_input_cast_0)
  %/layers.3/self_attn_layer_norm/Sqrt_output_0 = Cast[to = 10](%/layers.3/self_attn_layer_norm/Sqrt_output_cast_0)
  %/layers.3/self_attn_layer_norm/Div_input_cast_1 = Cast[to = 1](%/layers.3/self_attn_layer_norm/Sqrt_output_0)
  %/layers.3/self_attn_layer_norm/Div_output_cast_0 = Div(%/layers.3/self_attn_layer_norm/Pow_input_cast_0, %/layers.3/self_attn_layer_norm/Div_input_cast_1)
  %/layers.3/self_attn_layer_norm/Div_output_0 = Cast[to = 10](%/layers.3/self_attn_layer_norm/Div_output_cast_0)
  %/layers.3/self_attn_layer_norm/Mul_input_cast_0 = Cast[to = 1](%/layers.3/self_attn_layer_norm/Div_output_0)
  %/layers.3/self_attn_layer_norm/Mul_output_cast_0 = Mul(%/layers.3/self_attn_layer_norm/Mul_input_cast_0, %layers.3.self_attn_layer_norm.weight)
  %/layers.3/self_attn_layer_norm/Mul_output_0 = Cast[to = 10](%/layers.3/self_attn_layer_norm/Mul_output_cast_0)
  %/layers.3/self_attn_layer_norm/Add_1_input_cast_0 = Cast[to = 1](%/layers.3/self_attn_layer_norm/Mul_output_0)
  %/layers.3/self_attn_layer_norm/Add_1_output_cast_0 = Add(%/layers.3/self_attn_layer_norm/Add_1_input_cast_0, %layers.3.self_attn_layer_norm.bias)
  %/layers.3/self_attn_layer_norm/Add_1_output_0 = Cast[to = 10](%/layers.3/self_attn_layer_norm/Add_1_output_cast_0)
  %/layers.3/self_attn/Shape_output_0 = Shape(%/layers.3/self_attn_layer_norm/Add_1_output_0)
  %/layers.3/self_attn/q_proj/MatMul_input_cast_0 = Cast[to = 1](%/layers.3/self_attn_layer_norm/Add_1_output_0)
  %4400 = MatMul(%/layers.3/self_attn/q_proj/MatMul_input_cast_0, %4399)
  %4401, %4402, %4403 = Split[axis = -1](%4400, %4383)
  %/layers.3/self_attn/Gather_output_0 = Gather[axis = 0](%/layers.3/self_attn/Shape_output_0, %/embed_positions/Constant_output_0)
  %/layers.3/self_attn/Gather_1_output_0 = Gather[axis = 0](%/layers.3/self_attn/Shape_output_0, %/Constant_output_0)
  %/layers.3/self_attn/Unsqueeze_output_0 = Unsqueeze(%/layers.3/self_attn/Gather_output_0, %onnx::Unsqueeze_269)
  %/layers.3/self_attn/Mul_1_output_0 = Mul(%/layers.3/self_attn/Gather_output_0, %/layers.0/self_attn/Constant_9_output_0)
  %/layers.3/self_attn/Unsqueeze_3_output_0 = Unsqueeze(%/layers.3/self_attn/Gather_1_output_0, %onnx::Unsqueeze_269)
  %/layers.3/self_attn/q_proj/MatMul_output_0 = Cast[to = 10](%4401)
  %/layers.3/self_attn/k_proj/MatMul_output_0 = Cast[to = 10](%4402)
  %/layers.3/self_attn/v_proj/MatMul_output_0 = Cast[to = 10](%4403)
  %/layers.3/self_attn/Concat_output_0 = Concat[axis = 0](%/layers.3/self_attn/Unsqueeze_output_0, %/Constant_1_output_0, %/layers.0/self_attn/Constant_4_output_0, %/layers.0/self_attn/Constant_5_output_0)
  %/layers.3/self_attn/Unsqueeze_4_output_0 = Unsqueeze(%/layers.3/self_attn/Mul_1_output_0, %onnx::Unsqueeze_269)
  %/layers.3/self_attn/Concat_2_output_0 = Concat[axis = 0](%/layers.3/self_attn/Unsqueeze_output_0, %/layers.3/self_attn/Unsqueeze_3_output_0, %/layers.0/self_attn/Constant_4_output_0, %/layers.0/self_attn/Constant_5_output_0)
  %/layers.3/self_attn/Concat_8_output_0 = Concat[axis = 0](%/layers.3/self_attn/Unsqueeze_output_0, %/layers.0/self_attn/Constant_4_output_0, %/layers.3/self_attn/Unsqueeze_3_output_0, %/layers.0/self_attn/Constant_5_output_0)
  %/layers.3/self_attn/Concat_9_output_0 = Concat[axis = 0](%/layers.3/self_attn/Unsqueeze_output_0, %/layers.3/self_attn/Unsqueeze_3_output_0, %/layers.0/self_attn/Constant_22_output_0)
  %/layers.3/self_attn/q_proj/Add_input_cast_1 = Cast[to = 1](%/layers.3/self_attn/q_proj/MatMul_output_0)
  %/layers.3/self_attn/k_proj/Add_input_cast_1 = Cast[to = 1](%/layers.3/self_attn/k_proj/MatMul_output_0)
  %/layers.3/self_attn/v_proj/Add_input_cast_1 = Cast[to = 1](%/layers.3/self_attn/v_proj/MatMul_output_0)
  %/layers.3/self_attn/Concat_3_output_0 = Concat[axis = 0](%/layers.3/self_attn/Unsqueeze_4_output_0, %/Constant_1_output_0, %/layers.0/self_attn/Constant_5_output_0)
  %/layers.3/self_attn/q_proj/Add_output_cast_0 = Add(%layers.3.self_attn.q_proj.bias, %/layers.3/self_attn/q_proj/Add_input_cast_1)
  %/layers.3/self_attn/k_proj/Add_output_cast_0 = Add(%layers.3.self_attn.k_proj.bias, %/layers.3/self_attn/k_proj/Add_input_cast_1)
  %/layers.3/self_attn/v_proj/Add_output_cast_0 = Add(%layers.3.self_attn.v_proj.bias, %/layers.3/self_attn/v_proj/Add_input_cast_1)
  %/layers.3/self_attn/q_proj/Add_output_0 = Cast[to = 10](%/layers.3/self_attn/q_proj/Add_output_cast_0)
  %/layers.3/self_attn/k_proj/Add_output_0 = Cast[to = 10](%/layers.3/self_attn/k_proj/Add_output_cast_0)
  %/layers.3/self_attn/v_proj/Add_output_0 = Cast[to = 10](%/layers.3/self_attn/v_proj/Add_output_cast_0)
  %/layers.3/self_attn/Mul_input_cast_0 = Cast[to = 1](%/layers.3/self_attn/q_proj/Add_output_0)
  %/layers.3/self_attn/Reshape_input_cast_0 = Cast[to = 1](%/layers.3/self_attn/k_proj/Add_output_0)
  %/layers.3/self_attn/Reshape_1_input_cast_0 = Cast[to = 1](%/layers.3/self_attn/v_proj/Add_output_0)
  %/layers.3/self_attn/Mul_output_cast_0 = Mul(%/layers.3/self_attn/Mul_input_cast_0, %/layers.0/self_attn/Mul_input_cast_1)
  %/layers.3/self_attn/Reshape_output_cast_0 = Reshape(%/layers.3/self_attn/Reshape_input_cast_0, %/layers.3/self_attn/Concat_output_0)
  %/layers.3/self_attn/Reshape_1_output_cast_0 = Reshape(%/layers.3/self_attn/Reshape_1_input_cast_0, %/layers.3/self_attn/Concat_output_0)
  %/layers.3/self_attn/Mul_output_0 = Cast[to = 10](%/layers.3/self_attn/Mul_output_cast_0)
  %/layers.3/self_attn/Reshape_output_0 = Cast[to = 10](%/layers.3/self_attn/Reshape_output_cast_0)
  %/layers.3/self_attn/Reshape_1_output_0 = Cast[to = 10](%/layers.3/self_attn/Reshape_1_output_cast_0)
  %/layers.3/self_attn/Reshape_2_input_cast_0 = Cast[to = 1](%/layers.3/self_attn/Mul_output_0)
  %/layers.3/self_attn/Transpose_input_cast_0 = Cast[to = 1](%/layers.3/self_attn/Reshape_output_0)
  %/layers.3/self_attn/Transpose_1_input_cast_0 = Cast[to = 1](%/layers.3/self_attn/Reshape_1_output_0)
  %/layers.3/self_attn/Reshape_2_output_cast_0 = Reshape(%/layers.3/self_attn/Reshape_2_input_cast_0, %/layers.3/self_attn/Concat_2_output_0)
  %/layers.3/self_attn/Transpose_output_cast_0 = Transpose[perm = [0, 2, 1, 3]](%/layers.3/self_attn/Transpose_input_cast_0)
  %/layers.3/self_attn/Transpose_1_output_cast_0 = Transpose[perm = [0, 2, 1, 3]](%/layers.3/self_attn/Transpose_1_input_cast_0)
  %/layers.3/self_attn/Reshape_2_output_0 = Cast[to = 10](%/layers.3/self_attn/Reshape_2_output_cast_0)
  %/layers.3/self_attn/Transpose_output_0 = Cast[to = 10](%/layers.3/self_attn/Transpose_output_cast_0)
  %/layers.3/self_attn/Transpose_1_output_0 = Cast[to = 10](%/layers.3/self_attn/Transpose_1_output_cast_0)
  %/layers.3/self_attn/Transpose_2_input_cast_0 = Cast[to = 1](%/layers.3/self_attn/Reshape_2_output_0)
  %/layers.3/self_attn/Reshape_4_input_cast_0 = Cast[to = 1](%/layers.3/self_attn/Transpose_output_0)
  %/layers.3/self_attn/Reshape_5_input_cast_0 = Cast[to = 1](%/layers.3/self_attn/Transpose_1_output_0)
  %/layers.3/self_attn/Transpose_2_output_cast_0 = Transpose[perm = [0, 2, 1, 3]](%/layers.3/self_attn/Transpose_2_input_cast_0)
  %/layers.3/self_attn/Reshape_4_output_cast_0 = Reshape(%/layers.3/self_attn/Reshape_4_input_cast_0, %/layers.3/self_attn/Concat_3_output_0)
  %/layers.3/self_attn/Reshape_5_output_cast_0 = Reshape(%/layers.3/self_attn/Reshape_5_input_cast_0, %/layers.3/self_attn/Concat_3_output_0)
  %/layers.3/self_attn/Transpose_2_output_0 = Cast[to = 10](%/layers.3/self_attn/Transpose_2_output_cast_0)
  %/layers.3/self_attn/Reshape_4_output_0 = Cast[to = 10](%/layers.3/self_attn/Reshape_4_output_cast_0)
  %/layers.3/self_attn/Reshape_5_output_0 = Cast[to = 10](%/layers.3/self_attn/Reshape_5_output_cast_0)
  %/layers.3/self_attn/Reshape_3_input_cast_0 = Cast[to = 1](%/layers.3/self_attn/Transpose_2_output_0)
  %/layers.3/self_attn/Shape_2_output_0 = Shape(%/layers.3/self_attn/Reshape_4_output_0)
  %/layers.3/self_attn/Transpose_3_input_cast_0 = Cast[to = 1](%/layers.3/self_attn/Reshape_4_output_0)
  %/layers.3/self_attn/MatMul_1_input_cast_1 = Cast[to = 1](%/layers.3/self_attn/Reshape_5_output_0)
  %/layers.3/self_attn/Reshape_3_output_cast_0 = Reshape(%/layers.3/self_attn/Reshape_3_input_cast_0, %/layers.3/self_attn/Concat_3_output_0)
  %/layers.3/self_attn/Gather_2_output_0 = Gather[axis = 0](%/layers.3/self_attn/Shape_2_output_0, %/Constant_output_0)
  %/layers.3/self_attn/Transpose_3_output_cast_0 = Transpose[perm = [0, 2, 1]](%/layers.3/self_attn/Transpose_3_input_cast_0)
  %/layers.3/self_attn/Reshape_3_output_0 = Cast[to = 10](%/layers.3/self_attn/Reshape_3_output_cast_0)
  %/layers.3/self_attn/Unsqueeze_9_output_0 = Unsqueeze(%/layers.3/self_attn/Gather_2_output_0, %onnx::Unsqueeze_269)
  %/layers.3/self_attn/Transpose_3_output_0 = Cast[to = 10](%/layers.3/self_attn/Transpose_3_output_cast_0)
  %/layers.3/self_attn/MatMul_input_cast_0 = Cast[to = 1](%/layers.3/self_attn/Reshape_3_output_0)
  %/layers.3/self_attn/Concat_6_output_0 = Concat[axis = 0](%/layers.3/self_attn/Unsqueeze_output_0, %/layers.0/self_attn/Constant_4_output_0, %/layers.3/self_attn/Unsqueeze_3_output_0, %/layers.3/self_attn/Unsqueeze_9_output_0)
  %/layers.3/self_attn/Concat_7_output_0 = Concat[axis = 0](%/layers.3/self_attn/Unsqueeze_4_output_0, %/layers.3/self_attn/Unsqueeze_3_output_0, %/layers.3/self_attn/Unsqueeze_9_output_0)
  %/layers.3/self_attn/MatMul_input_cast_1 = Cast[to = 1](%/layers.3/self_attn/Transpose_3_output_0)
  %/layers.3/self_attn/MatMul_output_cast_0 = MatMul(%/layers.3/self_attn/MatMul_input_cast_0, %/layers.3/self_attn/MatMul_input_cast_1)
  %/layers.3/self_attn/MatMul_output_0 = Cast[to = 10](%/layers.3/self_attn/MatMul_output_cast_0)
  %/layers.3/self_attn/Reshape_6_input_cast_0 = Cast[to = 1](%/layers.3/self_attn/MatMul_output_0)
  %/layers.3/self_attn/Reshape_6_output_cast_0 = Reshape(%/layers.3/self_attn/Reshape_6_input_cast_0, %/layers.3/self_attn/Concat_6_output_0)
  %/layers.3/self_attn/Reshape_6_output_0 = Cast[to = 10](%/layers.3/self_attn/Reshape_6_output_cast_0)
  %/layers.3/self_attn/Add_input_cast_0 = Cast[to = 1](%/layers.3/self_attn/Reshape_6_output_0)
  %/layers.3/self_attn/Add_output_cast_0 = Add(%/layers.3/self_attn/Add_input_cast_0, %/layers.0/self_attn/Add_input_cast_1)
  %/layers.3/self_attn/Add_output_0 = Cast[to = 10](%/layers.3/self_attn/Add_output_cast_0)
  %/layers.3/self_attn/Reshape_7_input_cast_0 = Cast[to = 1](%/layers.3/self_attn/Add_output_0)
  %/layers.3/self_attn/Reshape_7_output_cast_0 = Reshape(%/layers.3/self_attn/Reshape_7_input_cast_0, %/layers.3/self_attn/Concat_7_output_0)
  %/layers.3/self_attn/Reshape_7_output_0 = Cast[to = 10](%/layers.3/self_attn/Reshape_7_output_cast_0)
  %/layers.3/self_attn/Softmax_input_cast_0 = Cast[to = 1](%/layers.3/self_attn/Reshape_7_output_0)
  %/layers.3/self_attn/Softmax_output_cast_0 = Softmax[axis = -1](%/layers.3/self_attn/Softmax_input_cast_0)
  %/layers.3/self_attn/Softmax_output_0 = Cast[to = 10](%/layers.3/self_attn/Softmax_output_cast_0)
  %/layers.3/self_attn/MatMul_1_input_cast_0 = Cast[to = 1](%/layers.3/self_attn/Softmax_output_0)
  %/layers.3/self_attn/MatMul_1_output_cast_0 = MatMul(%/layers.3/self_attn/MatMul_1_input_cast_0, %/layers.3/self_attn/MatMul_1_input_cast_1)
  %/layers.3/self_attn/MatMul_1_output_0 = Cast[to = 10](%/layers.3/self_attn/MatMul_1_output_cast_0)
  %/layers.3/self_attn/Reshape_8_input_cast_0 = Cast[to = 1](%/layers.3/self_attn/MatMul_1_output_0)
  %/layers.3/self_attn/Reshape_8_output_cast_0 = Reshape(%/layers.3/self_attn/Reshape_8_input_cast_0, %/layers.3/self_attn/Concat_8_output_0)
  %/layers.3/self_attn/Reshape_8_output_0 = Cast[to = 10](%/layers.3/self_attn/Reshape_8_output_cast_0)
  %/layers.3/self_attn/Transpose_4_input_cast_0 = Cast[to = 1](%/layers.3/self_attn/Reshape_8_output_0)
  %/layers.3/self_attn/Transpose_4_output_cast_0 = Transpose[perm = [0, 2, 1, 3]](%/layers.3/self_attn/Transpose_4_input_cast_0)
  %/layers.3/self_attn/Transpose_4_output_0 = Cast[to = 10](%/layers.3/self_attn/Transpose_4_output_cast_0)
  %/layers.3/self_attn/Reshape_9_input_cast_0 = Cast[to = 1](%/layers.3/self_attn/Transpose_4_output_0)
  %/layers.3/self_attn/Reshape_9_output_cast_0 = Reshape(%/layers.3/self_attn/Reshape_9_input_cast_0, %/layers.3/self_attn/Concat_9_output_0)
  %/layers.3/self_attn/Reshape_9_output_0 = Cast[to = 10](%/layers.3/self_attn/Reshape_9_output_cast_0)
  %/layers.3/self_attn/out_proj/MatMul_input_cast_0 = Cast[to = 1](%/layers.3/self_attn/Reshape_9_output_0)
  %/layers.3/self_attn/out_proj/MatMul_output_cast_0 = MatMul(%/layers.3/self_attn/out_proj/MatMul_input_cast_0, %onnx::MatMul_2908)
  %/layers.3/self_attn/out_proj/MatMul_output_0 = Cast[to = 10](%/layers.3/self_attn/out_proj/MatMul_output_cast_0)
  %/layers.3/self_attn/out_proj/Add_input_cast_1 = Cast[to = 1](%/layers.3/self_attn/out_proj/MatMul_output_0)
  %/layers.3/self_attn/out_proj/Add_output_cast_0 = Add(%layers.3.self_attn.out_proj.bias, %/layers.3/self_attn/out_proj/Add_input_cast_1)
  %/layers.3/self_attn/out_proj/Add_output_0 = Cast[to = 10](%/layers.3/self_attn/out_proj/Add_output_cast_0)
  %/layers.3/Add_input_cast_1 = Cast[to = 1](%/layers.3/self_attn/out_proj/Add_output_0)
  %/layers.3/Add_output_cast_0 = Add(%/layers.3/self_attn_layer_norm/ReduceMean_input_cast_0, %/layers.3/Add_input_cast_1)
  %/layers.3/Add_output_0 = Cast[to = 10](%/layers.3/Add_output_cast_0)
  %/layers.3/final_layer_norm/ReduceMean_input_cast_0 = Cast[to = 1](%/layers.3/Add_output_0)
  %/layers.3/final_layer_norm/ReduceMean_output_cast_0 = ReduceMean[axes = [-1]](%/layers.3/final_layer_norm/ReduceMean_input_cast_0)
  %/layers.3/final_layer_norm/ReduceMean_output_0 = Cast[to = 10](%/layers.3/final_layer_norm/ReduceMean_output_cast_0)
  %/layers.3/final_layer_norm/Sub_input_cast_1 = Cast[to = 1](%/layers.3/final_layer_norm/ReduceMean_output_0)
  %/layers.3/final_layer_norm/Sub_output_cast_0 = Sub(%/layers.3/final_layer_norm/ReduceMean_input_cast_0, %/layers.3/final_layer_norm/Sub_input_cast_1)
  %/layers.3/final_layer_norm/Sub_output_0 = Cast[to = 10](%/layers.3/final_layer_norm/Sub_output_cast_0)
  %/layers.3/final_layer_norm/Pow_input_cast_0 = Cast[to = 1](%/layers.3/final_layer_norm/Sub_output_0)
  %/layers.3/final_layer_norm/Pow_output_cast_0 = Pow(%/layers.3/final_layer_norm/Pow_input_cast_0, %/layers.0/self_attn_layer_norm/Pow_input_cast_1)
  %/layers.3/final_layer_norm/Pow_output_0 = Cast[to = 10](%/layers.3/final_layer_norm/Pow_output_cast_0)
  %/layers.3/final_layer_norm/ReduceMean_1_input_cast_0 = Cast[to = 1](%/layers.3/final_layer_norm/Pow_output_0)
  %/layers.3/final_layer_norm/ReduceMean_1_output_cast_0 = ReduceMean[axes = [-1]](%/layers.3/final_layer_norm/ReduceMean_1_input_cast_0)
  %/layers.3/final_layer_norm/ReduceMean_1_output_0 = Cast[to = 10](%/layers.3/final_layer_norm/ReduceMean_1_output_cast_0)
  %/layers.3/final_layer_norm/Add_input_cast_0 = Cast[to = 1](%/layers.3/final_layer_norm/ReduceMean_1_output_0)
  %/layers.3/final_layer_norm/Add_output_cast_0 = Add(%/layers.3/final_layer_norm/Add_input_cast_0, %/layers.0/self_attn_layer_norm/Add_input_cast_1)
  %/layers.3/final_layer_norm/Add_output_0 = Cast[to = 10](%/layers.3/final_layer_norm/Add_output_cast_0)
  %/layers.3/final_layer_norm/Sqrt_input_cast_0 = Cast[to = 1](%/layers.3/final_layer_norm/Add_output_0)
  %/layers.3/final_layer_norm/Sqrt_output_cast_0 = Sqrt(%/layers.3/final_layer_norm/Sqrt_input_cast_0)
  %/layers.3/final_layer_norm/Sqrt_output_0 = Cast[to = 10](%/layers.3/final_layer_norm/Sqrt_output_cast_0)
  %/layers.3/final_layer_norm/Div_input_cast_1 = Cast[to = 1](%/layers.3/final_layer_norm/Sqrt_output_0)
  %/layers.3/final_layer_norm/Div_output_cast_0 = Div(%/layers.3/final_layer_norm/Pow_input_cast_0, %/layers.3/final_layer_norm/Div_input_cast_1)
  %/layers.3/final_layer_norm/Div_output_0 = Cast[to = 10](%/layers.3/final_layer_norm/Div_output_cast_0)
  %/layers.3/final_layer_norm/Mul_input_cast_0 = Cast[to = 1](%/layers.3/final_layer_norm/Div_output_0)
  %/layers.3/final_layer_norm/Mul_output_cast_0 = Mul(%/layers.3/final_layer_norm/Mul_input_cast_0, %layers.3.final_layer_norm.weight)
  %/layers.3/final_layer_norm/Mul_output_0 = Cast[to = 10](%/layers.3/final_layer_norm/Mul_output_cast_0)
  %/layers.3/final_layer_norm/Add_1_input_cast_0 = Cast[to = 1](%/layers.3/final_layer_norm/Mul_output_0)
  %/layers.3/final_layer_norm/Add_1_output_cast_0 = Add(%/layers.3/final_layer_norm/Add_1_input_cast_0, %layers.3.final_layer_norm.bias)
  %/layers.3/final_layer_norm/Add_1_output_0 = Cast[to = 10](%/layers.3/final_layer_norm/Add_1_output_cast_0)
  %/layers.3/fc1/MatMul_input_cast_0 = Cast[to = 1](%/layers.3/final_layer_norm/Add_1_output_0)
  %/layers.3/fc1/MatMul_output_cast_0 = MatMul(%/layers.3/fc1/MatMul_input_cast_0, %onnx::MatMul_2909)
  %/layers.3/fc1/MatMul_output_0 = Cast[to = 10](%/layers.3/fc1/MatMul_output_cast_0)
  %/layers.3/fc1/Add_input_cast_1 = Cast[to = 1](%/layers.3/fc1/MatMul_output_0)
  %/layers.3/fc1/Add_output_cast_0 = Add(%layers.3.fc1.bias, %/layers.3/fc1/Add_input_cast_1)
  %/layers.3/fc1/Add_output_0 = Cast[to = 10](%/layers.3/fc1/Add_output_cast_0)
  %/layers.3/activation_fn/Relu_input_cast_0 = Cast[to = 1](%/layers.3/fc1/Add_output_0)
  %/layers.3/activation_fn/Relu_output_cast_0 = Relu(%/layers.3/activation_fn/Relu_input_cast_0)
  %/layers.3/activation_fn/Relu_output_0 = Cast[to = 10](%/layers.3/activation_fn/Relu_output_cast_0)
  %/layers.3/fc2/MatMul_input_cast_0 = Cast[to = 1](%/layers.3/activation_fn/Relu_output_0)
  %/layers.3/fc2/MatMul_output_cast_0 = MatMul(%/layers.3/fc2/MatMul_input_cast_0, %onnx::MatMul_2910)
  %/layers.3/fc2/MatMul_output_0 = Cast[to = 10](%/layers.3/fc2/MatMul_output_cast_0)
  %/layers.3/fc2/Add_input_cast_1 = Cast[to = 1](%/layers.3/fc2/MatMul_output_0)
  %/layers.3/fc2/Add_output_cast_0 = Add(%layers.3.fc2.bias, %/layers.3/fc2/Add_input_cast_1)
  %/layers.3/fc2/Add_output_0 = Cast[to = 10](%/layers.3/fc2/Add_output_cast_0)
  %/layers.3/Add_1_input_cast_1 = Cast[to = 1](%/layers.3/fc2/Add_output_0)
  %/layers.3/Add_1_output_cast_0 = Add(%/layers.3/final_layer_norm/ReduceMean_input_cast_0, %/layers.3/Add_1_input_cast_1)
  %/layers.3/Add_1_output_0 = Cast[to = 10](%/layers.3/Add_1_output_cast_0)
  %/layers.4/self_attn_layer_norm/ReduceMean_input_cast_0 = Cast[to = 1](%/layers.3/Add_1_output_0)
  %/layers.4/self_attn_layer_norm/ReduceMean_output_cast_0 = ReduceMean[axes = [-1]](%/layers.4/self_attn_layer_norm/ReduceMean_input_cast_0)
  %/layers.4/self_attn_layer_norm/ReduceMean_output_0 = Cast[to = 10](%/layers.4/self_attn_layer_norm/ReduceMean_output_cast_0)
  %/layers.4/self_attn_layer_norm/Sub_input_cast_1 = Cast[to = 1](%/layers.4/self_attn_layer_norm/ReduceMean_output_0)
  %/layers.4/self_attn_layer_norm/Sub_output_cast_0 = Sub(%/layers.4/self_attn_layer_norm/ReduceMean_input_cast_0, %/layers.4/self_attn_layer_norm/Sub_input_cast_1)
  %/layers.4/self_attn_layer_norm/Sub_output_0 = Cast[to = 10](%/layers.4/self_attn_layer_norm/Sub_output_cast_0)
  %/layers.4/self_attn_layer_norm/Pow_input_cast_0 = Cast[to = 1](%/layers.4/self_attn_layer_norm/Sub_output_0)
  %/layers.4/self_attn_layer_norm/Pow_output_cast_0 = Pow(%/layers.4/self_attn_layer_norm/Pow_input_cast_0, %/layers.0/self_attn_layer_norm/Pow_input_cast_1)
  %/layers.4/self_attn_layer_norm/Pow_output_0 = Cast[to = 10](%/layers.4/self_attn_layer_norm/Pow_output_cast_0)
  %/layers.4/self_attn_layer_norm/ReduceMean_1_input_cast_0 = Cast[to = 1](%/layers.4/self_attn_layer_norm/Pow_output_0)
  %/layers.4/self_attn_layer_norm/ReduceMean_1_output_cast_0 = ReduceMean[axes = [-1]](%/layers.4/self_attn_layer_norm/ReduceMean_1_input_cast_0)
  %/layers.4/self_attn_layer_norm/ReduceMean_1_output_0 = Cast[to = 10](%/layers.4/self_attn_layer_norm/ReduceMean_1_output_cast_0)
  %/layers.4/self_attn_layer_norm/Add_input_cast_0 = Cast[to = 1](%/layers.4/self_attn_layer_norm/ReduceMean_1_output_0)
  %/layers.4/self_attn_layer_norm/Add_output_cast_0 = Add(%/layers.4/self_attn_layer_norm/Add_input_cast_0, %/layers.0/self_attn_layer_norm/Add_input_cast_1)
  %/layers.4/self_attn_layer_norm/Add_output_0 = Cast[to = 10](%/layers.4/self_attn_layer_norm/Add_output_cast_0)
  %/layers.4/self_attn_layer_norm/Sqrt_input_cast_0 = Cast[to = 1](%/layers.4/self_attn_layer_norm/Add_output_0)
  %/layers.4/self_attn_layer_norm/Sqrt_output_cast_0 = Sqrt(%/layers.4/self_attn_layer_norm/Sqrt_input_cast_0)
  %/layers.4/self_attn_layer_norm/Sqrt_output_0 = Cast[to = 10](%/layers.4/self_attn_layer_norm/Sqrt_output_cast_0)
  %/layers.4/self_attn_layer_norm/Div_input_cast_1 = Cast[to = 1](%/layers.4/self_attn_layer_norm/Sqrt_output_0)
  %/layers.4/self_attn_layer_norm/Div_output_cast_0 = Div(%/layers.4/self_attn_layer_norm/Pow_input_cast_0, %/layers.4/self_attn_layer_norm/Div_input_cast_1)
  %/layers.4/self_attn_layer_norm/Div_output_0 = Cast[to = 10](%/layers.4/self_attn_layer_norm/Div_output_cast_0)
  %/layers.4/self_attn_layer_norm/Mul_input_cast_0 = Cast[to = 1](%/layers.4/self_attn_layer_norm/Div_output_0)
  %/layers.4/self_attn_layer_norm/Mul_output_cast_0 = Mul(%/layers.4/self_attn_layer_norm/Mul_input_cast_0, %layers.4.self_attn_layer_norm.weight)
  %/layers.4/self_attn_layer_norm/Mul_output_0 = Cast[to = 10](%/layers.4/self_attn_layer_norm/Mul_output_cast_0)
  %/layers.4/self_attn_layer_norm/Add_1_input_cast_0 = Cast[to = 1](%/layers.4/self_attn_layer_norm/Mul_output_0)
  %/layers.4/self_attn_layer_norm/Add_1_output_cast_0 = Add(%/layers.4/self_attn_layer_norm/Add_1_input_cast_0, %layers.4.self_attn_layer_norm.bias)
  %/layers.4/self_attn_layer_norm/Add_1_output_0 = Cast[to = 10](%/layers.4/self_attn_layer_norm/Add_1_output_cast_0)
  %/layers.4/self_attn/Shape_output_0 = Shape(%/layers.4/self_attn_layer_norm/Add_1_output_0)
  %/layers.4/self_attn/q_proj/MatMul_input_cast_0 = Cast[to = 1](%/layers.4/self_attn_layer_norm/Add_1_output_0)
  %4407 = MatMul(%/layers.4/self_attn/q_proj/MatMul_input_cast_0, %4406)
  %4408, %4409, %4410 = Split[axis = -1](%4407, %4383)
  %/layers.4/self_attn/Gather_output_0 = Gather[axis = 0](%/layers.4/self_attn/Shape_output_0, %/embed_positions/Constant_output_0)
  %/layers.4/self_attn/Gather_1_output_0 = Gather[axis = 0](%/layers.4/self_attn/Shape_output_0, %/Constant_output_0)
  %/layers.4/self_attn/Unsqueeze_output_0 = Unsqueeze(%/layers.4/self_attn/Gather_output_0, %onnx::Unsqueeze_269)
  %/layers.4/self_attn/Mul_1_output_0 = Mul(%/layers.4/self_attn/Gather_output_0, %/layers.0/self_attn/Constant_9_output_0)
  %/layers.4/self_attn/Unsqueeze_3_output_0 = Unsqueeze(%/layers.4/self_attn/Gather_1_output_0, %onnx::Unsqueeze_269)
  %/layers.4/self_attn/q_proj/MatMul_output_0 = Cast[to = 10](%4408)
  %/layers.4/self_attn/k_proj/MatMul_output_0 = Cast[to = 10](%4409)
  %/layers.4/self_attn/v_proj/MatMul_output_0 = Cast[to = 10](%4410)
  %/layers.4/self_attn/Concat_output_0 = Concat[axis = 0](%/layers.4/self_attn/Unsqueeze_output_0, %/Constant_1_output_0, %/layers.0/self_attn/Constant_4_output_0, %/layers.0/self_attn/Constant_5_output_0)
  %/layers.4/self_attn/Unsqueeze_4_output_0 = Unsqueeze(%/layers.4/self_attn/Mul_1_output_0, %onnx::Unsqueeze_269)
  %/layers.4/self_attn/Concat_2_output_0 = Concat[axis = 0](%/layers.4/self_attn/Unsqueeze_output_0, %/layers.4/self_attn/Unsqueeze_3_output_0, %/layers.0/self_attn/Constant_4_output_0, %/layers.0/self_attn/Constant_5_output_0)
  %/layers.4/self_attn/Concat_8_output_0 = Concat[axis = 0](%/layers.4/self_attn/Unsqueeze_output_0, %/layers.0/self_attn/Constant_4_output_0, %/layers.4/self_attn/Unsqueeze_3_output_0, %/layers.0/self_attn/Constant_5_output_0)
  %/layers.4/self_attn/Concat_9_output_0 = Concat[axis = 0](%/layers.4/self_attn/Unsqueeze_output_0, %/layers.4/self_attn/Unsqueeze_3_output_0, %/layers.0/self_attn/Constant_22_output_0)
  %/layers.4/self_attn/q_proj/Add_input_cast_1 = Cast[to = 1](%/layers.4/self_attn/q_proj/MatMul_output_0)
  %/layers.4/self_attn/k_proj/Add_input_cast_1 = Cast[to = 1](%/layers.4/self_attn/k_proj/MatMul_output_0)
  %/layers.4/self_attn/v_proj/Add_input_cast_1 = Cast[to = 1](%/layers.4/self_attn/v_proj/MatMul_output_0)
  %/layers.4/self_attn/Concat_3_output_0 = Concat[axis = 0](%/layers.4/self_attn/Unsqueeze_4_output_0, %/Constant_1_output_0, %/layers.0/self_attn/Constant_5_output_0)
  %/layers.4/self_attn/q_proj/Add_output_cast_0 = Add(%layers.4.self_attn.q_proj.bias, %/layers.4/self_attn/q_proj/Add_input_cast_1)
  %/layers.4/self_attn/k_proj/Add_output_cast_0 = Add(%layers.4.self_attn.k_proj.bias, %/layers.4/self_attn/k_proj/Add_input_cast_1)
  %/layers.4/self_attn/v_proj/Add_output_cast_0 = Add(%layers.4.self_attn.v_proj.bias, %/layers.4/self_attn/v_proj/Add_input_cast_1)
  %/layers.4/self_attn/q_proj/Add_output_0 = Cast[to = 10](%/layers.4/self_attn/q_proj/Add_output_cast_0)
  %/layers.4/self_attn/k_proj/Add_output_0 = Cast[to = 10](%/layers.4/self_attn/k_proj/Add_output_cast_0)
  %/layers.4/self_attn/v_proj/Add_output_0 = Cast[to = 10](%/layers.4/self_attn/v_proj/Add_output_cast_0)
  %/layers.4/self_attn/Mul_input_cast_0 = Cast[to = 1](%/layers.4/self_attn/q_proj/Add_output_0)
  %/layers.4/self_attn/Reshape_input_cast_0 = Cast[to = 1](%/layers.4/self_attn/k_proj/Add_output_0)
  %/layers.4/self_attn/Reshape_1_input_cast_0 = Cast[to = 1](%/layers.4/self_attn/v_proj/Add_output_0)
  %/layers.4/self_attn/Mul_output_cast_0 = Mul(%/layers.4/self_attn/Mul_input_cast_0, %/layers.0/self_attn/Mul_input_cast_1)
  %/layers.4/self_attn/Reshape_output_cast_0 = Reshape(%/layers.4/self_attn/Reshape_input_cast_0, %/layers.4/self_attn/Concat_output_0)
  %/layers.4/self_attn/Reshape_1_output_cast_0 = Reshape(%/layers.4/self_attn/Reshape_1_input_cast_0, %/layers.4/self_attn/Concat_output_0)
  %/layers.4/self_attn/Mul_output_0 = Cast[to = 10](%/layers.4/self_attn/Mul_output_cast_0)
  %/layers.4/self_attn/Reshape_output_0 = Cast[to = 10](%/layers.4/self_attn/Reshape_output_cast_0)
  %/layers.4/self_attn/Reshape_1_output_0 = Cast[to = 10](%/layers.4/self_attn/Reshape_1_output_cast_0)
  %/layers.4/self_attn/Reshape_2_input_cast_0 = Cast[to = 1](%/layers.4/self_attn/Mul_output_0)
  %/layers.4/self_attn/Transpose_input_cast_0 = Cast[to = 1](%/layers.4/self_attn/Reshape_output_0)
  %/layers.4/self_attn/Transpose_1_input_cast_0 = Cast[to = 1](%/layers.4/self_attn/Reshape_1_output_0)
  %/layers.4/self_attn/Reshape_2_output_cast_0 = Reshape(%/layers.4/self_attn/Reshape_2_input_cast_0, %/layers.4/self_attn/Concat_2_output_0)
  %/layers.4/self_attn/Transpose_output_cast_0 = Transpose[perm = [0, 2, 1, 3]](%/layers.4/self_attn/Transpose_input_cast_0)
  %/layers.4/self_attn/Transpose_1_output_cast_0 = Transpose[perm = [0, 2, 1, 3]](%/layers.4/self_attn/Transpose_1_input_cast_0)
  %/layers.4/self_attn/Reshape_2_output_0 = Cast[to = 10](%/layers.4/self_attn/Reshape_2_output_cast_0)
  %/layers.4/self_attn/Transpose_output_0 = Cast[to = 10](%/layers.4/self_attn/Transpose_output_cast_0)
  %/layers.4/self_attn/Transpose_1_output_0 = Cast[to = 10](%/layers.4/self_attn/Transpose_1_output_cast_0)
  %/layers.4/self_attn/Transpose_2_input_cast_0 = Cast[to = 1](%/layers.4/self_attn/Reshape_2_output_0)
  %/layers.4/self_attn/Reshape_4_input_cast_0 = Cast[to = 1](%/layers.4/self_attn/Transpose_output_0)
  %/layers.4/self_attn/Reshape_5_input_cast_0 = Cast[to = 1](%/layers.4/self_attn/Transpose_1_output_0)
  %/layers.4/self_attn/Transpose_2_output_cast_0 = Transpose[perm = [0, 2, 1, 3]](%/layers.4/self_attn/Transpose_2_input_cast_0)
  %/layers.4/self_attn/Reshape_4_output_cast_0 = Reshape(%/layers.4/self_attn/Reshape_4_input_cast_0, %/layers.4/self_attn/Concat_3_output_0)
  %/layers.4/self_attn/Reshape_5_output_cast_0 = Reshape(%/layers.4/self_attn/Reshape_5_input_cast_0, %/layers.4/self_attn/Concat_3_output_0)
  %/layers.4/self_attn/Transpose_2_output_0 = Cast[to = 10](%/layers.4/self_attn/Transpose_2_output_cast_0)
  %/layers.4/self_attn/Reshape_4_output_0 = Cast[to = 10](%/layers.4/self_attn/Reshape_4_output_cast_0)
  %/layers.4/self_attn/Reshape_5_output_0 = Cast[to = 10](%/layers.4/self_attn/Reshape_5_output_cast_0)
  %/layers.4/self_attn/Reshape_3_input_cast_0 = Cast[to = 1](%/layers.4/self_attn/Transpose_2_output_0)
  %/layers.4/self_attn/Shape_2_output_0 = Shape(%/layers.4/self_attn/Reshape_4_output_0)
  %/layers.4/self_attn/Transpose_3_input_cast_0 = Cast[to = 1](%/layers.4/self_attn/Reshape_4_output_0)
  %/layers.4/self_attn/MatMul_1_input_cast_1 = Cast[to = 1](%/layers.4/self_attn/Reshape_5_output_0)
  %/layers.4/self_attn/Reshape_3_output_cast_0 = Reshape(%/layers.4/self_attn/Reshape_3_input_cast_0, %/layers.4/self_attn/Concat_3_output_0)
  %/layers.4/self_attn/Gather_2_output_0 = Gather[axis = 0](%/layers.4/self_attn/Shape_2_output_0, %/Constant_output_0)
  %/layers.4/self_attn/Transpose_3_output_cast_0 = Transpose[perm = [0, 2, 1]](%/layers.4/self_attn/Transpose_3_input_cast_0)
  %/layers.4/self_attn/Reshape_3_output_0 = Cast[to = 10](%/layers.4/self_attn/Reshape_3_output_cast_0)
  %/layers.4/self_attn/Unsqueeze_9_output_0 = Unsqueeze(%/layers.4/self_attn/Gather_2_output_0, %onnx::Unsqueeze_269)
  %/layers.4/self_attn/Transpose_3_output_0 = Cast[to = 10](%/layers.4/self_attn/Transpose_3_output_cast_0)
  %/layers.4/self_attn/MatMul_input_cast_0 = Cast[to = 1](%/layers.4/self_attn/Reshape_3_output_0)
  %/layers.4/self_attn/Concat_6_output_0 = Concat[axis = 0](%/layers.4/self_attn/Unsqueeze_output_0, %/layers.0/self_attn/Constant_4_output_0, %/layers.4/self_attn/Unsqueeze_3_output_0, %/layers.4/self_attn/Unsqueeze_9_output_0)
  %/layers.4/self_attn/Concat_7_output_0 = Concat[axis = 0](%/layers.4/self_attn/Unsqueeze_4_output_0, %/layers.4/self_attn/Unsqueeze_3_output_0, %/layers.4/self_attn/Unsqueeze_9_output_0)
  %/layers.4/self_attn/MatMul_input_cast_1 = Cast[to = 1](%/layers.4/self_attn/Transpose_3_output_0)
  %/layers.4/self_attn/MatMul_output_cast_0 = MatMul(%/layers.4/self_attn/MatMul_input_cast_0, %/layers.4/self_attn/MatMul_input_cast_1)
  %/layers.4/self_attn/MatMul_output_0 = Cast[to = 10](%/layers.4/self_attn/MatMul_output_cast_0)
  %/layers.4/self_attn/Reshape_6_input_cast_0 = Cast[to = 1](%/layers.4/self_attn/MatMul_output_0)
  %/layers.4/self_attn/Reshape_6_output_cast_0 = Reshape(%/layers.4/self_attn/Reshape_6_input_cast_0, %/layers.4/self_attn/Concat_6_output_0)
  %/layers.4/self_attn/Reshape_6_output_0 = Cast[to = 10](%/layers.4/self_attn/Reshape_6_output_cast_0)
  %/layers.4/self_attn/Add_input_cast_0 = Cast[to = 1](%/layers.4/self_attn/Reshape_6_output_0)
  %/layers.4/self_attn/Add_output_cast_0 = Add(%/layers.4/self_attn/Add_input_cast_0, %/layers.0/self_attn/Add_input_cast_1)
  %/layers.4/self_attn/Add_output_0 = Cast[to = 10](%/layers.4/self_attn/Add_output_cast_0)
  %/layers.4/self_attn/Reshape_7_input_cast_0 = Cast[to = 1](%/layers.4/self_attn/Add_output_0)
  %/layers.4/self_attn/Reshape_7_output_cast_0 = Reshape(%/layers.4/self_attn/Reshape_7_input_cast_0, %/layers.4/self_attn/Concat_7_output_0)
  %/layers.4/self_attn/Reshape_7_output_0 = Cast[to = 10](%/layers.4/self_attn/Reshape_7_output_cast_0)
  %/layers.4/self_attn/Softmax_input_cast_0 = Cast[to = 1](%/layers.4/self_attn/Reshape_7_output_0)
  %/layers.4/self_attn/Softmax_output_cast_0 = Softmax[axis = -1](%/layers.4/self_attn/Softmax_input_cast_0)
  %/layers.4/self_attn/Softmax_output_0 = Cast[to = 10](%/layers.4/self_attn/Softmax_output_cast_0)
  %/layers.4/self_attn/MatMul_1_input_cast_0 = Cast[to = 1](%/layers.4/self_attn/Softmax_output_0)
  %/layers.4/self_attn/MatMul_1_output_cast_0 = MatMul(%/layers.4/self_attn/MatMul_1_input_cast_0, %/layers.4/self_attn/MatMul_1_input_cast_1)
  %/layers.4/self_attn/MatMul_1_output_0 = Cast[to = 10](%/layers.4/self_attn/MatMul_1_output_cast_0)
  %/layers.4/self_attn/Reshape_8_input_cast_0 = Cast[to = 1](%/layers.4/self_attn/MatMul_1_output_0)
  %/layers.4/self_attn/Reshape_8_output_cast_0 = Reshape(%/layers.4/self_attn/Reshape_8_input_cast_0, %/layers.4/self_attn/Concat_8_output_0)
  %/layers.4/self_attn/Reshape_8_output_0 = Cast[to = 10](%/layers.4/self_attn/Reshape_8_output_cast_0)
  %/layers.4/self_attn/Transpose_4_input_cast_0 = Cast[to = 1](%/layers.4/self_attn/Reshape_8_output_0)
  %/layers.4/self_attn/Transpose_4_output_cast_0 = Transpose[perm = [0, 2, 1, 3]](%/layers.4/self_attn/Transpose_4_input_cast_0)
  %/layers.4/self_attn/Transpose_4_output_0 = Cast[to = 10](%/layers.4/self_attn/Transpose_4_output_cast_0)
  %/layers.4/self_attn/Reshape_9_input_cast_0 = Cast[to = 1](%/layers.4/self_attn/Transpose_4_output_0)
  %/layers.4/self_attn/Reshape_9_output_cast_0 = Reshape(%/layers.4/self_attn/Reshape_9_input_cast_0, %/layers.4/self_attn/Concat_9_output_0)
  %/layers.4/self_attn/Reshape_9_output_0 = Cast[to = 10](%/layers.4/self_attn/Reshape_9_output_cast_0)
  %/layers.4/self_attn/out_proj/MatMul_input_cast_0 = Cast[to = 1](%/layers.4/self_attn/Reshape_9_output_0)
  %/layers.4/self_attn/out_proj/MatMul_output_cast_0 = MatMul(%/layers.4/self_attn/out_proj/MatMul_input_cast_0, %onnx::MatMul_2932)
  %/layers.4/self_attn/out_proj/MatMul_output_0 = Cast[to = 10](%/layers.4/self_attn/out_proj/MatMul_output_cast_0)
  %/layers.4/self_attn/out_proj/Add_input_cast_1 = Cast[to = 1](%/layers.4/self_attn/out_proj/MatMul_output_0)
  %/layers.4/self_attn/out_proj/Add_output_cast_0 = Add(%layers.4.self_attn.out_proj.bias, %/layers.4/self_attn/out_proj/Add_input_cast_1)
  %/layers.4/self_attn/out_proj/Add_output_0 = Cast[to = 10](%/layers.4/self_attn/out_proj/Add_output_cast_0)
  %/layers.4/Add_input_cast_1 = Cast[to = 1](%/layers.4/self_attn/out_proj/Add_output_0)
  %/layers.4/Add_output_cast_0 = Add(%/layers.4/self_attn_layer_norm/ReduceMean_input_cast_0, %/layers.4/Add_input_cast_1)
  %/layers.4/Add_output_0 = Cast[to = 10](%/layers.4/Add_output_cast_0)
  %/layers.4/final_layer_norm/ReduceMean_input_cast_0 = Cast[to = 1](%/layers.4/Add_output_0)
  %/layers.4/final_layer_norm/ReduceMean_output_cast_0 = ReduceMean[axes = [-1]](%/layers.4/final_layer_norm/ReduceMean_input_cast_0)
  %/layers.4/final_layer_norm/ReduceMean_output_0 = Cast[to = 10](%/layers.4/final_layer_norm/ReduceMean_output_cast_0)
  %/layers.4/final_layer_norm/Sub_input_cast_1 = Cast[to = 1](%/layers.4/final_layer_norm/ReduceMean_output_0)
  %/layers.4/final_layer_norm/Sub_output_cast_0 = Sub(%/layers.4/final_layer_norm/ReduceMean_input_cast_0, %/layers.4/final_layer_norm/Sub_input_cast_1)
  %/layers.4/final_layer_norm/Sub_output_0 = Cast[to = 10](%/layers.4/final_layer_norm/Sub_output_cast_0)
  %/layers.4/final_layer_norm/Pow_input_cast_0 = Cast[to = 1](%/layers.4/final_layer_norm/Sub_output_0)
  %/layers.4/final_layer_norm/Pow_output_cast_0 = Pow(%/layers.4/final_layer_norm/Pow_input_cast_0, %/layers.0/self_attn_layer_norm/Pow_input_cast_1)
  %/layers.4/final_layer_norm/Pow_output_0 = Cast[to = 10](%/layers.4/final_layer_norm/Pow_output_cast_0)
  %/layers.4/final_layer_norm/ReduceMean_1_input_cast_0 = Cast[to = 1](%/layers.4/final_layer_norm/Pow_output_0)
  %/layers.4/final_layer_norm/ReduceMean_1_output_cast_0 = ReduceMean[axes = [-1]](%/layers.4/final_layer_norm/ReduceMean_1_input_cast_0)
  %/layers.4/final_layer_norm/ReduceMean_1_output_0 = Cast[to = 10](%/layers.4/final_layer_norm/ReduceMean_1_output_cast_0)
  %/layers.4/final_layer_norm/Add_input_cast_0 = Cast[to = 1](%/layers.4/final_layer_norm/ReduceMean_1_output_0)
  %/layers.4/final_layer_norm/Add_output_cast_0 = Add(%/layers.4/final_layer_norm/Add_input_cast_0, %/layers.0/self_attn_layer_norm/Add_input_cast_1)
  %/layers.4/final_layer_norm/Add_output_0 = Cast[to = 10](%/layers.4/final_layer_norm/Add_output_cast_0)
  %/layers.4/final_layer_norm/Sqrt_input_cast_0 = Cast[to = 1](%/layers.4/final_layer_norm/Add_output_0)
  %/layers.4/final_layer_norm/Sqrt_output_cast_0 = Sqrt(%/layers.4/final_layer_norm/Sqrt_input_cast_0)
  %/layers.4/final_layer_norm/Sqrt_output_0 = Cast[to = 10](%/layers.4/final_layer_norm/Sqrt_output_cast_0)
  %/layers.4/final_layer_norm/Div_input_cast_1 = Cast[to = 1](%/layers.4/final_layer_norm/Sqrt_output_0)
  %/layers.4/final_layer_norm/Div_output_cast_0 = Div(%/layers.4/final_layer_norm/Pow_input_cast_0, %/layers.4/final_layer_norm/Div_input_cast_1)
  %/layers.4/final_layer_norm/Div_output_0 = Cast[to = 10](%/layers.4/final_layer_norm/Div_output_cast_0)
  %/layers.4/final_layer_norm/Mul_input_cast_0 = Cast[to = 1](%/layers.4/final_layer_norm/Div_output_0)
  %/layers.4/final_layer_norm/Mul_output_cast_0 = Mul(%/layers.4/final_layer_norm/Mul_input_cast_0, %layers.4.final_layer_norm.weight)
  %/layers.4/final_layer_norm/Mul_output_0 = Cast[to = 10](%/layers.4/final_layer_norm/Mul_output_cast_0)
  %/layers.4/final_layer_norm/Add_1_input_cast_0 = Cast[to = 1](%/layers.4/final_layer_norm/Mul_output_0)
  %/layers.4/final_layer_norm/Add_1_output_cast_0 = Add(%/layers.4/final_layer_norm/Add_1_input_cast_0, %layers.4.final_layer_norm.bias)
  %/layers.4/final_layer_norm/Add_1_output_0 = Cast[to = 10](%/layers.4/final_layer_norm/Add_1_output_cast_0)
  %/layers.4/fc1/MatMul_input_cast_0 = Cast[to = 1](%/layers.4/final_layer_norm/Add_1_output_0)
  %/layers.4/fc1/MatMul_output_cast_0 = MatMul(%/layers.4/fc1/MatMul_input_cast_0, %onnx::MatMul_2933)
  %/layers.4/fc1/MatMul_output_0 = Cast[to = 10](%/layers.4/fc1/MatMul_output_cast_0)
  %/layers.4/fc1/Add_input_cast_1 = Cast[to = 1](%/layers.4/fc1/MatMul_output_0)
  %/layers.4/fc1/Add_output_cast_0 = Add(%layers.4.fc1.bias, %/layers.4/fc1/Add_input_cast_1)
  %/layers.4/fc1/Add_output_0 = Cast[to = 10](%/layers.4/fc1/Add_output_cast_0)
  %/layers.4/activation_fn/Relu_input_cast_0 = Cast[to = 1](%/layers.4/fc1/Add_output_0)
  %/layers.4/activation_fn/Relu_output_cast_0 = Relu(%/layers.4/activation_fn/Relu_input_cast_0)
  %/layers.4/activation_fn/Relu_output_0 = Cast[to = 10](%/layers.4/activation_fn/Relu_output_cast_0)
  %/layers.4/fc2/MatMul_input_cast_0 = Cast[to = 1](%/layers.4/activation_fn/Relu_output_0)
  %/layers.4/fc2/MatMul_output_cast_0 = MatMul(%/layers.4/fc2/MatMul_input_cast_0, %onnx::MatMul_2934)
  %/layers.4/fc2/MatMul_output_0 = Cast[to = 10](%/layers.4/fc2/MatMul_output_cast_0)
  %/layers.4/fc2/Add_input_cast_1 = Cast[to = 1](%/layers.4/fc2/MatMul_output_0)
  %/layers.4/fc2/Add_output_cast_0 = Add(%layers.4.fc2.bias, %/layers.4/fc2/Add_input_cast_1)
  %/layers.4/fc2/Add_output_0 = Cast[to = 10](%/layers.4/fc2/Add_output_cast_0)
  %/layers.4/Add_1_input_cast_1 = Cast[to = 1](%/layers.4/fc2/Add_output_0)
  %/layers.4/Add_1_output_cast_0 = Add(%/layers.4/final_layer_norm/ReduceMean_input_cast_0, %/layers.4/Add_1_input_cast_1)
  %/layers.4/Add_1_output_0 = Cast[to = 10](%/layers.4/Add_1_output_cast_0)
  %/layers.5/self_attn_layer_norm/ReduceMean_input_cast_0 = Cast[to = 1](%/layers.4/Add_1_output_0)
  %/layers.5/self_attn_layer_norm/ReduceMean_output_cast_0 = ReduceMean[axes = [-1]](%/layers.5/self_attn_layer_norm/ReduceMean_input_cast_0)
  %/layers.5/self_attn_layer_norm/ReduceMean_output_0 = Cast[to = 10](%/layers.5/self_attn_layer_norm/ReduceMean_output_cast_0)
  %/layers.5/self_attn_layer_norm/Sub_input_cast_1 = Cast[to = 1](%/layers.5/self_attn_layer_norm/ReduceMean_output_0)
  %/layers.5/self_attn_layer_norm/Sub_output_cast_0 = Sub(%/layers.5/self_attn_layer_norm/ReduceMean_input_cast_0, %/layers.5/self_attn_layer_norm/Sub_input_cast_1)
  %/layers.5/self_attn_layer_norm/Sub_output_0 = Cast[to = 10](%/layers.5/self_attn_layer_norm/Sub_output_cast_0)
  %/layers.5/self_attn_layer_norm/Pow_input_cast_0 = Cast[to = 1](%/layers.5/self_attn_layer_norm/Sub_output_0)
  %/layers.5/self_attn_layer_norm/Pow_output_cast_0 = Pow(%/layers.5/self_attn_layer_norm/Pow_input_cast_0, %/layers.0/self_attn_layer_norm/Pow_input_cast_1)
  %/layers.5/self_attn_layer_norm/Pow_output_0 = Cast[to = 10](%/layers.5/self_attn_layer_norm/Pow_output_cast_0)
  %/layers.5/self_attn_layer_norm/ReduceMean_1_input_cast_0 = Cast[to = 1](%/layers.5/self_attn_layer_norm/Pow_output_0)
  %/layers.5/self_attn_layer_norm/ReduceMean_1_output_cast_0 = ReduceMean[axes = [-1]](%/layers.5/self_attn_layer_norm/ReduceMean_1_input_cast_0)
  %/layers.5/self_attn_layer_norm/ReduceMean_1_output_0 = Cast[to = 10](%/layers.5/self_attn_layer_norm/ReduceMean_1_output_cast_0)
  %/layers.5/self_attn_layer_norm/Add_input_cast_0 = Cast[to = 1](%/layers.5/self_attn_layer_norm/ReduceMean_1_output_0)
  %/layers.5/self_attn_layer_norm/Add_output_cast_0 = Add(%/layers.5/self_attn_layer_norm/Add_input_cast_0, %/layers.0/self_attn_layer_norm/Add_input_cast_1)
  %/layers.5/self_attn_layer_norm/Add_output_0 = Cast[to = 10](%/layers.5/self_attn_layer_norm/Add_output_cast_0)
  %/layers.5/self_attn_layer_norm/Sqrt_input_cast_0 = Cast[to = 1](%/layers.5/self_attn_layer_norm/Add_output_0)
  %/layers.5/self_attn_layer_norm/Sqrt_output_cast_0 = Sqrt(%/layers.5/self_attn_layer_norm/Sqrt_input_cast_0)
  %/layers.5/self_attn_layer_norm/Sqrt_output_0 = Cast[to = 10](%/layers.5/self_attn_layer_norm/Sqrt_output_cast_0)
  %/layers.5/self_attn_layer_norm/Div_input_cast_1 = Cast[to = 1](%/layers.5/self_attn_layer_norm/Sqrt_output_0)
  %/layers.5/self_attn_layer_norm/Div_output_cast_0 = Div(%/layers.5/self_attn_layer_norm/Pow_input_cast_0, %/layers.5/self_attn_layer_norm/Div_input_cast_1)
  %/layers.5/self_attn_layer_norm/Div_output_0 = Cast[to = 10](%/layers.5/self_attn_layer_norm/Div_output_cast_0)
  %/layers.5/self_attn_layer_norm/Mul_input_cast_0 = Cast[to = 1](%/layers.5/self_attn_layer_norm/Div_output_0)
  %/layers.5/self_attn_layer_norm/Mul_output_cast_0 = Mul(%/layers.5/self_attn_layer_norm/Mul_input_cast_0, %layers.5.self_attn_layer_norm.weight)
  %/layers.5/self_attn_layer_norm/Mul_output_0 = Cast[to = 10](%/layers.5/self_attn_layer_norm/Mul_output_cast_0)
  %/layers.5/self_attn_layer_norm/Add_1_input_cast_0 = Cast[to = 1](%/layers.5/self_attn_layer_norm/Mul_output_0)
  %/layers.5/self_attn_layer_norm/Add_1_output_cast_0 = Add(%/layers.5/self_attn_layer_norm/Add_1_input_cast_0, %layers.5.self_attn_layer_norm.bias)
  %/layers.5/self_attn_layer_norm/Add_1_output_0 = Cast[to = 10](%/layers.5/self_attn_layer_norm/Add_1_output_cast_0)
  %/layers.5/self_attn/Shape_output_0 = Shape(%/layers.5/self_attn_layer_norm/Add_1_output_0)
  %/layers.5/self_attn/q_proj/MatMul_input_cast_0 = Cast[to = 1](%/layers.5/self_attn_layer_norm/Add_1_output_0)
  %4414 = MatMul(%/layers.5/self_attn/q_proj/MatMul_input_cast_0, %4413)
  %4415, %4416, %4417 = Split[axis = -1](%4414, %4383)
  %/layers.5/self_attn/Gather_output_0 = Gather[axis = 0](%/layers.5/self_attn/Shape_output_0, %/embed_positions/Constant_output_0)
  %/layers.5/self_attn/Gather_1_output_0 = Gather[axis = 0](%/layers.5/self_attn/Shape_output_0, %/Constant_output_0)
  %/layers.5/self_attn/Unsqueeze_output_0 = Unsqueeze(%/layers.5/self_attn/Gather_output_0, %onnx::Unsqueeze_269)
  %/layers.5/self_attn/Mul_1_output_0 = Mul(%/layers.5/self_attn/Gather_output_0, %/layers.0/self_attn/Constant_9_output_0)
  %/layers.5/self_attn/Unsqueeze_3_output_0 = Unsqueeze(%/layers.5/self_attn/Gather_1_output_0, %onnx::Unsqueeze_269)
  %/layers.5/self_attn/q_proj/MatMul_output_0 = Cast[to = 10](%4415)
  %/layers.5/self_attn/k_proj/MatMul_output_0 = Cast[to = 10](%4416)
  %/layers.5/self_attn/v_proj/MatMul_output_0 = Cast[to = 10](%4417)
  %/layers.5/self_attn/Concat_output_0 = Concat[axis = 0](%/layers.5/self_attn/Unsqueeze_output_0, %/Constant_1_output_0, %/layers.0/self_attn/Constant_4_output_0, %/layers.0/self_attn/Constant_5_output_0)
  %/layers.5/self_attn/Unsqueeze_4_output_0 = Unsqueeze(%/layers.5/self_attn/Mul_1_output_0, %onnx::Unsqueeze_269)
  %/layers.5/self_attn/Concat_2_output_0 = Concat[axis = 0](%/layers.5/self_attn/Unsqueeze_output_0, %/layers.5/self_attn/Unsqueeze_3_output_0, %/layers.0/self_attn/Constant_4_output_0, %/layers.0/self_attn/Constant_5_output_0)
  %/layers.5/self_attn/Concat_8_output_0 = Concat[axis = 0](%/layers.5/self_attn/Unsqueeze_output_0, %/layers.0/self_attn/Constant_4_output_0, %/layers.5/self_attn/Unsqueeze_3_output_0, %/layers.0/self_attn/Constant_5_output_0)
  %/layers.5/self_attn/Concat_9_output_0 = Concat[axis = 0](%/layers.5/self_attn/Unsqueeze_output_0, %/layers.5/self_attn/Unsqueeze_3_output_0, %/layers.0/self_attn/Constant_22_output_0)
  %/layers.5/self_attn/q_proj/Add_input_cast_1 = Cast[to = 1](%/layers.5/self_attn/q_proj/MatMul_output_0)
  %/layers.5/self_attn/k_proj/Add_input_cast_1 = Cast[to = 1](%/layers.5/self_attn/k_proj/MatMul_output_0)
  %/layers.5/self_attn/v_proj/Add_input_cast_1 = Cast[to = 1](%/layers.5/self_attn/v_proj/MatMul_output_0)
  %/layers.5/self_attn/Concat_3_output_0 = Concat[axis = 0](%/layers.5/self_attn/Unsqueeze_4_output_0, %/Constant_1_output_0, %/layers.0/self_attn/Constant_5_output_0)
  %/layers.5/self_attn/q_proj/Add_output_cast_0 = Add(%layers.5.self_attn.q_proj.bias, %/layers.5/self_attn/q_proj/Add_input_cast_1)
  %/layers.5/self_attn/k_proj/Add_output_cast_0 = Add(%layers.5.self_attn.k_proj.bias, %/layers.5/self_attn/k_proj/Add_input_cast_1)
  %/layers.5/self_attn/v_proj/Add_output_cast_0 = Add(%layers.5.self_attn.v_proj.bias, %/layers.5/self_attn/v_proj/Add_input_cast_1)
  %/layers.5/self_attn/q_proj/Add_output_0 = Cast[to = 10](%/layers.5/self_attn/q_proj/Add_output_cast_0)
  %/layers.5/self_attn/k_proj/Add_output_0 = Cast[to = 10](%/layers.5/self_attn/k_proj/Add_output_cast_0)
  %/layers.5/self_attn/v_proj/Add_output_0 = Cast[to = 10](%/layers.5/self_attn/v_proj/Add_output_cast_0)
  %/layers.5/self_attn/Mul_input_cast_0 = Cast[to = 1](%/layers.5/self_attn/q_proj/Add_output_0)
  %/layers.5/self_attn/Reshape_input_cast_0 = Cast[to = 1](%/layers.5/self_attn/k_proj/Add_output_0)
  %/layers.5/self_attn/Reshape_1_input_cast_0 = Cast[to = 1](%/layers.5/self_attn/v_proj/Add_output_0)
  %/layers.5/self_attn/Mul_output_cast_0 = Mul(%/layers.5/self_attn/Mul_input_cast_0, %/layers.0/self_attn/Mul_input_cast_1)
  %/layers.5/self_attn/Reshape_output_cast_0 = Reshape(%/layers.5/self_attn/Reshape_input_cast_0, %/layers.5/self_attn/Concat_output_0)
  %/layers.5/self_attn/Reshape_1_output_cast_0 = Reshape(%/layers.5/self_attn/Reshape_1_input_cast_0, %/layers.5/self_attn/Concat_output_0)
  %/layers.5/self_attn/Mul_output_0 = Cast[to = 10](%/layers.5/self_attn/Mul_output_cast_0)
  %/layers.5/self_attn/Reshape_output_0 = Cast[to = 10](%/layers.5/self_attn/Reshape_output_cast_0)
  %/layers.5/self_attn/Reshape_1_output_0 = Cast[to = 10](%/layers.5/self_attn/Reshape_1_output_cast_0)
  %/layers.5/self_attn/Reshape_2_input_cast_0 = Cast[to = 1](%/layers.5/self_attn/Mul_output_0)
  %/layers.5/self_attn/Transpose_input_cast_0 = Cast[to = 1](%/layers.5/self_attn/Reshape_output_0)
  %/layers.5/self_attn/Transpose_1_input_cast_0 = Cast[to = 1](%/layers.5/self_attn/Reshape_1_output_0)
  %/layers.5/self_attn/Reshape_2_output_cast_0 = Reshape(%/layers.5/self_attn/Reshape_2_input_cast_0, %/layers.5/self_attn/Concat_2_output_0)
  %/layers.5/self_attn/Transpose_output_cast_0 = Transpose[perm = [0, 2, 1, 3]](%/layers.5/self_attn/Transpose_input_cast_0)
  %/layers.5/self_attn/Transpose_1_output_cast_0 = Transpose[perm = [0, 2, 1, 3]](%/layers.5/self_attn/Transpose_1_input_cast_0)
  %/layers.5/self_attn/Reshape_2_output_0 = Cast[to = 10](%/layers.5/self_attn/Reshape_2_output_cast_0)
  %/layers.5/self_attn/Transpose_output_0 = Cast[to = 10](%/layers.5/self_attn/Transpose_output_cast_0)
  %/layers.5/self_attn/Transpose_1_output_0 = Cast[to = 10](%/layers.5/self_attn/Transpose_1_output_cast_0)
  %/layers.5/self_attn/Transpose_2_input_cast_0 = Cast[to = 1](%/layers.5/self_attn/Reshape_2_output_0)
  %/layers.5/self_attn/Reshape_4_input_cast_0 = Cast[to = 1](%/layers.5/self_attn/Transpose_output_0)
  %/layers.5/self_attn/Reshape_5_input_cast_0 = Cast[to = 1](%/layers.5/self_attn/Transpose_1_output_0)
  %/layers.5/self_attn/Transpose_2_output_cast_0 = Transpose[perm = [0, 2, 1, 3]](%/layers.5/self_attn/Transpose_2_input_cast_0)
  %/layers.5/self_attn/Reshape_4_output_cast_0 = Reshape(%/layers.5/self_attn/Reshape_4_input_cast_0, %/layers.5/self_attn/Concat_3_output_0)
  %/layers.5/self_attn/Reshape_5_output_cast_0 = Reshape(%/layers.5/self_attn/Reshape_5_input_cast_0, %/layers.5/self_attn/Concat_3_output_0)
  %/layers.5/self_attn/Transpose_2_output_0 = Cast[to = 10](%/layers.5/self_attn/Transpose_2_output_cast_0)
  %/layers.5/self_attn/Reshape_4_output_0 = Cast[to = 10](%/layers.5/self_attn/Reshape_4_output_cast_0)
  %/layers.5/self_attn/Reshape_5_output_0 = Cast[to = 10](%/layers.5/self_attn/Reshape_5_output_cast_0)
  %/layers.5/self_attn/Reshape_3_input_cast_0 = Cast[to = 1](%/layers.5/self_attn/Transpose_2_output_0)
  %/layers.5/self_attn/Shape_2_output_0 = Shape(%/layers.5/self_attn/Reshape_4_output_0)
  %/layers.5/self_attn/Transpose_3_input_cast_0 = Cast[to = 1](%/layers.5/self_attn/Reshape_4_output_0)
  %/layers.5/self_attn/MatMul_1_input_cast_1 = Cast[to = 1](%/layers.5/self_attn/Reshape_5_output_0)
  %/layers.5/self_attn/Reshape_3_output_cast_0 = Reshape(%/layers.5/self_attn/Reshape_3_input_cast_0, %/layers.5/self_attn/Concat_3_output_0)
  %/layers.5/self_attn/Gather_2_output_0 = Gather[axis = 0](%/layers.5/self_attn/Shape_2_output_0, %/Constant_output_0)
  %/layers.5/self_attn/Transpose_3_output_cast_0 = Transpose[perm = [0, 2, 1]](%/layers.5/self_attn/Transpose_3_input_cast_0)
  %/layers.5/self_attn/Reshape_3_output_0 = Cast[to = 10](%/layers.5/self_attn/Reshape_3_output_cast_0)
  %/layers.5/self_attn/Unsqueeze_9_output_0 = Unsqueeze(%/layers.5/self_attn/Gather_2_output_0, %onnx::Unsqueeze_269)
  %/layers.5/self_attn/Transpose_3_output_0 = Cast[to = 10](%/layers.5/self_attn/Transpose_3_output_cast_0)
  %/layers.5/self_attn/MatMul_input_cast_0 = Cast[to = 1](%/layers.5/self_attn/Reshape_3_output_0)
  %/layers.5/self_attn/Concat_6_output_0 = Concat[axis = 0](%/layers.5/self_attn/Unsqueeze_output_0, %/layers.0/self_attn/Constant_4_output_0, %/layers.5/self_attn/Unsqueeze_3_output_0, %/layers.5/self_attn/Unsqueeze_9_output_0)
  %/layers.5/self_attn/Concat_7_output_0 = Concat[axis = 0](%/layers.5/self_attn/Unsqueeze_4_output_0, %/layers.5/self_attn/Unsqueeze_3_output_0, %/layers.5/self_attn/Unsqueeze_9_output_0)
  %/layers.5/self_attn/MatMul_input_cast_1 = Cast[to = 1](%/layers.5/self_attn/Transpose_3_output_0)
  %/layers.5/self_attn/MatMul_output_cast_0 = MatMul(%/layers.5/self_attn/MatMul_input_cast_0, %/layers.5/self_attn/MatMul_input_cast_1)
  %/layers.5/self_attn/MatMul_output_0 = Cast[to = 10](%/layers.5/self_attn/MatMul_output_cast_0)
  %/layers.5/self_attn/Reshape_6_input_cast_0 = Cast[to = 1](%/layers.5/self_attn/MatMul_output_0)
  %/layers.5/self_attn/Reshape_6_output_cast_0 = Reshape(%/layers.5/self_attn/Reshape_6_input_cast_0, %/layers.5/self_attn/Concat_6_output_0)
  %/layers.5/self_attn/Reshape_6_output_0 = Cast[to = 10](%/layers.5/self_attn/Reshape_6_output_cast_0)
  %/layers.5/self_attn/Add_input_cast_0 = Cast[to = 1](%/layers.5/self_attn/Reshape_6_output_0)
  %/layers.5/self_attn/Add_output_cast_0 = Add(%/layers.5/self_attn/Add_input_cast_0, %/layers.0/self_attn/Add_input_cast_1)
  %/layers.5/self_attn/Add_output_0 = Cast[to = 10](%/layers.5/self_attn/Add_output_cast_0)
  %/layers.5/self_attn/Reshape_7_input_cast_0 = Cast[to = 1](%/layers.5/self_attn/Add_output_0)
  %/layers.5/self_attn/Reshape_7_output_cast_0 = Reshape(%/layers.5/self_attn/Reshape_7_input_cast_0, %/layers.5/self_attn/Concat_7_output_0)
  %/layers.5/self_attn/Reshape_7_output_0 = Cast[to = 10](%/layers.5/self_attn/Reshape_7_output_cast_0)
  %/layers.5/self_attn/Softmax_input_cast_0 = Cast[to = 1](%/layers.5/self_attn/Reshape_7_output_0)
  %/layers.5/self_attn/Softmax_output_cast_0 = Softmax[axis = -1](%/layers.5/self_attn/Softmax_input_cast_0)
  %/layers.5/self_attn/Softmax_output_0 = Cast[to = 10](%/layers.5/self_attn/Softmax_output_cast_0)
  %/layers.5/self_attn/MatMul_1_input_cast_0 = Cast[to = 1](%/layers.5/self_attn/Softmax_output_0)
  %/layers.5/self_attn/MatMul_1_output_cast_0 = MatMul(%/layers.5/self_attn/MatMul_1_input_cast_0, %/layers.5/self_attn/MatMul_1_input_cast_1)
  %/layers.5/self_attn/MatMul_1_output_0 = Cast[to = 10](%/layers.5/self_attn/MatMul_1_output_cast_0)
  %/layers.5/self_attn/Reshape_8_input_cast_0 = Cast[to = 1](%/layers.5/self_attn/MatMul_1_output_0)
  %/layers.5/self_attn/Reshape_8_output_cast_0 = Reshape(%/layers.5/self_attn/Reshape_8_input_cast_0, %/layers.5/self_attn/Concat_8_output_0)
  %/layers.5/self_attn/Reshape_8_output_0 = Cast[to = 10](%/layers.5/self_attn/Reshape_8_output_cast_0)
  %/layers.5/self_attn/Transpose_4_input_cast_0 = Cast[to = 1](%/layers.5/self_attn/Reshape_8_output_0)
  %/layers.5/self_attn/Transpose_4_output_cast_0 = Transpose[perm = [0, 2, 1, 3]](%/layers.5/self_attn/Transpose_4_input_cast_0)
  %/layers.5/self_attn/Transpose_4_output_0 = Cast[to = 10](%/layers.5/self_attn/Transpose_4_output_cast_0)
  %/layers.5/self_attn/Reshape_9_input_cast_0 = Cast[to = 1](%/layers.5/self_attn/Transpose_4_output_0)
  %/layers.5/self_attn/Reshape_9_output_cast_0 = Reshape(%/layers.5/self_attn/Reshape_9_input_cast_0, %/layers.5/self_attn/Concat_9_output_0)
  %/layers.5/self_attn/Reshape_9_output_0 = Cast[to = 10](%/layers.5/self_attn/Reshape_9_output_cast_0)
  %/layers.5/self_attn/out_proj/MatMul_input_cast_0 = Cast[to = 1](%/layers.5/self_attn/Reshape_9_output_0)
  %/layers.5/self_attn/out_proj/MatMul_output_cast_0 = MatMul(%/layers.5/self_attn/out_proj/MatMul_input_cast_0, %onnx::MatMul_2956)
  %/layers.5/self_attn/out_proj/MatMul_output_0 = Cast[to = 10](%/layers.5/self_attn/out_proj/MatMul_output_cast_0)
  %/layers.5/self_attn/out_proj/Add_input_cast_1 = Cast[to = 1](%/layers.5/self_attn/out_proj/MatMul_output_0)
  %/layers.5/self_attn/out_proj/Add_output_cast_0 = Add(%layers.5.self_attn.out_proj.bias, %/layers.5/self_attn/out_proj/Add_input_cast_1)
  %/layers.5/self_attn/out_proj/Add_output_0 = Cast[to = 10](%/layers.5/self_attn/out_proj/Add_output_cast_0)
  %/layers.5/Add_input_cast_1 = Cast[to = 1](%/layers.5/self_attn/out_proj/Add_output_0)
  %/layers.5/Add_output_cast_0 = Add(%/layers.5/self_attn_layer_norm/ReduceMean_input_cast_0, %/layers.5/Add_input_cast_1)
  %/layers.5/Add_output_0 = Cast[to = 10](%/layers.5/Add_output_cast_0)
  %/layers.5/final_layer_norm/ReduceMean_input_cast_0 = Cast[to = 1](%/layers.5/Add_output_0)
  %/layers.5/final_layer_norm/ReduceMean_output_cast_0 = ReduceMean[axes = [-1]](%/layers.5/final_layer_norm/ReduceMean_input_cast_0)
  %/layers.5/final_layer_norm/ReduceMean_output_0 = Cast[to = 10](%/layers.5/final_layer_norm/ReduceMean_output_cast_0)
  %/layers.5/final_layer_norm/Sub_input_cast_1 = Cast[to = 1](%/layers.5/final_layer_norm/ReduceMean_output_0)
  %/layers.5/final_layer_norm/Sub_output_cast_0 = Sub(%/layers.5/final_layer_norm/ReduceMean_input_cast_0, %/layers.5/final_layer_norm/Sub_input_cast_1)
  %/layers.5/final_layer_norm/Sub_output_0 = Cast[to = 10](%/layers.5/final_layer_norm/Sub_output_cast_0)
  %/layers.5/final_layer_norm/Pow_input_cast_0 = Cast[to = 1](%/layers.5/final_layer_norm/Sub_output_0)
  %/layers.5/final_layer_norm/Pow_output_cast_0 = Pow(%/layers.5/final_layer_norm/Pow_input_cast_0, %/layers.0/self_attn_layer_norm/Pow_input_cast_1)
  %/layers.5/final_layer_norm/Pow_output_0 = Cast[to = 10](%/layers.5/final_layer_norm/Pow_output_cast_0)
  %/layers.5/final_layer_norm/ReduceMean_1_input_cast_0 = Cast[to = 1](%/layers.5/final_layer_norm/Pow_output_0)
  %/layers.5/final_layer_norm/ReduceMean_1_output_cast_0 = ReduceMean[axes = [-1]](%/layers.5/final_layer_norm/ReduceMean_1_input_cast_0)
  %/layers.5/final_layer_norm/ReduceMean_1_output_0 = Cast[to = 10](%/layers.5/final_layer_norm/ReduceMean_1_output_cast_0)
  %/layers.5/final_layer_norm/Add_input_cast_0 = Cast[to = 1](%/layers.5/final_layer_norm/ReduceMean_1_output_0)
  %/layers.5/final_layer_norm/Add_output_cast_0 = Add(%/layers.5/final_layer_norm/Add_input_cast_0, %/layers.0/self_attn_layer_norm/Add_input_cast_1)
  %/layers.5/final_layer_norm/Add_output_0 = Cast[to = 10](%/layers.5/final_layer_norm/Add_output_cast_0)
  %/layers.5/final_layer_norm/Sqrt_input_cast_0 = Cast[to = 1](%/layers.5/final_layer_norm/Add_output_0)
  %/layers.5/final_layer_norm/Sqrt_output_cast_0 = Sqrt(%/layers.5/final_layer_norm/Sqrt_input_cast_0)
  %/layers.5/final_layer_norm/Sqrt_output_0 = Cast[to = 10](%/layers.5/final_layer_norm/Sqrt_output_cast_0)
  %/layers.5/final_layer_norm/Div_input_cast_1 = Cast[to = 1](%/layers.5/final_layer_norm/Sqrt_output_0)
  %/layers.5/final_layer_norm/Div_output_cast_0 = Div(%/layers.5/final_layer_norm/Pow_input_cast_0, %/layers.5/final_layer_norm/Div_input_cast_1)
  %/layers.5/final_layer_norm/Div_output_0 = Cast[to = 10](%/layers.5/final_layer_norm/Div_output_cast_0)
  %/layers.5/final_layer_norm/Mul_input_cast_0 = Cast[to = 1](%/layers.5/final_layer_norm/Div_output_0)
  %/layers.5/final_layer_norm/Mul_output_cast_0 = Mul(%/layers.5/final_layer_norm/Mul_input_cast_0, %layers.5.final_layer_norm.weight)
  %/layers.5/final_layer_norm/Mul_output_0 = Cast[to = 10](%/layers.5/final_layer_norm/Mul_output_cast_0)
  %/layers.5/final_layer_norm/Add_1_input_cast_0 = Cast[to = 1](%/layers.5/final_layer_norm/Mul_output_0)
  %/layers.5/final_layer_norm/Add_1_output_cast_0 = Add(%/layers.5/final_layer_norm/Add_1_input_cast_0, %layers.5.final_layer_norm.bias)
  %/layers.5/final_layer_norm/Add_1_output_0 = Cast[to = 10](%/layers.5/final_layer_norm/Add_1_output_cast_0)
  %/layers.5/fc1/MatMul_input_cast_0 = Cast[to = 1](%/layers.5/final_layer_norm/Add_1_output_0)
  %/layers.5/fc1/MatMul_output_cast_0 = MatMul(%/layers.5/fc1/MatMul_input_cast_0, %onnx::MatMul_2957)
  %/layers.5/fc1/MatMul_output_0 = Cast[to = 10](%/layers.5/fc1/MatMul_output_cast_0)
  %/layers.5/fc1/Add_input_cast_1 = Cast[to = 1](%/layers.5/fc1/MatMul_output_0)
  %/layers.5/fc1/Add_output_cast_0 = Add(%layers.5.fc1.bias, %/layers.5/fc1/Add_input_cast_1)
  %/layers.5/fc1/Add_output_0 = Cast[to = 10](%/layers.5/fc1/Add_output_cast_0)
  %/layers.5/activation_fn/Relu_input_cast_0 = Cast[to = 1](%/layers.5/fc1/Add_output_0)
  %/layers.5/activation_fn/Relu_output_cast_0 = Relu(%/layers.5/activation_fn/Relu_input_cast_0)
  %/layers.5/activation_fn/Relu_output_0 = Cast[to = 10](%/layers.5/activation_fn/Relu_output_cast_0)
  %/layers.5/fc2/MatMul_input_cast_0 = Cast[to = 1](%/layers.5/activation_fn/Relu_output_0)
  %/layers.5/fc2/MatMul_output_cast_0 = MatMul(%/layers.5/fc2/MatMul_input_cast_0, %onnx::MatMul_2958)
  %/layers.5/fc2/MatMul_output_0 = Cast[to = 10](%/layers.5/fc2/MatMul_output_cast_0)
  %/layers.5/fc2/Add_input_cast_1 = Cast[to = 1](%/layers.5/fc2/MatMul_output_0)
  %/layers.5/fc2/Add_output_cast_0 = Add(%layers.5.fc2.bias, %/layers.5/fc2/Add_input_cast_1)
  %/layers.5/fc2/Add_output_0 = Cast[to = 10](%/layers.5/fc2/Add_output_cast_0)
  %/layers.5/Add_1_input_cast_1 = Cast[to = 1](%/layers.5/fc2/Add_output_0)
  %/layers.5/Add_1_output_cast_0 = Add(%/layers.5/final_layer_norm/ReduceMean_input_cast_0, %/layers.5/Add_1_input_cast_1)
  %/layers.5/Add_1_output_0 = Cast[to = 10](%/layers.5/Add_1_output_cast_0)
  %/layers.6/self_attn_layer_norm/ReduceMean_input_cast_0 = Cast[to = 1](%/layers.5/Add_1_output_0)
  %/layers.6/self_attn_layer_norm/ReduceMean_output_cast_0 = ReduceMean[axes = [-1]](%/layers.6/self_attn_layer_norm/ReduceMean_input_cast_0)
  %/layers.6/self_attn_layer_norm/ReduceMean_output_0 = Cast[to = 10](%/layers.6/self_attn_layer_norm/ReduceMean_output_cast_0)
  %/layers.6/self_attn_layer_norm/Sub_input_cast_1 = Cast[to = 1](%/layers.6/self_attn_layer_norm/ReduceMean_output_0)
  %/layers.6/self_attn_layer_norm/Sub_output_cast_0 = Sub(%/layers.6/self_attn_layer_norm/ReduceMean_input_cast_0, %/layers.6/self_attn_layer_norm/Sub_input_cast_1)
  %/layers.6/self_attn_layer_norm/Sub_output_0 = Cast[to = 10](%/layers.6/self_attn_layer_norm/Sub_output_cast_0)
  %/layers.6/self_attn_layer_norm/Pow_input_cast_0 = Cast[to = 1](%/layers.6/self_attn_layer_norm/Sub_output_0)
  %/layers.6/self_attn_layer_norm/Pow_output_cast_0 = Pow(%/layers.6/self_attn_layer_norm/Pow_input_cast_0, %/layers.0/self_attn_layer_norm/Pow_input_cast_1)
  %/layers.6/self_attn_layer_norm/Pow_output_0 = Cast[to = 10](%/layers.6/self_attn_layer_norm/Pow_output_cast_0)
  %/layers.6/self_attn_layer_norm/ReduceMean_1_input_cast_0 = Cast[to = 1](%/layers.6/self_attn_layer_norm/Pow_output_0)
  %/layers.6/self_attn_layer_norm/ReduceMean_1_output_cast_0 = ReduceMean[axes = [-1]](%/layers.6/self_attn_layer_norm/ReduceMean_1_input_cast_0)
  %/layers.6/self_attn_layer_norm/ReduceMean_1_output_0 = Cast[to = 10](%/layers.6/self_attn_layer_norm/ReduceMean_1_output_cast_0)
  %/layers.6/self_attn_layer_norm/Add_input_cast_0 = Cast[to = 1](%/layers.6/self_attn_layer_norm/ReduceMean_1_output_0)
  %/layers.6/self_attn_layer_norm/Add_output_cast_0 = Add(%/layers.6/self_attn_layer_norm/Add_input_cast_0, %/layers.0/self_attn_layer_norm/Add_input_cast_1)
  %/layers.6/self_attn_layer_norm/Add_output_0 = Cast[to = 10](%/layers.6/self_attn_layer_norm/Add_output_cast_0)
  %/layers.6/self_attn_layer_norm/Sqrt_input_cast_0 = Cast[to = 1](%/layers.6/self_attn_layer_norm/Add_output_0)
  %/layers.6/self_attn_layer_norm/Sqrt_output_cast_0 = Sqrt(%/layers.6/self_attn_layer_norm/Sqrt_input_cast_0)
  %/layers.6/self_attn_layer_norm/Sqrt_output_0 = Cast[to = 10](%/layers.6/self_attn_layer_norm/Sqrt_output_cast_0)
  %/layers.6/self_attn_layer_norm/Div_input_cast_1 = Cast[to = 1](%/layers.6/self_attn_layer_norm/Sqrt_output_0)
  %/layers.6/self_attn_layer_norm/Div_output_cast_0 = Div(%/layers.6/self_attn_layer_norm/Pow_input_cast_0, %/layers.6/self_attn_layer_norm/Div_input_cast_1)
  %/layers.6/self_attn_layer_norm/Div_output_0 = Cast[to = 10](%/layers.6/self_attn_layer_norm/Div_output_cast_0)
  %/layers.6/self_attn_layer_norm/Mul_input_cast_0 = Cast[to = 1](%/layers.6/self_attn_layer_norm/Div_output_0)
  %/layers.6/self_attn_layer_norm/Mul_output_cast_0 = Mul(%/layers.6/self_attn_layer_norm/Mul_input_cast_0, %layers.6.self_attn_layer_norm.weight)
  %/layers.6/self_attn_layer_norm/Mul_output_0 = Cast[to = 10](%/layers.6/self_attn_layer_norm/Mul_output_cast_0)
  %/layers.6/self_attn_layer_norm/Add_1_input_cast_0 = Cast[to = 1](%/layers.6/self_attn_layer_norm/Mul_output_0)
  %/layers.6/self_attn_layer_norm/Add_1_output_cast_0 = Add(%/layers.6/self_attn_layer_norm/Add_1_input_cast_0, %layers.6.self_attn_layer_norm.bias)
  %/layers.6/self_attn_layer_norm/Add_1_output_0 = Cast[to = 10](%/layers.6/self_attn_layer_norm/Add_1_output_cast_0)
  %/layers.6/self_attn/Shape_output_0 = Shape(%/layers.6/self_attn_layer_norm/Add_1_output_0)
  %/layers.6/self_attn/q_proj/MatMul_input_cast_0 = Cast[to = 1](%/layers.6/self_attn_layer_norm/Add_1_output_0)
  %4421 = MatMul(%/layers.6/self_attn/q_proj/MatMul_input_cast_0, %4420)
  %4422, %4423, %4424 = Split[axis = -1](%4421, %4383)
  %/layers.6/self_attn/Gather_output_0 = Gather[axis = 0](%/layers.6/self_attn/Shape_output_0, %/embed_positions/Constant_output_0)
  %/layers.6/self_attn/Gather_1_output_0 = Gather[axis = 0](%/layers.6/self_attn/Shape_output_0, %/Constant_output_0)
  %/layers.6/self_attn/Unsqueeze_output_0 = Unsqueeze(%/layers.6/self_attn/Gather_output_0, %onnx::Unsqueeze_269)
  %/layers.6/self_attn/Mul_1_output_0 = Mul(%/layers.6/self_attn/Gather_output_0, %/layers.0/self_attn/Constant_9_output_0)
  %/layers.6/self_attn/Unsqueeze_3_output_0 = Unsqueeze(%/layers.6/self_attn/Gather_1_output_0, %onnx::Unsqueeze_269)
  %/layers.6/self_attn/q_proj/MatMul_output_0 = Cast[to = 10](%4422)
  %/layers.6/self_attn/k_proj/MatMul_output_0 = Cast[to = 10](%4423)
  %/layers.6/self_attn/v_proj/MatMul_output_0 = Cast[to = 10](%4424)
  %/layers.6/self_attn/Concat_output_0 = Concat[axis = 0](%/layers.6/self_attn/Unsqueeze_output_0, %/Constant_1_output_0, %/layers.0/self_attn/Constant_4_output_0, %/layers.0/self_attn/Constant_5_output_0)
  %/layers.6/self_attn/Unsqueeze_4_output_0 = Unsqueeze(%/layers.6/self_attn/Mul_1_output_0, %onnx::Unsqueeze_269)
  %/layers.6/self_attn/Concat_2_output_0 = Concat[axis = 0](%/layers.6/self_attn/Unsqueeze_output_0, %/layers.6/self_attn/Unsqueeze_3_output_0, %/layers.0/self_attn/Constant_4_output_0, %/layers.0/self_attn/Constant_5_output_0)
  %/layers.6/self_attn/Concat_8_output_0 = Concat[axis = 0](%/layers.6/self_attn/Unsqueeze_output_0, %/layers.0/self_attn/Constant_4_output_0, %/layers.6/self_attn/Unsqueeze_3_output_0, %/layers.0/self_attn/Constant_5_output_0)
  %/layers.6/self_attn/Concat_9_output_0 = Concat[axis = 0](%/layers.6/self_attn/Unsqueeze_output_0, %/layers.6/self_attn/Unsqueeze_3_output_0, %/layers.0/self_attn/Constant_22_output_0)
  %/layers.6/self_attn/q_proj/Add_input_cast_1 = Cast[to = 1](%/layers.6/self_attn/q_proj/MatMul_output_0)
  %/layers.6/self_attn/k_proj/Add_input_cast_1 = Cast[to = 1](%/layers.6/self_attn/k_proj/MatMul_output_0)
  %/layers.6/self_attn/v_proj/Add_input_cast_1 = Cast[to = 1](%/layers.6/self_attn/v_proj/MatMul_output_0)
  %/layers.6/self_attn/Concat_3_output_0 = Concat[axis = 0](%/layers.6/self_attn/Unsqueeze_4_output_0, %/Constant_1_output_0, %/layers.0/self_attn/Constant_5_output_0)
  %/layers.6/self_attn/q_proj/Add_output_cast_0 = Add(%layers.6.self_attn.q_proj.bias, %/layers.6/self_attn/q_proj/Add_input_cast_1)
  %/layers.6/self_attn/k_proj/Add_output_cast_0 = Add(%layers.6.self_attn.k_proj.bias, %/layers.6/self_attn/k_proj/Add_input_cast_1)
  %/layers.6/self_attn/v_proj/Add_output_cast_0 = Add(%layers.6.self_attn.v_proj.bias, %/layers.6/self_attn/v_proj/Add_input_cast_1)
  %/layers.6/self_attn/q_proj/Add_output_0 = Cast[to = 10](%/layers.6/self_attn/q_proj/Add_output_cast_0)
  %/layers.6/self_attn/k_proj/Add_output_0 = Cast[to = 10](%/layers.6/self_attn/k_proj/Add_output_cast_0)
  %/layers.6/self_attn/v_proj/Add_output_0 = Cast[to = 10](%/layers.6/self_attn/v_proj/Add_output_cast_0)
  %/layers.6/self_attn/Mul_input_cast_0 = Cast[to = 1](%/layers.6/self_attn/q_proj/Add_output_0)
  %/layers.6/self_attn/Reshape_input_cast_0 = Cast[to = 1](%/layers.6/self_attn/k_proj/Add_output_0)
  %/layers.6/self_attn/Reshape_1_input_cast_0 = Cast[to = 1](%/layers.6/self_attn/v_proj/Add_output_0)
  %/layers.6/self_attn/Mul_output_cast_0 = Mul(%/layers.6/self_attn/Mul_input_cast_0, %/layers.0/self_attn/Mul_input_cast_1)
  %/layers.6/self_attn/Reshape_output_cast_0 = Reshape(%/layers.6/self_attn/Reshape_input_cast_0, %/layers.6/self_attn/Concat_output_0)
  %/layers.6/self_attn/Reshape_1_output_cast_0 = Reshape(%/layers.6/self_attn/Reshape_1_input_cast_0, %/layers.6/self_attn/Concat_output_0)
  %/layers.6/self_attn/Mul_output_0 = Cast[to = 10](%/layers.6/self_attn/Mul_output_cast_0)
  %/layers.6/self_attn/Reshape_output_0 = Cast[to = 10](%/layers.6/self_attn/Reshape_output_cast_0)
  %/layers.6/self_attn/Reshape_1_output_0 = Cast[to = 10](%/layers.6/self_attn/Reshape_1_output_cast_0)
  %/layers.6/self_attn/Reshape_2_input_cast_0 = Cast[to = 1](%/layers.6/self_attn/Mul_output_0)
  %/layers.6/self_attn/Transpose_input_cast_0 = Cast[to = 1](%/layers.6/self_attn/Reshape_output_0)
  %/layers.6/self_attn/Transpose_1_input_cast_0 = Cast[to = 1](%/layers.6/self_attn/Reshape_1_output_0)
  %/layers.6/self_attn/Reshape_2_output_cast_0 = Reshape(%/layers.6/self_attn/Reshape_2_input_cast_0, %/layers.6/self_attn/Concat_2_output_0)
  %/layers.6/self_attn/Transpose_output_cast_0 = Transpose[perm = [0, 2, 1, 3]](%/layers.6/self_attn/Transpose_input_cast_0)
  %/layers.6/self_attn/Transpose_1_output_cast_0 = Transpose[perm = [0, 2, 1, 3]](%/layers.6/self_attn/Transpose_1_input_cast_0)
  %/layers.6/self_attn/Reshape_2_output_0 = Cast[to = 10](%/layers.6/self_attn/Reshape_2_output_cast_0)
  %/layers.6/self_attn/Transpose_output_0 = Cast[to = 10](%/layers.6/self_attn/Transpose_output_cast_0)
  %/layers.6/self_attn/Transpose_1_output_0 = Cast[to = 10](%/layers.6/self_attn/Transpose_1_output_cast_0)
  %/layers.6/self_attn/Transpose_2_input_cast_0 = Cast[to = 1](%/layers.6/self_attn/Reshape_2_output_0)
  %/layers.6/self_attn/Reshape_4_input_cast_0 = Cast[to = 1](%/layers.6/self_attn/Transpose_output_0)
  %/layers.6/self_attn/Reshape_5_input_cast_0 = Cast[to = 1](%/layers.6/self_attn/Transpose_1_output_0)
  %/layers.6/self_attn/Transpose_2_output_cast_0 = Transpose[perm = [0, 2, 1, 3]](%/layers.6/self_attn/Transpose_2_input_cast_0)
  %/layers.6/self_attn/Reshape_4_output_cast_0 = Reshape(%/layers.6/self_attn/Reshape_4_input_cast_0, %/layers.6/self_attn/Concat_3_output_0)
  %/layers.6/self_attn/Reshape_5_output_cast_0 = Reshape(%/layers.6/self_attn/Reshape_5_input_cast_0, %/layers.6/self_attn/Concat_3_output_0)
  %/layers.6/self_attn/Transpose_2_output_0 = Cast[to = 10](%/layers.6/self_attn/Transpose_2_output_cast_0)
  %/layers.6/self_attn/Reshape_4_output_0 = Cast[to = 10](%/layers.6/self_attn/Reshape_4_output_cast_0)
  %/layers.6/self_attn/Reshape_5_output_0 = Cast[to = 10](%/layers.6/self_attn/Reshape_5_output_cast_0)
  %/layers.6/self_attn/Reshape_3_input_cast_0 = Cast[to = 1](%/layers.6/self_attn/Transpose_2_output_0)
  %/layers.6/self_attn/Shape_2_output_0 = Shape(%/layers.6/self_attn/Reshape_4_output_0)
  %/layers.6/self_attn/Transpose_3_input_cast_0 = Cast[to = 1](%/layers.6/self_attn/Reshape_4_output_0)
  %/layers.6/self_attn/MatMul_1_input_cast_1 = Cast[to = 1](%/layers.6/self_attn/Reshape_5_output_0)
  %/layers.6/self_attn/Reshape_3_output_cast_0 = Reshape(%/layers.6/self_attn/Reshape_3_input_cast_0, %/layers.6/self_attn/Concat_3_output_0)
  %/layers.6/self_attn/Gather_2_output_0 = Gather[axis = 0](%/layers.6/self_attn/Shape_2_output_0, %/Constant_output_0)
  %/layers.6/self_attn/Transpose_3_output_cast_0 = Transpose[perm = [0, 2, 1]](%/layers.6/self_attn/Transpose_3_input_cast_0)
  %/layers.6/self_attn/Reshape_3_output_0 = Cast[to = 10](%/layers.6/self_attn/Reshape_3_output_cast_0)
  %/layers.6/self_attn/Unsqueeze_9_output_0 = Unsqueeze(%/layers.6/self_attn/Gather_2_output_0, %onnx::Unsqueeze_269)
  %/layers.6/self_attn/Transpose_3_output_0 = Cast[to = 10](%/layers.6/self_attn/Transpose_3_output_cast_0)
  %/layers.6/self_attn/MatMul_input_cast_0 = Cast[to = 1](%/layers.6/self_attn/Reshape_3_output_0)
  %/layers.6/self_attn/Concat_6_output_0 = Concat[axis = 0](%/layers.6/self_attn/Unsqueeze_output_0, %/layers.0/self_attn/Constant_4_output_0, %/layers.6/self_attn/Unsqueeze_3_output_0, %/layers.6/self_attn/Unsqueeze_9_output_0)
  %/layers.6/self_attn/Concat_7_output_0 = Concat[axis = 0](%/layers.6/self_attn/Unsqueeze_4_output_0, %/layers.6/self_attn/Unsqueeze_3_output_0, %/layers.6/self_attn/Unsqueeze_9_output_0)
  %/layers.6/self_attn/MatMul_input_cast_1 = Cast[to = 1](%/layers.6/self_attn/Transpose_3_output_0)
  %/layers.6/self_attn/MatMul_output_cast_0 = MatMul(%/layers.6/self_attn/MatMul_input_cast_0, %/layers.6/self_attn/MatMul_input_cast_1)
  %/layers.6/self_attn/MatMul_output_0 = Cast[to = 10](%/layers.6/self_attn/MatMul_output_cast_0)
  %/layers.6/self_attn/Reshape_6_input_cast_0 = Cast[to = 1](%/layers.6/self_attn/MatMul_output_0)
  %/layers.6/self_attn/Reshape_6_output_cast_0 = Reshape(%/layers.6/self_attn/Reshape_6_input_cast_0, %/layers.6/self_attn/Concat_6_output_0)
  %/layers.6/self_attn/Reshape_6_output_0 = Cast[to = 10](%/layers.6/self_attn/Reshape_6_output_cast_0)
  %/layers.6/self_attn/Add_input_cast_0 = Cast[to = 1](%/layers.6/self_attn/Reshape_6_output_0)
  %/layers.6/self_attn/Add_output_cast_0 = Add(%/layers.6/self_attn/Add_input_cast_0, %/layers.0/self_attn/Add_input_cast_1)
  %/layers.6/self_attn/Add_output_0 = Cast[to = 10](%/layers.6/self_attn/Add_output_cast_0)
  %/layers.6/self_attn/Reshape_7_input_cast_0 = Cast[to = 1](%/layers.6/self_attn/Add_output_0)
  %/layers.6/self_attn/Reshape_7_output_cast_0 = Reshape(%/layers.6/self_attn/Reshape_7_input_cast_0, %/layers.6/self_attn/Concat_7_output_0)
  %/layers.6/self_attn/Reshape_7_output_0 = Cast[to = 10](%/layers.6/self_attn/Reshape_7_output_cast_0)
  %/layers.6/self_attn/Softmax_input_cast_0 = Cast[to = 1](%/layers.6/self_attn/Reshape_7_output_0)
  %/layers.6/self_attn/Softmax_output_cast_0 = Softmax[axis = -1](%/layers.6/self_attn/Softmax_input_cast_0)
  %/layers.6/self_attn/Softmax_output_0 = Cast[to = 10](%/layers.6/self_attn/Softmax_output_cast_0)
  %/layers.6/self_attn/MatMul_1_input_cast_0 = Cast[to = 1](%/layers.6/self_attn/Softmax_output_0)
  %/layers.6/self_attn/MatMul_1_output_cast_0 = MatMul(%/layers.6/self_attn/MatMul_1_input_cast_0, %/layers.6/self_attn/MatMul_1_input_cast_1)
  %/layers.6/self_attn/MatMul_1_output_0 = Cast[to = 10](%/layers.6/self_attn/MatMul_1_output_cast_0)
  %/layers.6/self_attn/Reshape_8_input_cast_0 = Cast[to = 1](%/layers.6/self_attn/MatMul_1_output_0)
  %/layers.6/self_attn/Reshape_8_output_cast_0 = Reshape(%/layers.6/self_attn/Reshape_8_input_cast_0, %/layers.6/self_attn/Concat_8_output_0)
  %/layers.6/self_attn/Reshape_8_output_0 = Cast[to = 10](%/layers.6/self_attn/Reshape_8_output_cast_0)
  %/layers.6/self_attn/Transpose_4_input_cast_0 = Cast[to = 1](%/layers.6/self_attn/Reshape_8_output_0)
  %/layers.6/self_attn/Transpose_4_output_cast_0 = Transpose[perm = [0, 2, 1, 3]](%/layers.6/self_attn/Transpose_4_input_cast_0)
  %/layers.6/self_attn/Transpose_4_output_0 = Cast[to = 10](%/layers.6/self_attn/Transpose_4_output_cast_0)
  %/layers.6/self_attn/Reshape_9_input_cast_0 = Cast[to = 1](%/layers.6/self_attn/Transpose_4_output_0)
  %/layers.6/self_attn/Reshape_9_output_cast_0 = Reshape(%/layers.6/self_attn/Reshape_9_input_cast_0, %/layers.6/self_attn/Concat_9_output_0)
  %/layers.6/self_attn/Reshape_9_output_0 = Cast[to = 10](%/layers.6/self_attn/Reshape_9_output_cast_0)
  %/layers.6/self_attn/out_proj/MatMul_input_cast_0 = Cast[to = 1](%/layers.6/self_attn/Reshape_9_output_0)
  %/layers.6/self_attn/out_proj/MatMul_output_cast_0 = MatMul(%/layers.6/self_attn/out_proj/MatMul_input_cast_0, %onnx::MatMul_2980)
  %/layers.6/self_attn/out_proj/MatMul_output_0 = Cast[to = 10](%/layers.6/self_attn/out_proj/MatMul_output_cast_0)
  %/layers.6/self_attn/out_proj/Add_input_cast_1 = Cast[to = 1](%/layers.6/self_attn/out_proj/MatMul_output_0)
…
  %/layers.13/self_attn/Transpose_4_output_0 = Cast[to = 10](%/layers.13/self_attn/Transpose_4_output_cast_0)
  %/layers.13/self_attn/Reshape_9_input_cast_0 = Cast[to = 1](%/layers.13/self_attn/Transpose_4_output_0)
  %/layers.13/self_attn/Reshape_9_output_cast_0 = Reshape(%/layers.13/self_attn/Reshape_9_input_cast_0, %/layers.13/self_attn/Concat_9_output_0)
  %/layers.13/self_attn/Reshape_9_output_0 = Cast[to = 10](%/layers.13/self_attn/Reshape_9_output_cast_0)
  %/layers.13/self_attn/out_proj/MatMul_input_cast_0 = Cast[to = 1](%/layers.13/self_attn/Reshape_9_output_0)
  %/layers.13/self_attn/out_proj/MatMul_output_cast_0 = MatMul(%/layers.13/self_attn/out_proj/MatMul_input_cast_0, %onnx::MatMul_3148)
  %/layers.13/self_attn/out_proj/MatMul_output_0 = Cast[to = 10](%/layers.13/self_attn/out_proj/MatMul_output_cast_0)
  %/layers.13/self_attn/out_proj/Add_input_cast_1 = Cast[to = 1](%/layers.13/self_attn/out_proj/MatMul_output_0)
  %/layers.13/self_attn/out_proj/Add_output_cast_0 = Add(%layers.13.self_attn.out_proj.bias, %/layers.13/self_attn/out_proj/Add_input_cast_1)
  %/layers.13/self_attn/out_proj/Add_output_0 = Cast[to = 10](%/layers.13/self_attn/out_proj/Add_output_cast_0)
  %/layers.13/Add_input_cast_1 = Cast[to = 1](%/layers.13/self_attn/out_proj/Add_output_0)
  %/layers.13/Add_output_cast_0 = Add(%/layers.13/self_attn_layer_norm/ReduceMean_input_cast_0, %/layers.13/Add_input_cast_1)
  %/layers.13/Add_output_0 = Cast[to = 10](%/layers.13/Add_output_cast_0)
  %/layers.13/final_layer_norm/ReduceMean_input_cast_0 = Cast[to = 1](%/layers.13/Add_output_0)
  %/layers.13/final_layer_norm/ReduceMean_output_cast_0 = ReduceMean[axes = [-1]](%/layers.13/final_layer_norm/ReduceMean_input_cast_0)
  %/layers.13/final_layer_norm/ReduceMean_output_0 = Cast[to = 10](%/layers.13/final_layer_norm/ReduceMean_output_cast_0)
  %/layers.13/final_layer_norm/Sub_input_cast_1 = Cast[to = 1](%/layers.13/final_layer_norm/ReduceMean_output_0)
  %/layers.13/final_layer_norm/Sub_output_cast_0 = Sub(%/layers.13/final_layer_norm/ReduceMean_input_cast_0, %/layers.13/final_layer_norm/Sub_input_cast_1)
  %/layers.13/final_layer_norm/Sub_output_0 = Cast[to = 10](%/layers.13/final_layer_norm/Sub_output_cast_0)
  %/layers.13/final_layer_norm/Pow_input_cast_0 = Cast[to = 1](%/layers.13/final_layer_norm/Sub_output_0)
  %/layers.13/final_layer_norm/Pow_output_cast_0 = Pow(%/layers.13/final_layer_norm/Pow_input_cast_0, %/layers.0/self_attn_layer_norm/Pow_input_cast_1)
  %/layers.13/final_layer_norm/Pow_output_0 = Cast[to = 10](%/layers.13/final_layer_norm/Pow_output_cast_0)
  %/layers.13/final_layer_norm/ReduceMean_1_input_cast_0 = Cast[to = 1](%/layers.13/final_layer_norm/Pow_output_0)
  %/layers.13/final_layer_norm/ReduceMean_1_output_cast_0 = ReduceMean[axes = [-1]](%/layers.13/final_layer_norm/ReduceMean_1_input_cast_0)
  %/layers.13/final_layer_norm/ReduceMean_1_output_0 = Cast[to = 10](%/layers.13/final_layer_norm/ReduceMean_1_output_cast_0)
  %/layers.13/final_layer_norm/Add_input_cast_0 = Cast[to = 1](%/layers.13/final_layer_norm/ReduceMean_1_output_0)
  %/layers.13/final_layer_norm/Add_output_cast_0 = Add(%/layers.13/final_layer_norm/Add_input_cast_0, %/layers.0/self_attn_layer_norm/Add_input_cast_1)
  %/layers.13/final_layer_norm/Add_output_0 = Cast[to = 10](%/layers.13/final_layer_norm/Add_output_cast_0)
  %/layers.13/final_layer_norm/Sqrt_input_cast_0 = Cast[to = 1](%/layers.13/final_layer_norm/Add_output_0)
  %/layers.13/final_layer_norm/Sqrt_output_cast_0 = Sqrt(%/layers.13/final_layer_norm/Sqrt_input_cast_0)
  %/layers.13/final_layer_norm/Sqrt_output_0 = Cast[to = 10](%/layers.13/final_layer_norm/Sqrt_output_cast_0)
  %/layers.13/final_layer_norm/Div_input_cast_1 = Cast[to = 1](%/layers.13/final_layer_norm/Sqrt_output_0)
  %/layers.13/final_layer_norm/Div_output_cast_0 = Div(%/layers.13/final_layer_norm/Pow_input_cast_0, %/layers.13/final_layer_norm/Div_input_cast_1)
  %/layers.13/final_layer_norm/Div_output_0 = Cast[to = 10](%/layers.13/final_layer_norm/Div_output_cast_0)
  %/layers.13/final_layer_norm/Mul_input_cast_0 = Cast[to = 1](%/layers.13/final_layer_norm/Div_output_0)
  %/layers.13/final_layer_norm/Mul_output_cast_0 = Mul(%/layers.13/final_layer_norm/Mul_input_cast_0, %layers.13.final_layer_norm.weight)
  %/layers.13/final_layer_norm/Mul_output_0 = Cast[to = 10](%/layers.13/final_layer_norm/Mul_output_cast_0)
  %/layers.13/final_layer_norm/Add_1_input_cast_0 = Cast[to = 1](%/layers.13/final_layer_norm/Mul_output_0)
  %/layers.13/final_layer_norm/Add_1_output_cast_0 = Add(%/layers.13/final_layer_norm/Add_1_input_cast_0, %layers.13.final_layer_norm.bias)
  %/layers.13/final_layer_norm/Add_1_output_0 = Cast[to = 10](%/layers.13/final_layer_norm/Add_1_output_cast_0)
  %/layers.13/fc1/MatMul_input_cast_0 = Cast[to = 1](%/layers.13/final_layer_norm/Add_1_output_0)
  %/layers.13/fc1/MatMul_output_cast_0 = MatMul(%/layers.13/fc1/MatMul_input_cast_0, %onnx::MatMul_3149)
  %/layers.13/fc1/MatMul_output_0 = Cast[to = 10](%/layers.13/fc1/MatMul_output_cast_0)
  %/layers.13/fc1/Add_input_cast_1 = Cast[to = 1](%/layers.13/fc1/MatMul_output_0)
  %/layers.13/fc1/Add_output_cast_0 = Add(%layers.13.fc1.bias, %/layers.13/fc1/Add_input_cast_1)
  %/layers.13/fc1/Add_output_0 = Cast[to = 10](%/layers.13/fc1/Add_output_cast_0)
  %/layers.13/activation_fn/Relu_input_cast_0 = Cast[to = 1](%/layers.13/fc1/Add_output_0)
  %/layers.13/activation_fn/Relu_output_cast_0 = Relu(%/layers.13/activation_fn/Relu_input_cast_0)
  %/layers.13/activation_fn/Relu_output_0 = Cast[to = 10](%/layers.13/activation_fn/Relu_output_cast_0)
  %/layers.13/fc2/MatMul_input_cast_0 = Cast[to = 1](%/layers.13/activation_fn/Relu_output_0)
  %/layers.13/fc2/MatMul_output_cast_0 = MatMul(%/layers.13/fc2/MatMul_input_cast_0, %onnx::MatMul_3150)
  %/layers.13/fc2/MatMul_output_0 = Cast[to = 10](%/layers.13/fc2/MatMul_output_cast_0)
  %/layers.13/fc2/Add_input_cast_1 = Cast[to = 1](%/layers.13/fc2/MatMul_output_0)
  %/layers.13/fc2/Add_output_cast_0 = Add(%layers.13.fc2.bias, %/layers.13/fc2/Add_input_cast_1)
  %/layers.13/fc2/Add_output_0 = Cast[to = 10](%/layers.13/fc2/Add_output_cast_0)
  %/layers.13/Add_1_input_cast_1 = Cast[to = 1](%/layers.13/fc2/Add_output_0)
  %/layers.13/Add_1_output_cast_0 = Add(%/layers.13/final_layer_norm/ReduceMean_input_cast_0, %/layers.13/Add_1_input_cast_1)
  %/layers.13/Add_1_output_0 = Cast[to = 10](%/layers.13/Add_1_output_cast_0)
  %/layers.14/self_attn_layer_norm/ReduceMean_input_cast_0 = Cast[to = 1](%/layers.13/Add_1_output_0)
  %/layers.14/self_attn_layer_norm/ReduceMean_output_cast_0 = ReduceMean[axes = [-1]](%/layers.14/self_attn_layer_norm/ReduceMean_input_cast_0)
  %/layers.14/self_attn_layer_norm/ReduceMean_output_0 = Cast[to = 10](%/layers.14/self_attn_layer_norm/ReduceMean_output_cast_0)
  %/layers.14/self_attn_layer_norm/Sub_input_cast_1 = Cast[to = 1](%/layers.14/self_attn_layer_norm/ReduceMean_output_0)
  %/layers.14/self_attn_layer_norm/Sub_output_cast_0 = Sub(%/layers.14/self_attn_layer_norm/ReduceMean_input_cast_0, %/layers.14/self_attn_layer_norm/Sub_input_cast_1)
  %/layers.14/self_attn_layer_norm/Sub_output_0 = Cast[to = 10](%/layers.14/self_attn_layer_norm/Sub_output_cast_0)
  %/layers.14/self_attn_layer_norm/Pow_input_cast_0 = Cast[to = 1](%/layers.14/self_attn_layer_norm/Sub_output_0)
  %/layers.14/self_attn_layer_norm/Pow_output_cast_0 = Pow(%/layers.14/self_attn_layer_norm/Pow_input_cast_0, %/layers.0/self_attn_layer_norm/Pow_input_cast_1)
  %/layers.14/self_attn_layer_norm/Pow_output_0 = Cast[to = 10](%/layers.14/self_attn_layer_norm/Pow_output_cast_0)
  %/layers.14/self_attn_layer_norm/ReduceMean_1_input_cast_0 = Cast[to = 1](%/layers.14/self_attn_layer_norm/Pow_output_0)
  %/layers.14/self_attn_layer_norm/ReduceMean_1_output_cast_0 = ReduceMean[axes = [-1]](%/layers.14/self_attn_layer_norm/ReduceMean_1_input_cast_0)
  %/layers.14/self_attn_layer_norm/ReduceMean_1_output_0 = Cast[to = 10](%/layers.14/self_attn_layer_norm/ReduceMean_1_output_cast_0)
  %/layers.14/self_attn_layer_norm/Add_input_cast_0 = Cast[to = 1](%/layers.14/self_attn_layer_norm/ReduceMean_1_output_0)
  %/layers.14/self_attn_layer_norm/Add_output_cast_0 = Add(%/layers.14/self_attn_layer_norm/Add_input_cast_0, %/layers.0/self_attn_layer_norm/Add_input_cast_1)
  %/layers.14/self_attn_layer_norm/Add_output_0 = Cast[to = 10](%/layers.14/self_attn_layer_norm/Add_output_cast_0)
  %/layers.14/self_attn_layer_norm/Sqrt_input_cast_0 = Cast[to = 1](%/layers.14/self_attn_layer_norm/Add_output_0)
  %/layers.14/self_attn_layer_norm/Sqrt_output_cast_0 = Sqrt(%/layers.14/self_attn_layer_norm/Sqrt_input_cast_0)
  %/layers.14/self_attn_layer_norm/Sqrt_output_0 = Cast[to = 10](%/layers.14/self_attn_layer_norm/Sqrt_output_cast_0)
  %/layers.14/self_attn_layer_norm/Div_input_cast_1 = Cast[to = 1](%/layers.14/self_attn_layer_norm/Sqrt_output_0)
  %/layers.14/self_attn_layer_norm/Div_output_cast_0 = Div(%/layers.14/self_attn_layer_norm/Pow_input_cast_0, %/layers.14/self_attn_layer_norm/Div_input_cast_1)
  %/layers.14/self_attn_layer_norm/Div_output_0 = Cast[to = 10](%/layers.14/self_attn_layer_norm/Div_output_cast_0)
  %/layers.14/self_attn_layer_norm/Mul_input_cast_0 = Cast[to = 1](%/layers.14/self_attn_layer_norm/Div_output_0)
  %/layers.14/self_attn_layer_norm/Mul_output_cast_0 = Mul(%/layers.14/self_attn_layer_norm/Mul_input_cast_0, %layers.14.self_attn_layer_norm.weight)
  %/layers.14/self_attn_layer_norm/Mul_output_0 = Cast[to = 10](%/layers.14/self_attn_layer_norm/Mul_output_cast_0)
  %/layers.14/self_attn_layer_norm/Add_1_input_cast_0 = Cast[to = 1](%/layers.14/self_attn_layer_norm/Mul_output_0)
  %/layers.14/self_attn_layer_norm/Add_1_output_cast_0 = Add(%/layers.14/self_attn_layer_norm/Add_1_input_cast_0, %layers.14.self_attn_layer_norm.bias)
  %/layers.14/self_attn_layer_norm/Add_1_output_0 = Cast[to = 10](%/layers.14/self_attn_layer_norm/Add_1_output_cast_0)
  %/layers.14/self_attn/Shape_output_0 = Shape(%/layers.14/self_attn_layer_norm/Add_1_output_0)
  %/layers.14/self_attn/q_proj/MatMul_input_cast_0 = Cast[to = 1](%/layers.14/self_attn_layer_norm/Add_1_output_0)
  %4477 = MatMul(%/layers.14/self_attn/q_proj/MatMul_input_cast_0, %4476)
  %4478, %4479, %4480 = Split[axis = -1](%4477, %4383)
  %/layers.14/self_attn/Gather_output_0 = Gather[axis = 0](%/layers.14/self_attn/Shape_output_0, %/embed_positions/Constant_output_0)
  %/layers.14/self_attn/Gather_1_output_0 = Gather[axis = 0](%/layers.14/self_attn/Shape_output_0, %/Constant_output_0)
  %/layers.14/self_attn/Unsqueeze_output_0 = Unsqueeze(%/layers.14/self_attn/Gather_output_0, %onnx::Unsqueeze_269)
  %/layers.14/self_attn/Mul_1_output_0 = Mul(%/layers.14/self_attn/Gather_output_0, %/layers.0/self_attn/Constant_9_output_0)
  %/layers.14/self_attn/Unsqueeze_3_output_0 = Unsqueeze(%/layers.14/self_attn/Gather_1_output_0, %onnx::Unsqueeze_269)
  %/layers.14/self_attn/q_proj/MatMul_output_0 = Cast[to = 10](%4478)
  %/layers.14/self_attn/k_proj/MatMul_output_0 = Cast[to = 10](%4479)
  %/layers.14/self_attn/v_proj/MatMul_output_0 = Cast[to = 10](%4480)
  %/layers.14/self_attn/Concat_output_0 = Concat[axis = 0](%/layers.14/self_attn/Unsqueeze_output_0, %/Constant_1_output_0, %/layers.0/self_attn/Constant_4_output_0, %/layers.0/self_attn/Constant_5_output_0)
  %/layers.14/self_attn/Unsqueeze_4_output_0 = Unsqueeze(%/layers.14/self_attn/Mul_1_output_0, %onnx::Unsqueeze_269)
  %/layers.14/self_attn/Concat_2_output_0 = Concat[axis = 0](%/layers.14/self_attn/Unsqueeze_output_0, %/layers.14/self_attn/Unsqueeze_3_output_0, %/layers.0/self_attn/Constant_4_output_0, %/layers.0/self_attn/Constant_5_output_0)
  %/layers.14/self_attn/Concat_8_output_0 = Concat[axis = 0](%/layers.14/self_attn/Unsqueeze_output_0, %/layers.0/self_attn/Constant_4_output_0, %/layers.14/self_attn/Unsqueeze_3_output_0, %/layers.0/self_attn/Constant_5_output_0)
  %/layers.14/self_attn/Concat_9_output_0 = Concat[axis = 0](%/layers.14/self_attn/Unsqueeze_output_0, %/layers.14/self_attn/Unsqueeze_3_output_0, %/layers.0/self_attn/Constant_22_output_0)
  %/layers.14/self_attn/q_proj/Add_input_cast_1 = Cast[to = 1](%/layers.14/self_attn/q_proj/MatMul_output_0)
  %/layers.14/self_attn/k_proj/Add_input_cast_1 = Cast[to = 1](%/layers.14/self_attn/k_proj/MatMul_output_0)
  %/layers.14/self_attn/v_proj/Add_input_cast_1 = Cast[to = 1](%/layers.14/self_attn/v_proj/MatMul_output_0)
  %/layers.14/self_attn/Concat_3_output_0 = Concat[axis = 0](%/layers.14/self_attn/Unsqueeze_4_output_0, %/Constant_1_output_0, %/layers.0/self_attn/Constant_5_output_0)
  %/layers.14/self_attn/q_proj/Add_output_cast_0 = Add(%layers.14.self_attn.q_proj.bias, %/layers.14/self_attn/q_proj/Add_input_cast_1)
  %/layers.14/self_attn/k_proj/Add_output_cast_0 = Add(%layers.14.self_attn.k_proj.bias, %/layers.14/self_attn/k_proj/Add_input_cast_1)
  %/layers.14/self_attn/v_proj/Add_output_cast_0 = Add(%layers.14.self_attn.v_proj.bias, %/layers.14/self_attn/v_proj/Add_input_cast_1)
  %/layers.14/self_attn/q_proj/Add_output_0 = Cast[to = 10](%/layers.14/self_attn/q_proj/Add_output_cast_0)
  %/layers.14/self_attn/k_proj/Add_output_0 = Cast[to = 10](%/layers.14/self_attn/k_proj/Add_output_cast_0)
  %/layers.14/self_attn/v_proj/Add_output_0 = Cast[to = 10](%/layers.14/self_attn/v_proj/Add_output_cast_0)
  %/layers.14/self_attn/Mul_input_cast_0 = Cast[to = 1](%/layers.14/self_attn/q_proj/Add_output_0)
  %/layers.14/self_attn/Reshape_input_cast_0 = Cast[to = 1](%/layers.14/self_attn/k_proj/Add_output_0)
  %/layers.14/self_attn/Reshape_1_input_cast_0 = Cast[to = 1](%/layers.14/self_attn/v_proj/Add_output_0)
  %/layers.14/self_attn/Mul_output_cast_0 = Mul(%/layers.14/self_attn/Mul_input_cast_0, %/layers.0/self_attn/Mul_input_cast_1)
  %/layers.14/self_attn/Reshape_output_cast_0 = Reshape(%/layers.14/self_attn/Reshape_input_cast_0, %/layers.14/self_attn/Concat_output_0)
  %/layers.14/self_attn/Reshape_1_output_cast_0 = Reshape(%/layers.14/self_attn/Reshape_1_input_cast_0, %/layers.14/self_attn/Concat_output_0)
  %/layers.14/self_attn/Mul_output_0 = Cast[to = 10](%/layers.14/self_attn/Mul_output_cast_0)
  %/layers.14/self_attn/Reshape_output_0 = Cast[to = 10](%/layers.14/self_attn/Reshape_output_cast_0)
  %/layers.14/self_attn/Reshape_1_output_0 = Cast[to = 10](%/layers.14/self_attn/Reshape_1_output_cast_0)
  %/layers.14/self_attn/Reshape_2_input_cast_0 = Cast[to = 1](%/layers.14/self_attn/Mul_output_0)
  %/layers.14/self_attn/Transpose_input_cast_0 = Cast[to = 1](%/layers.14/self_attn/Reshape_output_0)
  %/layers.14/self_attn/Transpose_1_input_cast_0 = Cast[to = 1](%/layers.14/self_attn/Reshape_1_output_0)
  %/layers.14/self_attn/Reshape_2_output_cast_0 = Reshape(%/layers.14/self_attn/Reshape_2_input_cast_0, %/layers.14/self_attn/Concat_2_output_0)
  %/layers.14/self_attn/Transpose_output_cast_0 = Transpose[perm = [0, 2, 1, 3]](%/layers.14/self_attn/Transpose_input_cast_0)
  %/layers.14/self_attn/Transpose_1_output_cast_0 = Transpose[perm = [0, 2, 1, 3]](%/layers.14/self_attn/Transpose_1_input_cast_0)
  %/layers.14/self_attn/Reshape_2_output_0 = Cast[to = 10](%/layers.14/self_attn/Reshape_2_output_cast_0)
  %/layers.14/self_attn/Transpose_output_0 = Cast[to = 10](%/layers.14/self_attn/Transpose_output_cast_0)
  %/layers.14/self_attn/Transpose_1_output_0 = Cast[to = 10](%/layers.14/self_attn/Transpose_1_output_cast_0)
  %/layers.14/self_attn/Transpose_2_input_cast_0 = Cast[to = 1](%/layers.14/self_attn/Reshape_2_output_0)
  %/layers.14/self_attn/Reshape_4_input_cast_0 = Cast[to = 1](%/layers.14/self_attn/Transpose_output_0)
  %/layers.14/self_attn/Reshape_5_input_cast_0 = Cast[to = 1](%/layers.14/self_attn/Transpose_1_output_0)
  %/layers.14/self_attn/Transpose_2_output_cast_0 = Transpose[perm = [0, 2, 1, 3]](%/layers.14/self_attn/Transpose_2_input_cast_0)
  %/layers.14/self_attn/Reshape_4_output_cast_0 = Reshape(%/layers.14/self_attn/Reshape_4_input_cast_0, %/layers.14/self_attn/Concat_3_output_0)
  %/layers.14/self_attn/Reshape_5_output_cast_0 = Reshape(%/layers.14/self_attn/Reshape_5_input_cast_0, %/layers.14/self_attn/Concat_3_output_0)
  %/layers.14/self_attn/Transpose_2_output_0 = Cast[to = 10](%/layers.14/self_attn/Transpose_2_output_cast_0)
  %/layers.14/self_attn/Reshape_4_output_0 = Cast[to = 10](%/layers.14/self_attn/Reshape_4_output_cast_0)
  %/layers.14/self_attn/Reshape_5_output_0 = Cast[to = 10](%/layers.14/self_attn/Reshape_5_output_cast_0)
  %/layers.14/self_attn/Reshape_3_input_cast_0 = Cast[to = 1](%/layers.14/self_attn/Transpose_2_output_0)
  %/layers.14/self_attn/Shape_2_output_0 = Shape(%/layers.14/self_attn/Reshape_4_output_0)
  %/layers.14/self_attn/Transpose_3_input_cast_0 = Cast[to = 1](%/layers.14/self_attn/Reshape_4_output_0)
  %/layers.14/self_attn/MatMul_1_input_cast_1 = Cast[to = 1](%/layers.14/self_attn/Reshape_5_output_0)
  %/layers.14/self_attn/Reshape_3_output_cast_0 = Reshape(%/layers.14/self_attn/Reshape_3_input_cast_0, %/layers.14/self_attn/Concat_3_output_0)
  %/layers.14/self_attn/Gather_2_output_0 = Gather[axis = 0](%/layers.14/self_attn/Shape_2_output_0, %/Constant_output_0)
  %/layers.14/self_attn/Transpose_3_output_cast_0 = Transpose[perm = [0, 2, 1]](%/layers.14/self_attn/Transpose_3_input_cast_0)
  %/layers.14/self_attn/Reshape_3_output_0 = Cast[to = 10](%/layers.14/self_attn/Reshape_3_output_cast_0)
  %/layers.14/self_attn/Unsqueeze_9_output_0 = Unsqueeze(%/layers.14/self_attn/Gather_2_output_0, %onnx::Unsqueeze_269)
  %/layers.14/self_attn/Transpose_3_output_0 = Cast[to = 10](%/layers.14/self_attn/Transpose_3_output_cast_0)
  %/layers.14/self_attn/MatMul_input_cast_0 = Cast[to = 1](%/layers.14/self_attn/Reshape_3_output_0)
  %/layers.14/self_attn/Concat_6_output_0 = Concat[axis = 0](%/layers.14/self_attn/Unsqueeze_output_0, %/layers.0/self_attn/Constant_4_output_0, %/layers.14/self_attn/Unsqueeze_3_output_0, %/layers.14/self_attn/Unsqueeze_9_output_0)
  %/layers.14/self_attn/Concat_7_output_0 = Concat[axis = 0](%/layers.14/self_attn/Unsqueeze_4_output_0, %/layers.14/self_attn/Unsqueeze_3_output_0, %/layers.14/self_attn/Unsqueeze_9_output_0)
  %/layers.14/self_attn/MatMul_input_cast_1 = Cast[to = 1](%/layers.14/self_attn/Transpose_3_output_0)
  %/layers.14/self_attn/MatMul_output_cast_0 = MatMul(%/layers.14/self_attn/MatMul_input_cast_0, %/layers.14/self_attn/MatMul_input_cast_1)
  %/layers.14/self_attn/MatMul_output_0 = Cast[to = 10](%/layers.14/self_attn/MatMul_output_cast_0)
  %/layers.14/self_attn/Reshape_6_input_cast_0 = Cast[to = 1](%/layers.14/self_attn/MatMul_output_0)
  %/layers.14/self_attn/Reshape_6_output_cast_0 = Reshape(%/layers.14/self_attn/Reshape_6_input_cast_0, %/layers.14/self_attn/Concat_6_output_0)
  %/layers.14/self_attn/Reshape_6_output_0 = Cast[to = 10](%/layers.14/self_attn/Reshape_6_output_cast_0)
  %/layers.14/self_attn/Add_input_cast_0 = Cast[to = 1](%/layers.14/self_attn/Reshape_6_output_0)
  %/layers.14/self_attn/Add_output_cast_0 = Add(%/layers.14/self_attn/Add_input_cast_0, %/layers.0/self_attn/Add_input_cast_1)
  %/layers.14/self_attn/Add_output_0 = Cast[to = 10](%/layers.14/self_attn/Add_output_cast_0)
  %/layers.14/self_attn/Reshape_7_input_cast_0 = Cast[to = 1](%/layers.14/self_attn/Add_output_0)
  %/layers.14/self_attn/Reshape_7_output_cast_0 = Reshape(%/layers.14/self_attn/Reshape_7_input_cast_0, %/layers.14/self_attn/Concat_7_output_0)
  %/layers.14/self_attn/Reshape_7_output_0 = Cast[to = 10](%/layers.14/self_attn/Reshape_7_output_cast_0)
  %/layers.14/self_attn/Softmax_input_cast_0 = Cast[to = 1](%/layers.14/self_attn/Reshape_7_output_0)
  %/layers.14/self_attn/Softmax_output_cast_0 = Softmax[axis = -1](%/layers.14/self_attn/Softmax_input_cast_0)
  %/layers.14/self_attn/Softmax_output_0 = Cast[to = 10](%/layers.14/self_attn/Softmax_output_cast_0)
  %/layers.14/self_attn/MatMul_1_input_cast_0 = Cast[to = 1](%/layers.14/self_attn/Softmax_output_0)
  %/layers.14/self_attn/MatMul_1_output_cast_0 = MatMul(%/layers.14/self_attn/MatMul_1_input_cast_0, %/layers.14/self_attn/MatMul_1_input_cast_1)
  %/layers.14/self_attn/MatMul_1_output_0 = Cast[to = 10](%/layers.14/self_attn/MatMul_1_output_cast_0)
  %/layers.14/self_attn/Reshape_8_input_cast_0 = Cast[to = 1](%/layers.14/self_attn/MatMul_1_output_0)
  %/layers.14/self_attn/Reshape_8_output_cast_0 = Reshape(%/layers.14/self_attn/Reshape_8_input_cast_0, %/layers.14/self_attn/Concat_8_output_0)
  %/layers.14/self_attn/Reshape_8_output_0 = Cast[to = 10](%/layers.14/self_attn/Reshape_8_output_cast_0)
  %/layers.14/self_attn/Transpose_4_input_cast_0 = Cast[to = 1](%/layers.14/self_attn/Reshape_8_output_0)
  %/layers.14/self_attn/Transpose_4_output_cast_0 = Transpose[perm = [0, 2, 1, 3]](%/layers.14/self_attn/Transpose_4_input_cast_0)
  %/layers.14/self_attn/Transpose_4_output_0 = Cast[to = 10](%/layers.14/self_attn/Transpose_4_output_cast_0)
  %/layers.14/self_attn/Reshape_9_input_cast_0 = Cast[to = 1](%/layers.14/self_attn/Transpose_4_output_0)
  %/layers.14/self_attn/Reshape_9_output_cast_0 = Reshape(%/layers.14/self_attn/Reshape_9_input_cast_0, %/layers.14/self_attn/Concat_9_output_0)
  %/layers.14/self_attn/Reshape_9_output_0 = Cast[to = 10](%/layers.14/self_attn/Reshape_9_output_cast_0)
  %/layers.14/self_attn/out_proj/MatMul_input_cast_0 = Cast[to = 1](%/layers.14/self_attn/Reshape_9_output_0)
  %/layers.14/self_attn/out_proj/MatMul_output_cast_0 = MatMul(%/layers.14/self_attn/out_proj/MatMul_input_cast_0, %onnx::MatMul_3172)
  %/layers.14/self_attn/out_proj/MatMul_output_0 = Cast[to = 10](%/layers.14/self_attn/out_proj/MatMul_output_cast_0)
  %/layers.14/self_attn/out_proj/Add_input_cast_1 = Cast[to = 1](%/layers.14/self_attn/out_proj/MatMul_output_0)
  %/layers.14/self_attn/out_proj/Add_output_cast_0 = Add(%layers.14.self_attn.out_proj.bias, %/layers.14/self_attn/out_proj/Add_input_cast_1)
  %/layers.14/self_attn/out_proj/Add_output_0 = Cast[to = 10](%/layers.14/self_attn/out_proj/Add_output_cast_0)
  %/layers.14/Add_input_cast_1 = Cast[to = 1](%/layers.14/self_attn/out_proj/Add_output_0)
  %/layers.14/Add_output_cast_0 = Add(%/layers.14/self_attn_layer_norm/ReduceMean_input_cast_0, %/layers.14/Add_input_cast_1)
  %/layers.14/Add_output_0 = Cast[to = 10](%/layers.14/Add_output_cast_0)
  %/layers.14/final_layer_norm/ReduceMean_input_cast_0 = Cast[to = 1](%/layers.14/Add_output_0)
  %/layers.14/final_layer_norm/ReduceMean_output_cast_0 = ReduceMean[axes = [-1]](%/layers.14/final_layer_norm/ReduceMean_input_cast_0)
  %/layers.14/final_layer_norm/ReduceMean_output_0 = Cast[to = 10](%/layers.14/final_layer_norm/ReduceMean_output_cast_0)
  %/layers.14/final_layer_norm/Sub_input_cast_1 = Cast[to = 1](%/layers.14/final_layer_norm/ReduceMean_output_0)
  %/layers.14/final_layer_norm/Sub_output_cast_0 = Sub(%/layers.14/final_layer_norm/ReduceMean_input_cast_0, %/layers.14/final_layer_norm/Sub_input_cast_1)
  %/layers.14/final_layer_norm/Sub_output_0 = Cast[to = 10](%/layers.14/final_layer_norm/Sub_output_cast_0)
  %/layers.14/final_layer_norm/Pow_input_cast_0 = Cast[to = 1](%/layers.14/final_layer_norm/Sub_output_0)
  %/layers.14/final_layer_norm/Pow_output_cast_0 = Pow(%/layers.14/final_layer_norm/Pow_input_cast_0, %/layers.0/self_attn_layer_norm/Pow_input_cast_1)
  %/layers.14/final_layer_norm/Pow_output_0 = Cast[to = 10](%/layers.14/final_layer_norm/Pow_output_cast_0)
  %/layers.14/final_layer_norm/ReduceMean_1_input_cast_0 = Cast[to = 1](%/layers.14/final_layer_norm/Pow_output_0)
  %/layers.14/final_layer_norm/ReduceMean_1_output_cast_0 = ReduceMean[axes = [-1]](%/layers.14/final_layer_norm/ReduceMean_1_input_cast_0)
  %/layers.14/final_layer_norm/ReduceMean_1_output_0 = Cast[to = 10](%/layers.14/final_layer_norm/ReduceMean_1_output_cast_0)
  %/layers.14/final_layer_norm/Add_input_cast_0 = Cast[to = 1](%/layers.14/final_layer_norm/ReduceMean_1_output_0)
  %/layers.14/final_layer_norm/Add_output_cast_0 = Add(%/layers.14/final_layer_norm/Add_input_cast_0, %/layers.0/self_attn_layer_norm/Add_input_cast_1)
  %/layers.14/final_layer_norm/Add_output_0 = Cast[to = 10](%/layers.14/final_layer_norm/Add_output_cast_0)
  %/layers.14/final_layer_norm/Sqrt_input_cast_0 = Cast[to = 1](%/layers.14/final_layer_norm/Add_output_0)
  %/layers.14/final_layer_norm/Sqrt_output_cast_0 = Sqrt(%/layers.14/final_layer_norm/Sqrt_input_cast_0)
  %/layers.14/final_layer_norm/Sqrt_output_0 = Cast[to = 10](%/layers.14/final_layer_norm/Sqrt_output_cast_0)
  %/layers.14/final_layer_norm/Div_input_cast_1 = Cast[to = 1](%/layers.14/final_layer_norm/Sqrt_output_0)
  %/layers.14/final_layer_norm/Div_output_cast_0 = Div(%/layers.14/final_layer_norm/Pow_input_cast_0, %/layers.14/final_layer_norm/Div_input_cast_1)
  %/layers.14/final_layer_norm/Div_output_0 = Cast[to = 10](%/layers.14/final_layer_norm/Div_output_cast_0)
  %/layers.14/final_layer_norm/Mul_input_cast_0 = Cast[to = 1](%/layers.14/final_layer_norm/Div_output_0)
  %/layers.14/final_layer_norm/Mul_output_cast_0 = Mul(%/layers.14/final_layer_norm/Mul_input_cast_0, %layers.14.final_layer_norm.weight)
  %/layers.14/final_layer_norm/Mul_output_0 = Cast[to = 10](%/layers.14/final_layer_norm/Mul_output_cast_0)
  %/layers.14/final_layer_norm/Add_1_input_cast_0 = Cast[to = 1](%/layers.14/final_layer_norm/Mul_output_0)
  %/layers.14/final_layer_norm/Add_1_output_cast_0 = Add(%/layers.14/final_layer_norm/Add_1_input_cast_0, %layers.14.final_layer_norm.bias)
  %/layers.14/final_layer_norm/Add_1_output_0 = Cast[to = 10](%/layers.14/final_layer_norm/Add_1_output_cast_0)
  %/layers.14/fc1/MatMul_input_cast_0 = Cast[to = 1](%/layers.14/final_layer_norm/Add_1_output_0)
  %/layers.14/fc1/MatMul_output_cast_0 = MatMul(%/layers.14/fc1/MatMul_input_cast_0, %onnx::MatMul_3173)
  %/layers.14/fc1/MatMul_output_0 = Cast[to = 10](%/layers.14/fc1/MatMul_output_cast_0)
  %/layers.14/fc1/Add_input_cast_1 = Cast[to = 1](%/layers.14/fc1/MatMul_output_0)
  %/layers.14/fc1/Add_output_cast_0 = Add(%layers.14.fc1.bias, %/layers.14/fc1/Add_input_cast_1)
  %/layers.14/fc1/Add_output_0 = Cast[to = 10](%/layers.14/fc1/Add_output_cast_0)
  %/layers.14/activation_fn/Relu_input_cast_0 = Cast[to = 1](%/layers.14/fc1/Add_output_0)
  %/layers.14/activation_fn/Relu_output_cast_0 = Relu(%/layers.14/activation_fn/Relu_input_cast_0)
  %/layers.14/activation_fn/Relu_output_0 = Cast[to = 10](%/layers.14/activation_fn/Relu_output_cast_0)
  %/layers.14/fc2/MatMul_input_cast_0 = Cast[to = 1](%/layers.14/activation_fn/Relu_output_0)
  %/layers.14/fc2/MatMul_output_cast_0 = MatMul(%/layers.14/fc2/MatMul_input_cast_0, %onnx::MatMul_3174)
  %/layers.14/fc2/MatMul_output_0 = Cast[to = 10](%/layers.14/fc2/MatMul_output_cast_0)
  %/layers.14/fc2/Add_input_cast_1 = Cast[to = 1](%/layers.14/fc2/MatMul_output_0)
  %/layers.14/fc2/Add_output_cast_0 = Add(%layers.14.fc2.bias, %/layers.14/fc2/Add_input_cast_1)
  %/layers.14/fc2/Add_output_0 = Cast[to = 10](%/layers.14/fc2/Add_output_cast_0)
  %/layers.14/Add_1_input_cast_1 = Cast[to = 1](%/layers.14/fc2/Add_output_0)
  %/layers.14/Add_1_output_cast_0 = Add(%/layers.14/final_layer_norm/ReduceMean_input_cast_0, %/layers.14/Add_1_input_cast_1)
  %/layers.14/Add_1_output_0 = Cast[to = 10](%/layers.14/Add_1_output_cast_0)
  %/layers.15/self_attn_layer_norm/ReduceMean_input_cast_0 = Cast[to = 1](%/layers.14/Add_1_output_0)
  %/layers.15/self_attn_layer_norm/ReduceMean_output_cast_0 = ReduceMean[axes = [-1]](%/layers.15/self_attn_layer_norm/ReduceMean_input_cast_0)
  %/layers.15/self_attn_layer_norm/ReduceMean_output_0 = Cast[to = 10](%/layers.15/self_attn_layer_norm/ReduceMean_output_cast_0)
  %/layers.15/self_attn_layer_norm/Sub_input_cast_1 = Cast[to = 1](%/layers.15/self_attn_layer_norm/ReduceMean_output_0)
  %/layers.15/self_attn_layer_norm/Sub_output_cast_0 = Sub(%/layers.15/self_attn_layer_norm/ReduceMean_input_cast_0, %/layers.15/self_attn_layer_norm/Sub_input_cast_1)
  %/layers.15/self_attn_layer_norm/Sub_output_0 = Cast[to = 10](%/layers.15/self_attn_layer_norm/Sub_output_cast_0)
  %/layers.15/self_attn_layer_norm/Pow_input_cast_0 = Cast[to = 1](%/layers.15/self_attn_layer_norm/Sub_output_0)
  %/layers.15/self_attn_layer_norm/Pow_output_cast_0 = Pow(%/layers.15/self_attn_layer_norm/Pow_input_cast_0, %/layers.0/self_attn_layer_norm/Pow_input_cast_1)
  %/layers.15/self_attn_layer_norm/Pow_output_0 = Cast[to = 10](%/layers.15/self_attn_layer_norm/Pow_output_cast_0)
  %/layers.15/self_attn_layer_norm/ReduceMean_1_input_cast_0 = Cast[to = 1](%/layers.15/self_attn_layer_norm/Pow_output_0)
  %/layers.15/self_attn_layer_norm/ReduceMean_1_output_cast_0 = ReduceMean[axes = [-1]](%/layers.15/self_attn_layer_norm/ReduceMean_1_input_cast_0)
  %/layers.15/self_attn_layer_norm/ReduceMean_1_output_0 = Cast[to = 10](%/layers.15/self_attn_layer_norm/ReduceMean_1_output_cast_0)
  %/layers.15/self_attn_layer_norm/Add_input_cast_0 = Cast[to = 1](%/layers.15/self_attn_layer_norm/ReduceMean_1_output_0)
  %/layers.15/self_attn_layer_norm/Add_output_cast_0 = Add(%/layers.15/self_attn_layer_norm/Add_input_cast_0, %/layers.0/self_attn_layer_norm/Add_input_cast_1)
  %/layers.15/self_attn_layer_norm/Add_output_0 = Cast[to = 10](%/layers.15/self_attn_layer_norm/Add_output_cast_0)
  %/layers.15/self_attn_layer_norm/Sqrt_input_cast_0 = Cast[to = 1](%/layers.15/self_attn_layer_norm/Add_output_0)
  %/layers.15/self_attn_layer_norm/Sqrt_output_cast_0 = Sqrt(%/layers.15/self_attn_layer_norm/Sqrt_input_cast_0)
  %/layers.15/self_attn_layer_norm/Sqrt_output_0 = Cast[to = 10](%/layers.15/self_attn_layer_norm/Sqrt_output_cast_0)
  %/layers.15/self_attn_layer_norm/Div_input_cast_1 = Cast[to = 1](%/layers.15/self_attn_layer_norm/Sqrt_output_0)
  %/layers.15/self_attn_layer_norm/Div_output_cast_0 = Div(%/layers.15/self_attn_layer_norm/Pow_input_cast_0, %/layers.15/self_attn_layer_norm/Div_input_cast_1)
  %/layers.15/self_attn_layer_norm/Div_output_0 = Cast[to = 10](%/layers.15/self_attn_layer_norm/Div_output_cast_0)
  %/layers.15/self_attn_layer_norm/Mul_input_cast_0 = Cast[to = 1](%/layers.15/self_attn_layer_norm/Div_output_0)
  %/layers.15/self_attn_layer_norm/Mul_output_cast_0 = Mul(%/layers.15/self_attn_layer_norm/Mul_input_cast_0, %layers.15.self_attn_layer_norm.weight)
  %/layers.15/self_attn_layer_norm/Mul_output_0 = Cast[to = 10](%/layers.15/self_attn_layer_norm/Mul_output_cast_0)
  %/layers.15/self_attn_layer_norm/Add_1_input_cast_0 = Cast[to = 1](%/layers.15/self_attn_layer_norm/Mul_output_0)
  %/layers.15/self_attn_layer_norm/Add_1_output_cast_0 = Add(%/layers.15/self_attn_layer_norm/Add_1_input_cast_0, %layers.15.self_attn_layer_norm.bias)
  %/layers.15/self_attn_layer_norm/Add_1_output_0 = Cast[to = 10](%/layers.15/self_attn_layer_norm/Add_1_output_cast_0)
  %/layers.15/self_attn/Shape_output_0 = Shape(%/layers.15/self_attn_layer_norm/Add_1_output_0)
  %/layers.15/self_attn/q_proj/MatMul_input_cast_0 = Cast[to = 1](%/layers.15/self_attn_layer_norm/Add_1_output_0)
  %4484 = MatMul(%/layers.15/self_attn/q_proj/MatMul_input_cast_0, %4483)
  %4485, %4486, %4487 = Split[axis = -1](%4484, %4383)
  %/layers.15/self_attn/Gather_output_0 = Gather[axis = 0](%/layers.15/self_attn/Shape_output_0, %/embed_positions/Constant_output_0)
  %/layers.15/self_attn/Gather_1_output_0 = Gather[axis = 0](%/layers.15/self_attn/Shape_output_0, %/Constant_output_0)
  %/layers.15/self_attn/Unsqueeze_output_0 = Unsqueeze(%/layers.15/self_attn/Gather_output_0, %onnx::Unsqueeze_269)
  %/layers.15/self_attn/Mul_1_output_0 = Mul(%/layers.15/self_attn/Gather_output_0, %/layers.0/self_attn/Constant_9_output_0)
  %/layers.15/self_attn/Unsqueeze_3_output_0 = Unsqueeze(%/layers.15/self_attn/Gather_1_output_0, %onnx::Unsqueeze_269)
  %/layers.15/self_attn/q_proj/MatMul_output_0 = Cast[to = 10](%4485)
  %/layers.15/self_attn/k_proj/MatMul_output_0 = Cast[to = 10](%4486)
  %/layers.15/self_attn/v_proj/MatMul_output_0 = Cast[to = 10](%4487)
  %/layers.15/self_attn/Concat_output_0 = Concat[axis = 0](%/layers.15/self_attn/Unsqueeze_output_0, %/Constant_1_output_0, %/layers.0/self_attn/Constant_4_output_0, %/layers.0/self_attn/Constant_5_output_0)
  %/layers.15/self_attn/Unsqueeze_4_output_0 = Unsqueeze(%/layers.15/self_attn/Mul_1_output_0, %onnx::Unsqueeze_269)
  %/layers.15/self_attn/Concat_2_output_0 = Concat[axis = 0](%/layers.15/self_attn/Unsqueeze_output_0, %/layers.15/self_attn/Unsqueeze_3_output_0, %/layers.0/self_attn/Constant_4_output_0, %/layers.0/self_attn/Constant_5_output_0)
  %/layers.15/self_attn/Concat_8_output_0 = Concat[axis = 0](%/layers.15/self_attn/Unsqueeze_output_0, %/layers.0/self_attn/Constant_4_output_0, %/layers.15/self_attn/Unsqueeze_3_output_0, %/layers.0/self_attn/Constant_5_output_0)
  %/layers.15/self_attn/Concat_9_output_0 = Concat[axis = 0](%/layers.15/self_attn/Unsqueeze_output_0, %/layers.15/self_attn/Unsqueeze_3_output_0, %/layers.0/self_attn/Constant_22_output_0)
  %/layers.15/self_attn/q_proj/Add_input_cast_1 = Cast[to = 1](%/layers.15/self_attn/q_proj/MatMul_output_0)
  %/layers.15/self_attn/k_proj/Add_input_cast_1 = Cast[to = 1](%/layers.15/self_attn/k_proj/MatMul_output_0)
  %/layers.15/self_attn/v_proj/Add_input_cast_1 = Cast[to = 1](%/layers.15/self_attn/v_proj/MatMul_output_0)
  %/layers.15/self_attn/Concat_3_output_0 = Concat[axis = 0](%/layers.15/self_attn/Unsqueeze_4_output_0, %/Constant_1_output_0, %/layers.0/self_attn/Constant_5_output_0)
  %/layers.15/self_attn/q_proj/Add_output_cast_0 = Add(%layers.15.self_attn.q_proj.bias, %/layers.15/self_attn/q_proj/Add_input_cast_1)
  %/layers.15/self_attn/k_proj/Add_output_cast_0 = Add(%layers.15.self_attn.k_proj.bias, %/layers.15/self_attn/k_proj/Add_input_cast_1)
  %/layers.15/self_attn/v_proj/Add_output_cast_0 = Add(%layers.15.self_attn.v_proj.bias, %/layers.15/self_attn/v_proj/Add_input_cast_1)
  %/layers.15/self_attn/q_proj/Add_output_0 = Cast[to = 10](%/layers.15/self_attn/q_proj/Add_output_cast_0)
  %/layers.15/self_attn/k_proj/Add_output_0 = Cast[to = 10](%/layers.15/self_attn/k_proj/Add_output_cast_0)
  %/layers.15/self_attn/v_proj/Add_output_0 = Cast[to = 10](%/layers.15/self_attn/v_proj/Add_output_cast_0)
  %/layers.15/self_attn/Mul_input_cast_0 = Cast[to = 1](%/layers.15/self_attn/q_proj/Add_output_0)
  %/layers.15/self_attn/Reshape_input_cast_0 = Cast[to = 1](%/layers.15/self_attn/k_proj/Add_output_0)
  %/layers.15/self_attn/Reshape_1_input_cast_0 = Cast[to = 1](%/layers.15/self_attn/v_proj/Add_output_0)
  %/layers.15/self_attn/Mul_output_cast_0 = Mul(%/layers.15/self_attn/Mul_input_cast_0, %/layers.0/self_attn/Mul_input_cast_1)
  %/layers.15/self_attn/Reshape_output_cast_0 = Reshape(%/layers.15/self_attn/Reshape_input_cast_0, %/layers.15/self_attn/Concat_output_0)
  %/layers.15/self_attn/Reshape_1_output_cast_0 = Reshape(%/layers.15/self_attn/Reshape_1_input_cast_0, %/layers.15/self_attn/Concat_output_0)
  %/layers.15/self_attn/Mul_output_0 = Cast[to = 10](%/layers.15/self_attn/Mul_output_cast_0)
  %/layers.15/self_attn/Reshape_output_0 = Cast[to = 10](%/layers.15/self_attn/Reshape_output_cast_0)
  %/layers.15/self_attn/Reshape_1_output_0 = Cast[to = 10](%/layers.15/self_attn/Reshape_1_output_cast_0)
  %/layers.15/self_attn/Reshape_2_input_cast_0 = Cast[to = 1](%/layers.15/self_attn/Mul_output_0)
  %/layers.15/self_attn/Transpose_input_cast_0 = Cast[to = 1](%/layers.15/self_attn/Reshape_output_0)
  %/layers.15/self_attn/Transpose_1_input_cast_0 = Cast[to = 1](%/layers.15/self_attn/Reshape_1_output_0)
  %/layers.15/self_attn/Reshape_2_output_cast_0 = Reshape(%/layers.15/self_attn/Reshape_2_input_cast_0, %/layers.15/self_attn/Concat_2_output_0)
  %/layers.15/self_attn/Transpose_output_cast_0 = Transpose[perm = [0, 2, 1, 3]](%/layers.15/self_attn/Transpose_input_cast_0)
  %/layers.15/self_attn/Transpose_1_output_cast_0 = Transpose[perm = [0, 2, 1, 3]](%/layers.15/self_attn/Transpose_1_input_cast_0)
  %/layers.15/self_attn/Reshape_2_output_0 = Cast[to = 10](%/layers.15/self_attn/Reshape_2_output_cast_0)
  %/layers.15/self_attn/Transpose_output_0 = Cast[to = 10](%/layers.15/self_attn/Transpose_output_cast_0)
  %/layers.15/self_attn/Transpose_1_output_0 = Cast[to = 10](%/layers.15/self_attn/Transpose_1_output_cast_0)
  %/layers.15/self_attn/Transpose_2_input_cast_0 = Cast[to = 1](%/layers.15/self_attn/Reshape_2_output_0)
  %/layers.15/self_attn/Reshape_4_input_cast_0 = Cast[to = 1](%/layers.15/self_attn/Transpose_output_0)
  %/layers.15/self_attn/Reshape_5_input_cast_0 = Cast[to = 1](%/layers.15/self_attn/Transpose_1_output_0)
  %/layers.15/self_attn/Transpose_2_output_cast_0 = Transpose[perm = [0, 2, 1, 3]](%/layers.15/self_attn/Transpose_2_input_cast_0)
  %/layers.15/self_attn/Reshape_4_output_cast_0 = Reshape(%/layers.15/self_attn/Reshape_4_input_cast_0, %/layers.15/self_attn/Concat_3_output_0)
  %/layers.15/self_attn/Reshape_5_output_cast_0 = Reshape(%/layers.15/self_attn/Reshape_5_input_cast_0, %/layers.15/self_attn/Concat_3_output_0)
  %/layers.15/self_attn/Transpose_2_output_0 = Cast[to = 10](%/layers.15/self_attn/Transpose_2_output_cast_0)
  %/layers.15/self_attn/Reshape_4_output_0 = Cast[to = 10](%/layers.15/self_attn/Reshape_4_output_cast_0)
  %/layers.15/self_attn/Reshape_5_output_0 = Cast[to = 10](%/layers.15/self_attn/Reshape_5_output_cast_0)
  %/layers.15/self_attn/Reshape_3_input_cast_0 = Cast[to = 1](%/layers.15/self_attn/Transpose_2_output_0)
  %/layers.15/self_attn/Shape_2_output_0 = Shape(%/layers.15/self_attn/Reshape_4_output_0)
  %/layers.15/self_attn/Transpose_3_input_cast_0 = Cast[to = 1](%/layers.15/self_attn/Reshape_4_output_0)
  %/layers.15/self_attn/MatMul_1_input_cast_1 = Cast[to = 1](%/layers.15/self_attn/Reshape_5_output_0)
  %/layers.15/self_attn/Reshape_3_output_cast_0 = Reshape(%/layers.15/self_attn/Reshape_3_input_cast_0, %/layers.15/self_attn/Concat_3_output_0)
  %/layers.15/self_attn/Gather_2_output_0 = Gather[axis = 0](%/layers.15/self_attn/Shape_2_output_0, %/Constant_output_0)
  %/layers.15/self_attn/Transpose_3_output_cast_0 = Transpose[perm = [0, 2, 1]](%/layers.15/self_attn/Transpose_3_input_cast_0)
  %/layers.15/self_attn/Reshape_3_output_0 = Cast[to = 10](%/layers.15/self_attn/Reshape_3_output_cast_0)
  %/layers.15/self_attn/Unsqueeze_9_output_0 = Unsqueeze(%/layers.15/self_attn/Gather_2_output_0, %onnx::Unsqueeze_269)
  %/layers.15/self_attn/Transpose_3_output_0 = Cast[to = 10](%/layers.15/self_attn/Transpose_3_output_cast_0)
  %/layers.15/self_attn/MatMul_input_cast_0 = Cast[to = 1](%/layers.15/self_attn/Reshape_3_output_0)
  %/layers.15/self_attn/Concat_6_output_0 = Concat[axis = 0](%/layers.15/self_attn/Unsqueeze_output_0, %/layers.0/self_attn/Constant_4_output_0, %/layers.15/self_attn/Unsqueeze_3_output_0, %/layers.15/self_attn/Unsqueeze_9_output_0)
  %/layers.15/self_attn/Concat_7_output_0 = Concat[axis = 0](%/layers.15/self_attn/Unsqueeze_4_output_0, %/layers.15/self_attn/Unsqueeze_3_output_0, %/layers.15/self_attn/Unsqueeze_9_output_0)
  %/layers.15/self_attn/MatMul_input_cast_1 = Cast[to = 1](%/layers.15/self_attn/Transpose_3_output_0)
  %/layers.15/self_attn/MatMul_output_cast_0 = MatMul(%/layers.15/self_attn/MatMul_input_cast_0, %/layers.15/self_attn/MatMul_input_cast_1)
  %/layers.15/self_attn/MatMul_output_0 = Cast[to = 10](%/layers.15/self_attn/MatMul_output_cast_0)
  %/layers.15/self_attn/Reshape_6_input_cast_0 = Cast[to = 1](%/layers.15/self_attn/MatMul_output_0)
  %/layers.15/self_attn/Reshape_6_output_cast_0 = Reshape(%/layers.15/self_attn/Reshape_6_input_cast_0, %/layers.15/self_attn/Concat_6_output_0)
  %/layers.15/self_attn/Reshape_6_output_0 = Cast[to = 10](%/layers.15/self_attn/Reshape_6_output_cast_0)
  %/layers.15/self_attn/Add_input_cast_0 = Cast[to = 1](%/layers.15/self_attn/Reshape_6_output_0)
  %/layers.15/self_attn/Add_output_cast_0 = Add(%/layers.15/self_attn/Add_input_cast_0, %/layers.0/self_attn/Add_input_cast_1)
  %/layers.15/self_attn/Add_output_0 = Cast[to = 10](%/layers.15/self_attn/Add_output_cast_0)
  %/layers.15/self_attn/Reshape_7_input_cast_0 = Cast[to = 1](%/layers.15/self_attn/Add_output_0)
  %/layers.15/self_attn/Reshape_7_output_cast_0 = Reshape(%/layers.15/self_attn/Reshape_7_input_cast_0, %/layers.15/self_attn/Concat_7_output_0)
  %/layers.15/self_attn/Reshape_7_output_0 = Cast[to = 10](%/layers.15/self_attn/Reshape_7_output_cast_0)
  %/layers.15/self_attn/Softmax_input_cast_0 = Cast[to = 1](%/layers.15/self_attn/Reshape_7_output_0)
  %/layers.15/self_attn/Softmax_output_cast_0 = Softmax[axis = -1](%/layers.15/self_attn/Softmax_input_cast_0)
  %/layers.15/self_attn/Softmax_output_0 = Cast[to = 10](%/layers.15/self_attn/Softmax_output_cast_0)
  %/layers.15/self_attn/MatMul_1_input_cast_0 = Cast[to = 1](%/layers.15/self_attn/Softmax_output_0)
  %/layers.15/self_attn/MatMul_1_output_cast_0 = MatMul(%/layers.15/self_attn/MatMul_1_input_cast_0, %/layers.15/self_attn/MatMul_1_input_cast_1)
  %/layers.15/self_attn/MatMul_1_output_0 = Cast[to = 10](%/layers.15/self_attn/MatMul_1_output_cast_0)
  %/layers.15/self_attn/Reshape_8_input_cast_0 = Cast[to = 1](%/layers.15/self_attn/MatMul_1_output_0)
  %/layers.15/self_attn/Reshape_8_output_cast_0 = Reshape(%/layers.15/self_attn/Reshape_8_input_cast_0, %/layers.15/self_attn/Concat_8_output_0)
  %/layers.15/self_attn/Reshape_8_output_0 = Cast[to = 10](%/layers.15/self_attn/Reshape_8_output_cast_0)
  %/layers.15/self_attn/Transpose_4_input_cast_0 = Cast[to = 1](%/layers.15/self_attn/Reshape_8_output_0)
  %/layers.15/self_attn/Transpose_4_output_cast_0 = Transpose[perm = [0, 2, 1, 3]](%/layers.15/self_attn/Transpose_4_input_cast_0)
  %/layers.15/self_attn/Transpose_4_output_0 = Cast[to = 10](%/layers.15/self_attn/Transpose_4_output_cast_0)
  %/layers.15/self_attn/Reshape_9_input_cast_0 = Cast[to = 1](%/layers.15/self_attn/Transpose_4_output_0)
  %/layers.15/self_attn/Reshape_9_output_cast_0 = Reshape(%/layers.15/self_attn/Reshape_9_input_cast_0, %/layers.15/self_attn/Concat_9_output_0)
  %/layers.15/self_attn/Reshape_9_output_0 = Cast[to = 10](%/layers.15/self_attn/Reshape_9_output_cast_0)
  %/layers.15/self_attn/out_proj/MatMul_input_cast_0 = Cast[to = 1](%/layers.15/self_attn/Reshape_9_output_0)
  %/layers.15/self_attn/out_proj/MatMul_output_cast_0 = MatMul(%/layers.15/self_attn/out_proj/MatMul_input_cast_0, %onnx::MatMul_3196)
  %/layers.15/self_attn/out_proj/MatMul_output_0 = Cast[to = 10](%/layers.15/self_attn/out_proj/MatMul_output_cast_0)
  %/layers.15/self_attn/out_proj/Add_input_cast_1 = Cast[to = 1](%/layers.15/self_attn/out_proj/MatMul_output_0)
  %/layers.15/self_attn/out_proj/Add_output_cast_0 = Add(%layers.15.self_attn.out_proj.bias, %/layers.15/self_attn/out_proj/Add_input_cast_1)
  %/layers.15/self_attn/out_proj/Add_output_0 = Cast[to = 10](%/layers.15/self_attn/out_proj/Add_output_cast_0)
  %/layers.15/Add_input_cast_1 = Cast[to = 1](%/layers.15/self_attn/out_proj/Add_output_0)
  %/layers.15/Add_output_cast_0 = Add(%/layers.15/self_attn_layer_norm/ReduceMean_input_cast_0, %/layers.15/Add_input_cast_1)
  %/layers.15/Add_output_0 = Cast[to = 10](%/layers.15/Add_output_cast_0)
  %/layers.15/final_layer_norm/ReduceMean_input_cast_0 = Cast[to = 1](%/layers.15/Add_output_0)
  %/layers.15/final_layer_norm/ReduceMean_output_cast_0 = ReduceMean[axes = [-1]](%/layers.15/final_layer_norm/ReduceMean_input_cast_0)
  %/layers.15/final_layer_norm/ReduceMean_output_0 = Cast[to = 10](%/layers.15/final_layer_norm/ReduceMean_output_cast_0)
  %/layers.15/final_layer_norm/Sub_input_cast_1 = Cast[to = 1](%/layers.15/final_layer_norm/ReduceMean_output_0)
  %/layers.15/final_layer_norm/Sub_output_cast_0 = Sub(%/layers.15/final_layer_norm/ReduceMean_input_cast_0, %/layers.15/final_layer_norm/Sub_input_cast_1)
  %/layers.15/final_layer_norm/Sub_output_0 = Cast[to = 10](%/layers.15/final_layer_norm/Sub_output_cast_0)
  %/layers.15/final_layer_norm/Pow_input_cast_0 = Cast[to = 1](%/layers.15/final_layer_norm/Sub_output_0)
  %/layers.15/final_layer_norm/Pow_output_cast_0 = Pow(%/layers.15/final_layer_norm/Pow_input_cast_0, %/layers.0/self_attn_layer_norm/Pow_input_cast_1)
  %/layers.15/final_layer_norm/Pow_output_0 = Cast[to = 10](%/layers.15/final_layer_norm/Pow_output_cast_0)
  %/layers.15/final_layer_norm/ReduceMean_1_input_cast_0 = Cast[to = 1](%/layers.15/final_layer_norm/Pow_output_0)
  %/layers.15/final_layer_norm/ReduceMean_1_output_cast_0 = ReduceMean[axes = [-1]](%/layers.15/final_layer_norm/ReduceMean_1_input_cast_0)
  %/layers.15/final_layer_norm/ReduceMean_1_output_0 = Cast[to = 10](%/layers.15/final_layer_norm/ReduceMean_1_output_cast_0)
  %/layers.15/final_layer_norm/Add_input_cast_0 = Cast[to = 1](%/layers.15/final_layer_norm/ReduceMean_1_output_0)
  %/layers.15/final_layer_norm/Add_output_cast_0 = Add(%/layers.15/final_layer_norm/Add_input_cast_0, %/layers.0/self_attn_layer_norm/Add_input_cast_1)
  %/layers.15/final_layer_norm/Add_output_0 = Cast[to = 10](%/layers.15/final_layer_norm/Add_output_cast_0)
  %/layers.15/final_layer_norm/Sqrt_input_cast_0 = Cast[to = 1](%/layers.15/final_layer_norm/Add_output_0)
  %/layers.15/final_layer_norm/Sqrt_output_cast_0 = Sqrt(%/layers.15/final_layer_norm/Sqrt_input_cast_0)
  %/layers.15/final_layer_norm/Sqrt_output_0 = Cast[to = 10](%/layers.15/final_layer_norm/Sqrt_output_cast_0)
  %/layers.15/final_layer_norm/Div_input_cast_1 = Cast[to = 1](%/layers.15/final_layer_norm/Sqrt_output_0)
  %/layers.15/final_layer_norm/Div_output_cast_0 = Div(%/layers.15/final_layer_norm/Pow_input_cast_0, %/layers.15/final_layer_norm/Div_input_cast_1)
  %/layers.15/final_layer_norm/Div_output_0 = Cast[to = 10](%/layers.15/final_layer_norm/Div_output_cast_0)
  %/layers.15/final_layer_norm/Mul_input_cast_0 = Cast[to = 1](%/layers.15/final_layer_norm/Div_output_0)
  %/layers.15/final_layer_norm/Mul_output_cast_0 = Mul(%/layers.15/final_layer_norm/Mul_input_cast_0, %layers.15.final_layer_norm.weight)
  %/layers.15/final_layer_norm/Mul_output_0 = Cast[to = 10](%/layers.15/final_layer_norm/Mul_output_cast_0)
  %/layers.15/final_layer_norm/Add_1_input_cast_0 = Cast[to = 1](%/layers.15/final_layer_norm/Mul_output_0)
  %/layers.15/final_layer_norm/Add_1_output_cast_0 = Add(%/layers.15/final_layer_norm/Add_1_input_cast_0, %layers.15.final_layer_norm.bias)
  %/layers.15/final_layer_norm/Add_1_output_0 = Cast[to = 10](%/layers.15/final_layer_norm/Add_1_output_cast_0)
  %/layers.15/fc1/MatMul_input_cast_0 = Cast[to = 1](%/layers.15/final_layer_norm/Add_1_output_0)
  %/layers.15/fc1/MatMul_output_cast_0 = MatMul(%/layers.15/fc1/MatMul_input_cast_0, %onnx::MatMul_3197)
  %/layers.15/fc1/MatMul_output_0 = Cast[to = 10](%/layers.15/fc1/MatMul_output_cast_0)
  %/layers.15/fc1/Add_input_cast_1 = Cast[to = 1](%/layers.15/fc1/MatMul_output_0)
  %/layers.15/fc1/Add_output_cast_0 = Add(%layers.15.fc1.bias, %/layers.15/fc1/Add_input_cast_1)
  %/layers.15/fc1/Add_output_0 = Cast[to = 10](%/layers.15/fc1/Add_output_cast_0)
  %/layers.15/activation_fn/Relu_input_cast_0 = Cast[to = 1](%/layers.15/fc1/Add_output_0)
  %/layers.15/activation_fn/Relu_output_cast_0 = Relu(%/layers.15/activation_fn/Relu_input_cast_0)
  %/layers.15/activation_fn/Relu_output_0 = Cast[to = 10](%/layers.15/activation_fn/Relu_output_cast_0)
  %/layers.15/fc2/MatMul_input_cast_0 = Cast[to = 1](%/layers.15/activation_fn/Relu_output_0)
  %/layers.15/fc2/MatMul_output_cast_0 = MatMul(%/layers.15/fc2/MatMul_input_cast_0, %onnx::MatMul_3198)
  %/layers.15/fc2/MatMul_output_0 = Cast[to = 10](%/layers.15/fc2/MatMul_output_cast_0)
  %/layers.15/fc2/Add_input_cast_1 = Cast[to = 1](%/layers.15/fc2/MatMul_output_0)
  %/layers.15/fc2/Add_output_cast_0 = Add(%layers.15.fc2.bias, %/layers.15/fc2/Add_input_cast_1)
  %/layers.15/fc2/Add_output_0 = Cast[to = 10](%/layers.15/fc2/Add_output_cast_0)
  %/layers.15/Add_1_input_cast_1 = Cast[to = 1](%/layers.15/fc2/Add_output_0)
  %/layers.15/Add_1_output_cast_0 = Add(%/layers.15/final_layer_norm/ReduceMean_input_cast_0, %/layers.15/Add_1_input_cast_1)
  %/layers.15/Add_1_output_0 = Cast[to = 10](%/layers.15/Add_1_output_cast_0)
  %/layer_norm/ReduceMean_input_cast_0 = Cast[to = 1](%/layers.15/Add_1_output_0)
  %/layer_norm/ReduceMean_output_cast_0 = ReduceMean[axes = [-1]](%/layer_norm/ReduceMean_input_cast_0)
  %/layer_norm/ReduceMean_output_0 = Cast[to = 10](%/layer_norm/ReduceMean_output_cast_0)
  %/layer_norm/Sub_input_cast_1 = Cast[to = 1](%/layer_norm/ReduceMean_output_0)
  %/layer_norm/Sub_output_cast_0 = Sub(%/layer_norm/ReduceMean_input_cast_0, %/layer_norm/Sub_input_cast_1)
  %/layer_norm/Sub_output_0 = Cast[to = 10](%/layer_norm/Sub_output_cast_0)
  %/layer_norm/Pow_input_cast_0 = Cast[to = 1](%/layer_norm/Sub_output_0)
  %/layer_norm/Pow_output_cast_0 = Pow(%/layer_norm/Pow_input_cast_0, %/layers.0/self_attn_layer_norm/Pow_input_cast_1)
  %/layer_norm/Pow_output_0 = Cast[to = 10](%/layer_norm/Pow_output_cast_0)
  %/layer_norm/ReduceMean_1_input_cast_0 = Cast[to = 1](%/layer_norm/Pow_output_0)
  %/layer_norm/ReduceMean_1_output_cast_0 = ReduceMean[axes = [-1]](%/layer_norm/ReduceMean_1_input_cast_0)
  %/layer_norm/ReduceMean_1_output_0 = Cast[to = 10](%/layer_norm/ReduceMean_1_output_cast_0)
  %/layer_norm/Add_input_cast_0 = Cast[to = 1](%/layer_norm/ReduceMean_1_output_0)
  %/layer_norm/Add_output_cast_0 = Add(%/layer_norm/Add_input_cast_0, %/layers.0/self_attn_layer_norm/Add_input_cast_1)
  %/layer_norm/Add_output_0 = Cast[to = 10](%/layer_norm/Add_output_cast_0)
  %/layer_norm/Sqrt_input_cast_0 = Cast[to = 1](%/layer_norm/Add_output_0)
  %/layer_norm/Sqrt_output_cast_0 = Sqrt(%/layer_norm/Sqrt_input_cast_0)
  %/layer_norm/Sqrt_output_0 = Cast[to = 10](%/layer_norm/Sqrt_output_cast_0)
  %/layer_norm/Div_input_cast_1 = Cast[to = 1](%/layer_norm/Sqrt_output_0)
  %/layer_norm/Div_output_cast_0 = Div(%/layer_norm/Pow_input_cast_0, %/layer_norm/Div_input_cast_1)
  %/layer_norm/Div_output_0 = Cast[to = 10](%/layer_norm/Div_output_cast_0)
  %/layer_norm/Mul_input_cast_0 = Cast[to = 1](%/layer_norm/Div_output_0)
  %/layer_norm/Mul_output_cast_0 = Mul(%/layer_norm/Mul_input_cast_0, %layer_norm.weight)
  %/layer_norm/Mul_output_0 = Cast[to = 10](%/layer_norm/Mul_output_cast_0)
  %/layer_norm/Add_1_input_cast_0 = Cast[to = 1](%/layer_norm/Mul_output_0)
  %/layer_norm/Add_1_output_cast_0 = Add(%/layer_norm/Add_1_input_cast_0, %layer_norm.bias)
  %output = Cast[to = 10](%/layer_norm/Add_1_output_cast_0)
  return %output
}
